model_dir/checkpoint_critic_target_0.pth (torch_old, 575149 bytes, 9 tensors)

fcs1.weight f4 [400, 52]
0.13939561 -0.32530195 0.02467436 0.063980035 0.1434596 -0.24632287 -0.034168657 0.058668252
0.24560313 -0.2356962 0.0045491224 0.01101352 0.21035038 0.1771729 -0.009877985 0.0125199845
0.092088096 -0.36076003 0.005442703 0.33195654 0.07864806 0.9396411 0.013671286 0.33053595
0.009839931 -0.31021836 0.016007088 0.10038004 -0.13111034 -0.30096644 -0.03423788 0.15748984
0.12010704 -0.28835922 0.010881242 0.06144502 -0.21973856 0.12397643 0.039142683 0.065905355
-0.032698914 -0.33785123 -0.019690158 -0.15304755 -0.05965521 0.88734204 -0.025086433 -0.1755552
0.8812627 1.0590838 -0.54269105 0.13263376 0.119977415 0.035932768 -0.028231017 -0.015392932
0.028450927 -0.040637966 0.0024736798 -0.04270937 0.34023842 -0.070888326 0.022146314 -0.10319704
-0.19739857 0.060248025 -0.01761244 -0.13845836 0.6442523 -0.28517166 0.04910358 0.02667102
-0.45336583 0.12334681 -0.009989143 -0.01188599 0.024285084 0.19147477 0.019002374 -0.12381895
-0.021241792 -0.10069901 -0.008483595 -0.058624398 0.042984486 0.24121311 0.026782474 -0.05424655
0.175547 0.064154476 -0.02728883 0.011133737 0.09741156 0.1612835 -0.053730853 0.12902573
0.42706233 0.08707927 0.042658128 0.08002833 1.6012617 1.256538 0.1848596 -0.12719895
0.031566627 0.024757817 0.04205399 0.017928824 -0.13758914 0.04590021 0.03226937 0.046006136
-0.0015866491 0.19764715 -0.050834607 0.39175147 -0.11860693 0.0143898325 -0.032664094 0.4343844
0.2542436 0.3945133 0.08869028 0.49967477 -0.12420454 -0.2900474 0.09998097 0.5163559
0.13290176 0.7843673 -0.025338786 -0.20750439 0.17775813 0.040896043 -0.0036597752 -0.17793378
0.19755664 0.76303273 -0.13397841 -0.054476228 0.111509085 -0.03303328 -0.10739503 0.011009629
0.18651327 0.6504573 0.19979638 -0.2891683 0.120260194 -0.30278242 0.18772523 -0.272848
-0.22557141 -0.10511981 0.571546 0.8027987 -0.0014786421 -0.13405061 0.004156829 0.087772414
0.30364493 -0.006519494 0.02989352 0.087089956 -0.053358585 -0.12502892 0.010505717 0.30668303
0.3440811 -0.05072244 -0.058224298 0.32315132 0.1740558 -0.023279106 0.048309654 0.10152894
0.15155542 -0.26447186 0.07148392 0.09951069 0.10727965 0.14090928 -0.040530093 -0.16392691
-0.38466707 -0.03827227 -0.032066874 -0.24036166 0.061698582 0.16651262 -0.08566175 0.092440225
-0.41057914 -0.047245596 -0.08964978 0.10913895 0.12558408 0.2743335 -0.23962694 0.018542662
-0.19917667 -0.28310058 -0.23559369 0.07359775 1.5783019 0.9919289 -0.25591743 -0.43012762
-0.07930537 -0.094066896 0.0037165328 -0.049006343 -0.25597018 -0.1331766 0.018564552 -0.021112332
0.030537201 0.020091444 0.20512342 -0.33470598 -0.28512233 -0.009481948 0.21309868 -0.2975536
-0.10682663 -0.17893435 -0.27643058 -0.05362813 -0.3467339 0.2304495 -0.20328481 -0.10761899
-0.047932945 0.1769631 0.04230412 -0.1054969 0.2386348 -0.07973691 -0.033977035 -0.14347723
0.03091828 0.13593793 0.07884956 -0.2058591 0.2575628 -0.0046530575 0.062221278 -0.19728304
0.04761028 0.12940626 -0.14453168 0.03634437 0.37623915 0.1886847 -0.15796147 0.021426916
00000000: b9bd 0e3e fa8d a6be e221 ca3c f707 833d
00000010: 13e7 123e 103c 7cbe 6ff4 0bbd 1f4e 703d
00000020: 637f 7b3e 585a 71be ce10 953b 0d72 343c
00000030: 1766 573e d06c 353e 46d7 21bc 9f20 4d3c
00000040: af98 bc3d 8ab5 b8be b458 b23b 35f6 a93e
00000050: 3c12 a13d 528c 703f 88fd 5f3c 023c a93e
00000060: a937 213c f1d4 9ebe 4c21 833c 0d94 cd3d
00000070: ca41 06be 4618 9abe 053d 0cbd 0445 213e
00000080: aefa f53d d2a3 93be 3d47 323c c6ad 7b3d
00000090: 2503 61be 5be7 fd3d 1454 203d 63f9 863d
000000a0: 4cef 05bd d6fa acbe 414d a1bc 7fb8 1cbe
000000b0: 0559 74bd d928 633f 1082 cdbc bec4 33be
000000c0: 6f9a 613f 0f90 873f cded 0abf 25d1 073e
000000d0: b8b6 f53d 3d2e 133d bc44 e7bc a332 7cbc
000000e0: eb11 e93c ff73 26bd 761d 223b 05f0 2ebd
000000f0: bb33 ae3e e62d 91bd 306c b53c f858 d3bd
00000100: da22 4abe a2c6 763d f747 90bc 07c8 0dbe
00000110: b8ed 243f 0502 92be d620 493d 2f7d da3c
00000120: 911f e8be 419d fc3d 81a9 23bc 75bd 42bc
00000130: 83f1 c63c f611 443e deaa 9b3c ca94 fdbd
00000140: 4403 aebc 483b cebd c7fe 0abc 2320 70bd
00000150: 8010 303d 9200 773e eb66 db3c a131 5ebd
00000160: 98c2 333e 6c63 833d d38c dfbc 476a 363c
00000170: b67f c73d 8027 253e e214 5cbd 521f 043e
00000180: eaa7 da3e 9e56 b23d 4aba 2e3d e5e5 a33d
00000190: 25f6 cc3f 3dd6 a03f d64b 3d3e 7140 02be
000001a0: 024c 013d e8d0 ca3c ce40 2c3d 78df 923c
000001b0: 2be4 0cbe dc01 3c3d e32c 043d ee70 3c3d
000001c0: 1cf7 cfba 0464 4a3e f337 50bd a693 c83e
000001d0: 31e8 f2bd 55c3 6b3c c9ca 05bd a267 de3e
000001e0: 382c 823e a6fd c93e 40a3 b53d 5fd5 ff3e
000001f0: f35e febd 1881 94be d3c2 cc3d e62f 043f
00000200: 6617 083e 4ccc 483f 4993 cfbc 087c 54be
00000210: 3a06 363e 9c82 273d d7d8 6fbb 4634 36be
00000220: 4a4c 4a3e 1d56 433f a331 09be 7722 5fbd
00000230: e05e e43d e84d 07bd edf1 dbbd bb61 343c
00000240: 56fd 3e3e 5f84 263f 6c97 4c3e de0d 94be
00000250: fa4a f63d 4c06 9bbe 0b3b 403e bcb2 8bbe
00000260: 31fc 66be 0e49 d7bd d750 123f 3784 4d3f
00000270: ffce c1ba 9044 09be 0236 883b 06c2 b33d
00000280: 5977 9b3e 7ba1 d5bb 41e3 f43c 385c b23d
00000290: 888e 5abd 9507 00be 2c20 2c3c 8f05 9d3e
000002a0: 662b b03e 55c2 4fbd 9a7c 6ebd 1774 a53e
000002b0: af3b 323e d3b3 bebc 58e0 453d 68ee cf3d
000002c0: 5831 1b3e db68 87be 2966 923d 43cc cb3d
000002d0: 6fb5 db3d 864a 103e e202 26bd 75dc 27be
000002e0: 15f3 c4be 62c3 1cbd 8e58 03bd 5e21 76be
000002f0: a7b7 7c3d 4982 2a3e 6d6f afbd 4d51 bd3d
00000300: 6e37 d2be 9984 41bd 4e9a b7bd 3e84 df3d
00000310: 1d99 003e 7175 8c3e c460 75be c8e6 973c
00000320: f8f4 4bbe 8ff2 90be 793f 71be 6bba 963d
00000330: cc05 ca3f 0def 7d3f 9c07 83be b039 dcbe
00000340: db6a a2bd 25a6 c0bd 1391 733b e0ba 48bd
00000350: 860e 83be 725f 08be b014 983c c5f3 acbc
00000360: 2729 fa3c d096 a43c e00b 523e 955e abbe
00000370: 8efb 91be 2c5a 1bbc 8a36 5a3e f258 98be
00000380: ecc7 dabd 913a 37be 4f88 8dbe 2ca9 5bbd
00000390: 1b87 b1be f4fa 6b3e e529 50be 5867 dcbd
000003a0: 5655 44bd d135 353e 1647 2d3d c20e d8bd
000003b0: ae5c 743e 1b4d a3bd 812b 0bbd b2eb 12be
000003c0: 5548 fd3c 5033 0b3e e17b a13d bacc 52be
000003d0: 45df 833e ad78 98bb bddb 7e3d 9104 4abe
000003e0: ff02 433d 1383 043e 1d00 14be d6dd 143d
000003f0: 6ba2 c03e 9036 413e a7c0 21be 8087 af3c

fcs1.bias f4 [400]
-0.4319615 -0.42522314 -0.2984003 -0.2347401 -0.023644306 -0.0007147817 -0.5705103 -0.2532959
-0.27546936 0.14669234 -0.099940866 -0.25184828 -0.2791983 -0.15824385 -0.051845845 0.087314
0.028135678 -0.25520703 0.07512695 -0.14311954 -0.11384786 0.0072090332 -0.088462405 -0.14200474
-0.28375158 -0.14393164 -0.16045606 0.0333963 -0.41618288 -0.2994591 -0.03751199 -0.22590768
-0.23453283 -0.1906481 -0.37341878 -0.19582914 0.050386705 -0.083160385 0.11364536 -0.6864985
0.09316068 -0.10427503 -0.1981805 -0.29788658 -0.2917735 -0.24468628 -0.2595277 0.13690221
-0.31794208 -0.22005004 0.09419348 0.16385007 -0.11082581 -0.15578492 -0.036893867 0.0294202
-0.07215256 -0.3012593 -0.3545855 -0.1246594 -0.00027427066 -0.05378337 -0.08337702 0.058633152
-0.23706691 0.042822566 0.01316415 -0.24032202 0.12012823 -0.3547503 -0.1717404 -0.042640388
-0.06736332 -0.39658588 -0.45970255 0.09603469 -0.097518735 -0.085644044 -0.09164631 0.045448467
-0.11171895 0.024034994 -0.15328242 -0.17973402 -0.09160019 -0.18413536 -0.3644101 0.011525418
-0.14601791 -0.15388167 -0.04248532 -0.08225034 -0.18001111 -0.14711472 -0.12241844 -0.026275294
-0.21403444 -0.16628246 -0.11982216 0.045501497 -0.037958957 -0.2583737 -0.38268775 -0.2680402
-0.04655421 -0.16291599 0.12183557 -0.089963935 -0.30517024 -0.32089552 -0.33989808 -0.17768551
0.023280425 -0.33497974 -0.14067794 -0.11342264 -0.2742791 0.10920565 -0.09412567 -0.219917
-0.08710044 -0.072497316 -0.2750281 -0.2673763 -0.30649182 -0.13325766 -0.3172049 0.08429303
-0.057929058 -0.025496343 -0.31056556 -0.10050153 -0.543495 -0.19395198 0.04986654 -0.033258695
0.036195185 -0.07070907 -0.09103354 -0.16805752 0.09580032 -0.1800034 -0.26726785 -0.043022186
-0.39625856 -0.7319416 -0.12783201 -0.17825644 -0.1855293 0.15310606 -0.27276772 -0.3659942
-0.16080825 0.12554386 -0.078537524 -0.09889314 -0.12630114 0.13255116 -0.19081923 0.18278556
-0.1723175 -0.046448134 -0.40148717 -0.27644044 -0.048417855 -0.38245836 -0.3034949 0.066848226
-0.28578553 -0.2854247 -0.32690609 -0.006755548 -0.37370723 -0.15988033 -0.30900037 -0.00017629872
-0.18252178 -0.17044465 -0.08447822 -0.23971516 -0.060174905 -0.23788421 -0.35277516 -0.12134414
0.098762184 -0.3090978 -0.06358969 0.09753646 -0.13901575 0.028090283 -0.25239256 -0.054852672
-0.13847676 -0.19996318 -0.4135691 -0.7042217 -0.25565562 -0.2729033 -0.21706557 -0.48712698
0.14851339 -0.23414257 -0.2788911 -0.18185663 -0.11148453 -0.1230953 0.08114871 -0.19315238
0.06310302 -0.3537928 -0.28908277 -0.14673297 -0.16425362 0.020806063 -0.045576043 -0.0723573
-0.06183275 -0.26067463 -0.038428478 0.20800097 -0.14353798 -0.22907011 -0.058142725 0.027668033
-0.049678244 -0.15010974 -0.16567947 -0.32311696 -0.33707967 -0.10567736 -0.15775794 -0.14648828
-0.051297534 -0.039350156 -0.14693621 -0.04293379 -0.27521953 -0.04079086 -0.2123887 -0.5631883
-0.05299112 -0.28346446 -0.19393067 -0.05464071 -0.027773831 -0.09744514 -0.120493814 -0.008599143
-0.0092185 -0.025598517 -0.3186741 0.10503271 -0.08909171 0.1025026 -0.023901982 -0.10300667
00000000: 0f2a ddbe d9b6 d9be edc7 98be b55f 70be
00000010: b4b1 c1bc 3060 3bba f70c 12bf 00b0 81be
00000020: 520a 8dbe 8436 163e ccad ccbd 42f2 80be
00000030: 14f3 8ebe ad0a 22be 4f5c 54bd afd1 b23d
00000040: cb7c e63c 7faa 82be 29dc 993d ee8d 12be
00000050: 1129 e9bd c139 ec3b c72b b5bd b169 11be
00000060: e347 91be d162 13be 984e 24be 8fca 083d
00000070: ec15 d5be b452 99be 2ca6 19bd 5854 67be
00000080: 6029 70be 4139 43be bf30 bfbe 6f87 48be
00000090: 4a62 4e3d fe4f aabd e6be e83d 5ebe 2fbf
000000a0: 07cb be3d 268e d5bd d4ef 4abe 9784 98be
000000b0: 5663 95be 0a8f 7abe d1e0 84be 1830 0c3e
000000c0: 4ec9 a2be cc54 61be 83e8 c03d 50c8 273e
000000d0: a4f8 e2bd 1586 1fbe 061e 17bd a202 f13c
000000e0: b9c4 93bd a93e 9abe 3b8c b5be 6d4d ffbd
000000f0: fccb 8fb9 f34b 5cbd 92c1 aabd 5129 703d
00000100: abc1 72be b766 2f3d 72ae 573c fa16 76be
00000110: ca05 f63d d5a1 b5be b7dc 2fbe b0a7 2ebd
00000120: c8f5 89bd 4e0d cbbe 225e ebbe d6ad c43d
00000130: e7b7 c7bd 2566 afbd 10b1 bbbd 2c28 3a3d
00000140: e8cc e4bd 09e5 c43c 11f6 1cbe 320c 38be
00000150: e198 bbbd fb8d 3cbe f693 babe 1bd5 3c3c
00000160: b885 15be 2893 1dbe 1605 2ebd de72 a8bd
00000170: d554 38be 3ea5 16be 85b6 fabd 493f d7bc
00000180: d82b 5bbe f345 2abe 5265 f5bd c75f 3a3d
00000190: da7a 1bbd 8f49 84be a6ef c3be 913c 89be
000001a0: a1af 3ebd 73d3 26be ed84 f93d 033f b8bd
000001b0: 463f 9cbe 6b4c a4be 1f07 aebe 31f3 35be
000001c0: 97b6 be3c 7782 abbe e10d 10be 214a e8bd
000001d0: 4f6e 8cbe 36a7 df3d f6c4 c0bd ec31 61be
000001e0: b761 b2bd 7979 94bd 7cd0 8cbe 8ce5 88be
000001f0: 7fec 9cbe b274 08be ae68 a2be d3a1 ac3d
00000200: 0547 6dbd b5dd d0bc 7302 9fbe bfd3 cdbd
00000210: 7d22 0bbf 599b 46be db40 4c3d 453a 08bd
00000220: 6741 143d ebcf 90bd cb6f babd 4517 2cbe
00000230: f532 c43d d052 38be 55d7 88be 0838 30bd
00000240: 67e2 cabe 8660 3bbf 65e6 02be db88 36be
00000250: 65fb 3dbe d6c7 1c3e 36a8 8bbe 9763 bbbe
00000260: ebaa 24be 928e 003e 48d8 a0bd 7d88 cabd
00000270: 1655 01be 7ebb 073e 1e66 43be 232c 3b3e
00000280: 0074 30be 6640 3ebd ba8f cdbe 9a89 8dbe
00000290: cd51 46bd 95d1 c3be af63 9bbe b9e7 883d
000002a0: 7b52 92be 3023 92be 3c60 a7be a55d ddbb
000002b0: 8e56 bfbe abb7 23be 4c35 9ebe d4dc 38b9
000002c0: fde6 3abe 0b89 2ebe eb02 adbd e477 75be
000002d0: f679 76bd eb97 73be f29e b4be 4783 f8bd
000002e0: d443 ca3d 1142 9ebe 503b 82bd 32c1 c73d
000002f0: 255a 0ebe 981d e63c 9939 81be 32ad 60bd
00000300: dacc 0dbe 26c3 4cbe 54bf d3be e047 34bf
00000310: 4be5 82be fbb9 8bbe 7046 5ebe b568 f9be
00000320: e513 183e 12c3 6fbe d0ca 8ebe a038 3abe
00000330: 0052 e4bd 6319 fcbd 4b31 a63d bdc9 45be
00000340: 283c 813d 5424 b5be a802 94be 2b41 16be
00000350: 1a32 28be 7a71 aa3c f2ad 3abd 1030 94bd
00000360: 5644 7dbd 2577 85be 2e67 1dbd 35fe 543e
00000370: 9ffb 12be 5b91 6abe 1127 6ebd 12a8 e23c
00000380: 6a7b 4bbd 5eb6 19be e1a7 29be 966f a5be
00000390: b595 acbe 5f6d d8bd 4c8b 21be 0601 16be
000003a0: 5d1d 52bd a12d 21bd 7276 16be 57db 2fbd
000003b0: 93e9 8cbe 5114 27bd 6c7c 59be 1c2d 10bf
000003c0: 370d 59bd 4122 91be c395 46be f0ce 5fbd
000003d0: f285 e3bc 5191 c7bd 76c5 f6bd 6be3 0cbc
000003e0: 3109 17bc fbb3 d1bc 4029 a3be 641b d73d
000003f0: b775 b6bd e2ec d13d 17ce c3bc 29f5 d2bd

fc2.weight f4 [300, 400]
0.02127634 0.046345074 -0.05514432 0.0021985315 0.038238738 -0.0314996 -0.07705118 0.021704754
-0.020751067 -0.031280737 -0.08889775 -0.03439791 -0.034174394 0.04649781 -0.03830952 0.03890557
-0.029934023 0.050986845 -0.11941572 -0.0059416816 -0.011710134 -0.043539893 -0.00441895 -0.047410518
0.026272016 -0.08643158 -0.035441004 -0.118052244 0.005645052 0.022947153 -0.0116905775 -0.0037238249
0.0076609254 0.14079544 -0.082877606 -0.01530043 -0.08175255 0.014897162 -0.033038165 0.016940046
0.0055370172 -0.017241798 0.04752228 -0.078481704 0.08661784 -0.05879888 0.1294406 -0.11377556
-0.052015036 -0.0027063417 0.028328402 0.031127995 -0.011286378 -0.0499661 0.03206585 0.01967817
0.043938503 -0.008958973 -0.022420017 -0.002363145 -0.0264825 -0.06804331 0.0018677332 0.01780246
0.007392235 0.011759495 0.07779624 -0.11104116 -0.043383427 -0.057990476 0.042865608 -0.037303675
-0.084889285 0.06024431 -0.05893671 -0.028127236 -0.030138917 0.027967047 0.044962972 -0.014981913
0.060728602 -0.053900056 0.059216116 -0.08194627 -0.021308003 0.036957216 -0.014300176 0.018139604
-0.0035883156 0.013904359 -0.049820814 -0.028538886 0.011654255 -0.017757757 -0.07690216 0.044217903
0.08085102 -0.03879754 -0.045421187 -0.0048971903 -0.024582574 -0.061365638 -0.072923504 -0.038741652
0.08103729 0.05590429 0.037165835 0.02806018 -0.016066454 -0.0027848068 -0.025119025 -0.02865996
-0.08877109 -0.07924912 0.053292826 0.03281092 -0.06782724 -0.061656214 0.11408104 -0.06279803
-0.07532262 -0.0012149842 -0.016781718 -0.015803816 -0.0045525962 0.13932021 0.0047290837 -0.022367863
-0.024316214 0.044203002 -0.006494429 -0.050148644 0.040701184 0.0098288385 0.0070001436 0.025128337
-0.027777052 -0.02136761 -0.05491335 -0.01058974 -0.060676444 -0.0024478966 -0.036096662 0.0021801377
0.040183358 -0.06187973 -0.093152076 0.035336696 0.10443241 -0.017936572 -0.06673199 0.020916842
0.02844575 -0.038510688 -0.12074939 -0.06741745 -0.014342087 0.06519715 -0.061384264 0.0320584
-0.044150848 -0.0026492977 -0.036655463 -0.04779795 -0.014385859 0.029902358 -0.06818487 0.0022856116
-0.01924603 -0.017562175 -0.032717783 0.04358832 0.026774937 0.01620429 -0.0059943018 -0.017610606
-0.064921476 -0.0042997384 -0.022118263 0.058728095 0.03567198 -0.028022924 -0.008560362 0.048617527
0.038927924 -0.040548448 -0.07182825 0.008524039 -0.044262607 0.011159717 0.02214248 0.02315391
0.059894126 -0.01670535 -0.1241618 -0.078906395 0.05682072 -0.037657585 -0.008119841 -0.06460109
-0.015640369 -0.015706958 0.014869222 0.09343521 -0.04043296 0.016414773 -0.048095983 -0.07080006
-0.015293911 0.03296738 0.05533059 -0.042567577 0.0027594278 0.012577207 -0.033630494 0.032866795
0.101504296 -0.09475398 -0.05363556 -0.03748994 -0.08956831 -0.025612634 0.03436066 -0.038946547
0.019955706 -0.07173139 -0.055773903 -0.04403164 -0.08028477 0.0015477034 -0.048852224 -0.15735084
-0.010162258 0.009611838 -0.03346285 0.024647769 -0.044806506 0.021693574 0.036461752 -0.0320882
-0.005337711 -0.03710996 -0.09324895 0.023392329 0.024135536 -0.086282566 0.052398745 -0.05533431
0.04500395 0.035709232 8.572279e-05 -0.09757779 -0.051020373 -0.009033479 -0.036662918 -0.013696672
00000000: b84b ae3c 55d4 3d3d 03df 61bd 3d15 103b
00000010: 39a0 1c3d b905 01bd 02cd 9dbd 2bce b13c
00000020: 24fe a9bc 3b20 00bd 0610 b6bd d3e4 0cbd
00000030: 73fa 0bbd 7d74 3e3d 71ea 1cbd 725b 1f3d
00000040: 3238 f5bc 95d7 503d 3b90 f4bd 70b2 c2bb
00000050: dddb 3fbc e356 32bd d7cc 90bb 8831 42bd
00000060: 6938 d73c 0a03 b1bd 962a 11bd 60c5 f1bd
00000070: 21fa b83b abfb bb3c d689 3fbc 6a0b 74bb
00000080: 8008 fb3b ae2c 103e bcbb a9bd a8ae 7abc
00000090: e26d a7bd 3a13 743c 0753 07bd dac5 8a3c
000000a0: de6f b53b ac3e 8dbc b9a6 423d 04bb a0bd
000000b0: b264 b13d 18d7 70bd 148c 043e 2903 e9bd
000000c0: b80d 55bd e15c 31bb f710 e83c 2300 ff3c
000000d0: 80ea 38bc 41a9 4cbd 7b57 033d 1d34 a13c
000000e0: dcf8 333d a8c8 12bc 2faa b7bc fede 1abb
000000f0: d4f1 d8bc 4a5a 8bbd bace f43a 77d6 913c
00000100: 903a f23b e6aa 403c a353 9f3d 8c69 e3bd
00000110: d2b2 31bd 6c87 6dbd d993 2f3d bdcb 18bd
00000120: 6fda adbd bdc2 763d 9f67 71bd 176b e6bc
00000130: e4e5 f6bc 261b e53c 182b 383d b376 75bc
00000140: 8ebe 783d 4ec6 5cbd 998c 723d 72d3 a7bd
00000150: 1f8e aebc 7360 173d 494b 6abc 8299 943c
00000160: f229 6bbb 1ccf 633c e910 4cbd 62ca e9bc
00000170: 7df1 3e3c b778 91bc e17e 9dbd d51d 353d
00000180: 3895 a53d 2bea 1ebd 910b 3abd 9c78 a0bb
00000190: 6561 c9bc 895a 7bbd eb58 95bd 91af 1ebd
000001a0: e1f6 a53d e6fb 643d 343b 183d 76de e53c
000001b0: cc9d 83bc 4e81 36bb 6ac6 cdbc 4bc8 eabc
000001c0: 9ecd b5bd 5d4d a2bd 9449 5a3d be64 063d
000001d0: 02e9 8abd 3a8b 7cbd 52a3 e93d 419c 80bd
000001e0: bf42 9abd 1b40 9fba d079 89bc 0177 81bc
000001f0: f22d 95bb f5a9 0e3e 6ef6 9a3b cf3c b7bc
00000200: cc32 c7bc 350e 353d 38cf d4bb aa68 4dbd
00000210: 49b6 263d 2309 213c 7661 e53b f1d9 cd3c
00000220: b38c e3bc 200b afbc d2ec 60bd 9780 2dbc
00000230: dd87 78bd e46c 20bb 18da 13bd a4e0 0e3b
00000240: 4e97 243d 9a75 7dbd 84c6 bebd 36bd 103d
00000250: a9e0 d53d b8ef 92bc c8aa 88bd cc59 ab3c
00000260: 1007 e93c 62bd 1dbd 754b f7bd 2912 8abd
00000270: 13fb 6abc 1586 853d 116e 7bbd ab4f 033d
00000280: 85d7 34bd d79f 2dbb 0a24 16bd c9c7 43bd
00000290: aab2 6bbc caf5 f43c 82a4 8bbd 33ca 153b
000002a0: daa9 9dbc 8dde 8fbc 1503 06bd ab89 323d
000002b0: 1d57 db3c dcbe 843c d96b c4bb 1e44 90bc
000002c0: 8df5 84bd d2e4 8cbb 5c31 b5bc df8c 703d
000002d0: c81c 123d 5590 e5bc c340 0cbc 2c23 473d
000002e0: e372 1f3d 2116 26bd b11a 93bd 69a8 0b3c
000002f0: b54c 35bd 3fd7 363c 2564 b53c 45ad bd3c
00000300: 8b53 753d a8d9 88bc 8b48 febd ad99 a1bd
00000310: d8bc 683d d73e 1abd 1509 05bc 944d 84bd
00000320: 3b20 80bc e1ab 80bc 0a9e 733c f65a bf3d
00000330: 089d 25bd 4678 863c 4b00 45bd 9fff 90bd
00000340: 5093 7abc ce08 073d 54a2 623d 575b 2ebd
00000350: 84d7 343b a110 4e3c 21c0 09bd 559f 063d
00000360: 7ce1 cf3d 600e c2bd f6b0 5bbd 0d8f 19bd
00000370: 976f b7bd 96d1 d1bc c3bd 0c3d 6a86 1fbd
00000380: 267a a33c e8e7 92bd 2d73 64bd 855a 34bd
00000390: 576c a4bd 4fdc ca3a 4519 48bd 9420 21be
000003a0: 997f 26bc f87a 1d3c 5710 09bd 1eea c93c
000003b0: 0787 37bd b9b6 b13c eb58 153d eb6e 03bd
000003c0: f7e7 aebb 9d00 18bd 4ef9 bebd 45a1 bf3c
000003d0: e3b7 c53c eab4 b0bd 11a0 563d 3ba6 62bd
000003e0: 1056 383d d843 123d 13c6 b338 ddd6 c7bd
000003f0: bdfa 50bd 2801 14bc db2b 16bd 0268 60bc

fc2.bias f4 [300]
-0.06690335 -0.1325848 -0.040409423 -0.09041024 -0.13653365 -0.088152684 -0.08332464 -0.15060534
-0.14513174 -0.1484299 -0.0746446 -0.15846844 -0.16058443 -0.11034936 -0.048368182 -0.13142249
-0.06697041 -0.203286 -0.10509842 -0.043912426 -0.058437746 -0.096158154 -0.06433287 -0.10530414
-0.10442846 -0.0873585 -0.10913683 -0.046038453 -0.04324524 -0.029129352 -0.14142884 -0.11763044
-0.09396421 -0.067079216 -0.14304763 -0.13659018 -0.021546425 -0.26548895 -0.0866998 -0.19374315
-0.08166463 -0.06581893 -0.07050203 -0.09973839 -0.19946533 -0.07423482 -0.045041203 -0.121316634
-0.14861865 -0.122172475 -0.038455207 -0.12531465 -0.17246719 -0.06696296 -0.06282783 -0.1192071
-0.11134664 -0.056138944 -0.07579015 -0.18638092 -0.1363865 -0.05885476 -0.11478885 -0.057044245
-0.11916183 -0.05903604 -0.1248457 -0.10912371 -0.08263173 -0.20455815 -0.083310336 -0.12418491
-0.104027934 -0.1304509 -0.07999903 -0.13626543 -0.10949608 -0.116726026 -0.13944778 -0.10743793
-0.02612673 -0.09573088 -0.13998225 -0.15103312 -0.12906808 -0.07325878 -0.052115623 -0.13546461
-0.16746886 -0.035690606 -0.12232968 -0.09718406 -0.06582874 -0.061831303 -0.077917114 -0.12997706
-0.08683392 -0.084755175 -0.16605324 -0.12785691 -0.22398329 -0.13136649 -0.07610364 -0.0977715
-0.090932004 -0.0269542 -0.14171933 -0.09750328 -0.078437 -0.08420897 -0.13033469 -0.19502528
-0.093874805 -0.20259136 -0.09036109 -0.15141533 -0.08438264 -0.13050506 -0.11387623 -0.096869975
-0.14885707 -0.20498809 -0.12640429 -0.14131828 -0.03722172 -0.1799711 -0.1612253 -0.13283812
-0.12456414 -0.03808227 -0.118640855 -0.10484671 -0.10881976 -0.14979199 -0.18126751 -0.08253487
-0.13085625 -0.13671248 -0.10323285 -0.18020478 -0.083674826 -0.07457755 -0.059046518 -0.13050991
-0.06341644 -0.15292987 -0.030135194 -0.23755373 -0.07930067 -0.07967381 0.13276173 -0.12151681
-0.133556 -0.08994303 -0.12850723 -0.09396057 -0.13461138 -0.11113057 -0.12769715 -0.09067846
-0.10529961 -0.10409083 -0.0696154 -0.18467993 0.009023446 -0.11777657 -0.05980445 -0.06859466
-0.11595116 -0.13601771 -0.10622996 -0.085815236 -0.1414511 -0.17818293 -0.15071109 -0.074160315
-0.11087047 -0.12975274 -0.09721295 -0.10360539 -0.09286151 -0.08891361 -0.11814911 -0.08388376
-0.09537335 -0.099291444 -0.10418854 -0.095675655 -0.09596693 -0.020914981 -0.102078 -0.077557825
-0.15732104 -0.16038173 -0.038706288 -0.20901847 -0.14894648 -0.099232115 -0.12887436 -0.119158424
-0.24087493 -0.04951936 -0.10464747 -0.08320923 -0.075218305 -0.05866849 -0.1492159 -0.1120172
-0.11652076 -0.14215146 -0.1098863 -0.065890625 -0.097758934 -0.07084476 -0.13125975 -0.13391101
-0.08832405 -0.0447022 -0.08468067 -0.12393167 -0.07083731 -0.1334446 -0.113792434 -0.13392591
-0.11312735 -0.07884969 -0.12894477 -0.0938301 -0.027018975 -0.16330594 -0.098171085 -0.08855502
-0.146037 -0.16631974 -0.11905809 -0.10730837 -0.15850781 -0.04194172 -0.16137813 -0.13578859
-0.10302991 -0.14646411 -0.08330229 -0.08329998 -0.13325542 -0.05733482 -0.1557117 -0.08019536
-0.117553055 -0.061899647 -0.1988254 -0.122550845 -0.09290538 -0.11031789 -0.09178116 -0.1424653
00000000: a004 89bd 4fc4 07be 5a84 25bd 0129 b9bd
00000010: 7acf 0bbe 6589 b4bd 1ca6 aabd 4938 1abe
00000020: 6a9d 14be 02fe 17be 45df 98bd 8d45 22be
00000030: 3f70 24be d8fe e1bd b71d 46bd 9e93 06be
00000040: c827 89bd 352a 50be d73d d7bd 84dd 33bd
00000050: 6b5c 6fbd 91ee c4bd f4c0 83bd b2a9 d7bd
00000060: 97de d5bd 03e9 b2bd 2183 dfbd d192 3cbd
00000070: ec21 31bd aea0 eebc b9d2 10be 3ae8 f0bd
00000080: 4f70 c0bd d460 89bd 147b 12be 4cde 0bbe
00000090: 2182 b0bc 2bee 87be aa8f b1bd 9b64 46be
000000a0: c93f a7bd 13cc 86bd 5e63 90bd a443 ccbd
000000b0: a440 4cbe 6d08 98bd 207d 38bd db74 f8bd
000000c0: 7d2f 18be 9035 fabd 3583 1dbd 7c52 00be
000000d0: 3d9b 30be e023 89bd e1ab 80bd da22 f4bd
000000e0: b509 e4bd f3f1 65bd de37 9bbd a4da 3ebe
000000f0: e7a8 0bbe b011 71bd 6b16 ebbd 3aa7 69bd
00000100: 1e0b f4bd c6cf 71bd 1aaf ffbd 407c dfbd
00000110: d33a a9bd b177 51be 9c9e aabd a854 febd
00000120: 990c d5bd ec94 05be 88d6 a3bd 2a89 0bbe
00000130: 7b3f e0bd 0e0e efbd 66cb 0ebe 6b08 dcbd
00000140: b907 d6bc 8d0e c4bd 8257 0fbe 6da8 1abe
00000150: 6c2a 04be b308 96bd 3177 55bd 3cb7 0abe
00000160: f57c 2bbe 5030 12bd fc87 fabd 7008 c7bd
00000170: 38d1 86bd d242 7dbd 0293 9fbd b518 05be
00000180: fbd5 b1bd 1f94 adbd dc09 2abe ecec 02be
00000190: e05b 65be f084 06be 3adc 9bbd 6d3c c8bd
000001a0: 8f3a babd 0ecf dcbc df1e 11be cdaf c7bd
000001b0: 94a3 a0bd c175 acbd 7576 05be b5b4 47be
000001c0: 6f41 c0bd 1c74 4fbe 3c0f b9bd 9f0c 1bbe
000001d0: ced0 acbd 1ea3 05be f137 e9bd c463 c6bd
000001e0: fd6d 18be 66e8 51be 2070 01be bdb5 10be
000001f0: cd75 18bd 584a 38be 3f18 25be b706 08be
00000200: 7c1b ffbd 28fc 1bbd faf9 f2bd dfb9 d6bd
00000210: e5dc debd 1263 19be 319e 39be 0b08 a9bd
00000220: 2eff 05be 5bfe 0bbe bf6b d3bd 9a87 38be
00000230: b55d abbd 1dbc 98bd c3da 71bd 64a4 05be
00000240: 7ae0 81bd a699 1cbe 15de f6bc 4941 73be
00000250: 6468 a2bd 062c a3bd b1f2 073e cedd f8bd
00000260: e7c2 08be 0d34 b8bd 6697 03be 666e c0bd
00000270: 91d7 09be 6d98 e3bd 0bc3 02be a1b5 b9bd
00000280: 52a7 d7bd 932d d5bd 8592 8ebd bc1c 3dbe
00000290: 13d7 133c d834 f1bd 83f5 74bd 5b7b 8cbd
000002a0: cd77 edbd 3a48 0bbe 188f d9bd e6bf afbd
000002b0: 8fd8 10be 9675 36be 0254 1abe 5de1 97bd
000002c0: 0f10 e3bd e7dd 04be 9517 c7bd 102f d4bd
000002d0: 2d2e bebd 5718 b6bd 29f8 f1bd 40cb abbd
000002e0: 1a53 c3bd 5059 cbbd cd60 d5bd 99f1 c3bd
000002f0: 4f8a c4bd e555 abbc 450e d1bd a3d6 9ebd
00000300: c418 21be 1c3b 24be 7c8a 1ebd f008 56be
00000310: 6d85 18be 353a cbbd a4f7 03be 5509 f4bd
00000320: eba7 76be d0d4 4abd 6a51 d6bd 9a69 aabd
00000330: 0e0c 9abd 5f4e 70bd 0ecc 18be 4669 e5bd
00000340: 70a2 eebd 2790 11be 120c e1bd aaf1 86bd
00000350: d635 c8bd 0f17 91bd f568 06be f81f 09be
00000360: 3de3 b4bd a719 37bd 0f6d adbd e3cf fdbd
00000370: 2713 91bd b4a5 08be 020c e9bd e023 09be
00000380: 50af e7bd f27b a1bd 190a 04be ff29 c0bd
00000390: e656 ddbc ac39 27be ec0d c9bd 565c b5bd
000003a0: b98a 15be b94f 2abe bad4 f3bd 7ec4 dbbd
000003b0: df4f 22be 15cb 2bbd 4f40 25be 2a0c 0bbe
000003c0: 5801 d3bd b0fa 15be 649a aabd 2e99 aabd
000003d0: 1c74 08be ebd7 6abd e372 1fbe 773d a4bd
000003e0: a8bf f0bd 7c8a 7dbd e398 4bbe f0fb fabd
000003f0: 2d45 bebd 59ee e1bd c3f7 bbbd 6ce2 11be

fc3.weight f4 [1, 300]
0.0033401148 0.009057695 0.017990833 0.002940107 0.00023750056 0.010791292 0.02743991 -0.008330701
0.014335567 0.022830706 0.014650359 0.0031366183 0.014227533 0.002867585 0.004790469 -0.029304443
-0.009056764 0.01715247 -0.02287996 0.0058746254 0.012905176 0.010636399 -0.014318803 -0.0052040643
0.024923388 -0.0048297276 -0.0230085 0.004432122 0.028207812 0.002559424 -0.014274582 -0.012275434
-0.000987273 -0.010292479 0.014004924 -0.001993572 -0.011030261 -0.015080382 0.0053661168 -0.023216926
0.020126557 0.0022704815 -0.014073863 -0.004947725 -0.027599784 -0.025634985 -0.0037703917 -0.018357463
-0.0005229153 0.011189519 0.025450395 -0.022716183 -4.632013e-05 -0.0016715708 0.007605511 0.007048107
0.0095019415 -0.008873344 0.0055602235 -0.020379629 0.025075573 -0.004249447 -0.0026467366 0.007819253
-0.010715346 -0.03649839 0.010867126 -0.0012786051 0.025370484 -0.004045795 -0.0037546179 -0.019192327
0.013266296 0.013993959 0.01637806 -0.016412908 0.03484203 0.004533141 -0.0056717694 0.010652807
0.012337855 0.01797833 0.00029326338 -0.0013432446 0.005552384 0.02661661 0.020751067 0.028621897
-0.020061877 0.017778246 0.024136167 -0.0016668958 0.02338158 -0.007422845 0.020385852 -0.0060050124
-0.022466585 -0.020086033 0.028389873 0.025016781 0.027336568 0.0017644463 -0.015606996 0.028067632
-0.024685822 -0.023427399 0.01853449 0.0032295191 -0.0039560767 -0.020229531 -0.029557766 0.010648984
0.00013362468 0.021825826 0.017381731 -0.02871526 0.015718136 -0.001020587 -0.016584927 -0.0072646425
-0.022760885 0.003816594 -0.010295172 -0.023811098 -0.0032376684 -0.029452559 0.009132557 0.03187958
0.018532628 -0.0036013543 0.009487972 -0.010139187 0.0030342503 -0.011001427 0.011388628 -0.014411006
0.02372016 0.00087199314 -0.0147798145 -0.035167642 2.3440707e-05 -0.010606838 -0.0100927 0.013431551
0.012399323 -0.018586826 -0.0067510116 -0.004753593 0.0038755136 -0.0025985397 -0.019590849 0.020371081
-0.023261296 -0.0140746515 -0.006472218 -0.008893096 0.0014165017 0.020719767 0.004723962 -0.012232615
0.012544277 -0.01459067 -0.008194347 -0.015999397 -0.024388157 0.00016231358 0.0036230958 -0.020184815
0.028840639 -0.016947662 -0.012721645 -0.0071972176 0.03469594 0.009196463 0.024945116 0.023910154
-0.014235766 0.0049381857 0.023767466 -0.002354996 0.023450075 -0.0051144883 0.0049639796 0.0033132737
0.002571847 0.024150398 -0.008719122 -0.0073266234 0.021132177 -0.028719565 -0.016230369 0.001439785
0.019693071 -0.022340165 -0.017070798 -0.007965351 0.0020285633 0.021546228 0.015057279 -0.0051500048
0.026012981 -0.012482166 -0.0069512567 0.026670381 -0.0096323285 -0.011755771 -0.0123397885 -0.01708347
0.014472446 -0.017113272 0.009397631 0.019529361 -0.024985652 -0.022732947 -0.00067562965 0.015433337
0.015260329 0.004179131 -0.0012276736 0.0130286515 0.011228635 -0.014119497 -8.6250024e-05 -0.0014947338
0.021153403 -0.024279287 0.017960511 -0.0026304382 -0.00063041755 0.018295312 -0.0049174605 0.004120457
-0.011519869 0.011437712 0.023075677 0.0033000675 -0.011479224 0.044284962 -0.001241475 0.0014035712
0.017459061 0.0032507973 -0.0007004509 0.021557996 -0.01358398 0.0055887057 0.029138666 -0.010560252
0.008606928 0.007979613 0.03506195 -0.007938675 0.0045181904 0.007902458 0.0004696063 -0.013789718
00000000: d4e5 5a3b ba66 143c 8361 933c cfae 403b
00000010: 9209 7939 f6cd 303c aac9 e03c 7e7d 08bc
00000020: badf 6a3c 7607 bb3c 0f08 703c b98f 4d3b
00000030: 991a 693c 18ee 3b3b 5ef9 9c3b df0f f0bc
00000040: d262 14bc 5683 8c3c c16e bbbc ee7f c03b
00000050: 3b70 533c 4a44 2e3c 6a99 6abc db86 aabb
00000060: 222c cc3c b142 9ebb 527c bcbc 563b 913b
00000070: 1214 e73c 02bc 273b f0df 69bc e71e 49bc
00000080: 6267 81ba c9a1 28bc e974 653c 97a6 02bb
00000090: 45b8 34bc b513 77bc 40d6 af3b 6c31 bebc
000000a0: 73e0 a43c 5ccc 143b 0f96 66bc 8720 a2bb
000000b0: f118 e2bc 7600 d2bc ad18 77bb 6462 96bc
000000c0: 4014 09ba 3f54 373c 597d d03c 4a17 babc
000000d0: dc47 42b8 9c18 dbba a737 f93b cff3 e63b
000000e0: 08ae 1b3c 8161 11bc 8932 b63b 2ef3 a6bc
000000f0: 4a6b cd3c f23e 8bbb df74 2dbb 531c 003c
00000100: 6b8f 2fbc 567f 15bd 080c 323c de96 a7ba
00000110: c3d5 cf3c 9792 84bb 0910 76bb 3a39 9dbc
00000120: e15a 593c eb46 653c 482b 863c 5d74 86bc
00000130: 84b6 0e3d be8a 943b 40da b9bb 1c89 2e3c
00000140: b724 4a3c 4a47 933c 25c1 9939 cf0f b0ba
00000150: c6f0 b53b 140b da3c 24fe a93c 7878 ea3c
00000160: ce58 a4bc afa3 913c 36b9 c53c be7b daba
00000170: ba8a bf3c 563b f3bb 3b00 a73c b2c5 c4bb
00000180: d80b b8bc 778b a4bc e191 e83c feef cc3c
00000190: f0f0 df3c fe44 e73a 7cb4 7fbc 17ee e53c
000001a0: ec39 cabc d1ea bfbc a5d5 973c 57a6 533b
000001b0: faa1 81bb 67b8 a5bc 2123 f2bc 1479 2e3c
000001c0: 9a1d 0c39 13cc b23c 2264 8e3c 443c ebbc
000001d0: 52c3 803c 38c5 85ba 1ddd 87bc 3d0c eebb
000001e0: 0975 babc d21f 7a3b 15ad 28bc 7e0f c3bc
000001f0: 102f 54bb 7e46 f1bc b8a0 153c 2a94 023d
00000200: bdd1 973c b304 6cbb 7073 1b3c d51e 26bc
00000210: 46da 463b 543f 34bc 5e97 3a3c 241c 6cbc
00000220: c850 c23c 7896 643a 0927 72bc f20b 10bd
00000230: 89a2 c437 4ec8 2dbc da5b 25bc 0210 5c3c
00000240: 8826 4b3c 6643 98bc 9737 ddbb 07c4 9bbb
00000250: 54fc 7d3b 434c 2abb fd7c a0bc 41e1 a63c
00000260: 798e bebc 5e99 66bc e614 d4bb 59b4 11bc
00000270: e9a9 b93a 80bc a93c 77cb 9a3b 4e6b 48bc
00000280: 8386 4d3c b50d 6fbc 9541 06bc 2b11 83bc
00000290: acc9 c7bc b832 2a39 7671 6d3b a05a a5bc
000002a0: 3443 ec3c d3d5 8abc 726e 50bc a3d6 ebbb
000002b0: 541d 0e3d c3ac 163c b359 cc3c 3adf c33c
000002c0: 213d 69bc 81d0 a13b fdb3 c23c 4756 1abb
000002d0: 5f1a c03c 7097 a7bb e1a8 a23b 8223 593b
000002e0: 6f8c 283b 0ed7 c53c a6da 0ebc 2c14 f0bb
000002f0: 631d ad3c 4b45 ebbc 8df5 84bc 2bb7 bc3a
00000300: 5d53 a13c b902 b7bc 0fd8 8bbc 1b81 02bc
00000310: a5f1 043b b781 b03c ceb2 763c 5fc1 a8bb
00000320: 2d19 d53c 0082 4cbc 5ec7 e3bb d87b da3c
00000330: ead0 1dbc 479b 40bc d32c 4abc a2f2 8bbc
00000340: d71d 6d3c 2231 8cbc 85f8 193c 0afc 9f3c
00000350: b6ae ccbc 723a babc bd1c 31ba 1bdc 7c3c
00000360: 7506 7a3c 17f1 883b e4e9 a0ba 2076 553c
00000370: 4ff8 373c 7655 67bc 21e1 b4b8 f2ea c3ba
00000380: e749 ad3c 5be5 c6bc ec21 933c 6e63 2cbb
00000390: 9b42 25ba 0de0 953c a622 a1bb e604 873b
000003a0: d5bd 3cbc 3e65 3b3c 3409 bd3c f245 583b
000003b0: 5b13 3cbc 2664 353d fdb8 a2ba 09f8 b73a
000003c0: 4e06 8f3c 540b 553b 779e 37ba 659a b03c
000003d0: 578f 5ebc 7621 b73b 36b4 ee3c e804 2dbc
000003e0: 1304 0d3c ecbc 023c 1f9d 0f3d 3711 02bc
000003f0: 540d 943b 5079 013c 7e35 f639 45ee 61bc

bn1.weight f4 [400]
0.6567903 0.7155116 0.21020621 0.23798798 0.07418624 0.11283544 0.21693334 0.19876799
0.28575104 0.8969416 0.34848732 0.18842791 0.3032295 0.13378787 0.001370298 0.1754384
0.00032336186 0.37367466 -0.07889038 0.00016387933 0.7648957 0.6108819 0.21238711 0.13662294
0.19624385 0.11625838 0.13428016 -0.003111978 0.3232252 0.38130108 0.21332909 0.4905679
0.10665289 0.094489925 0.5528818 0.23677725 0.16408737 0.6193917 0.30532596 1.1085601
-2.642288e-05 0.04276191 -0.079925336 0.32340816 0.17172404 0.1445159 -0.06545799 -9.7012824e-05
0.13879614 0.13314477 0.3514568 0.00025829958 0.33716297 1.1516438 -0.014565032 0.15276273
0.15234546 0.14569932 0.16497238 0.24878418 -0.0013733685 0.14335433 0.070135295 -0.00035859316
0.117169805 0.21546218 0.2686078 0.17456676 0.30555362 0.17138161 0.15046553 0.22173639
-0.00038803322 0.38088328 0.21419165 0.1720927 0.00016098047 0.14085183 0.080930844 0.27906293
0.24669641 0.812559 0.29775304 0.32645467 0.18701237 0.15090416 0.1419547 0.15138139
1.1603665 0.10489486 0.26601672 0.0070385193 0.24842782 0.17260942 0.15891744 0.042785887
-0.030161606 0.3384372 0.1398645 0.0055968827 0.21720345 0.17247652 0.15548553 0.44582787
0.121125735 0.06924142 0.12871821 0.08338247 0.16413362 0.18937416 0.74358946 0.12662849
0.72850955 0.4942532 0.45746 0.17932737 0.58112377 -0.000568322 0.1415269 0.35412005
0.22676043 -1.9301719e-05 0.14278851 0.44954023 0.21664228 -0.030643715 0.0855666 -0.000546557
0.062288254 0.37720326 0.11728872 0.118692815 0.505937 0.08117481 0.43565923 0.036401175
0.13663387 0.20817819 0.102884464 0.16607256 0.42802718 0.32273775 0.60542196 0.11334264
0.46075398 0.82176465 0.79034746 0.24285907 0.01914381 0.35044387 0.10476252 0.14119048
0.6400296 0.6861352 0.48214784 0.28586644 0.35474724 0.0005484622 0.22619516 0.19042706
0.30106276 0.2191779 0.20475955 0.36717302 0.24840027 0.29844785 0.6015014 0.0003291437
0.13743757 0.36372986 0.14356863 0.0009732945 0.105372354 0.32414934 0.24397777 0.2104596
-0.16139932 0.18674518 0.044524193 0.043399815 0.101978116 7.23969e-05 0.08253495 0.17933129
0.00039090408 0.08632959 0.09002523 -0.0020975554 0.5222556 0.6082567 0.27040622 0.19189833
0.13257931 0.14563456 0.2648645 0.51487833 0.16359 0.2088348 0.4802178 0.30026558
0.1023372 0.15425642 0.40594733 0.018718386 0.14167166 0.14373225 0.000110241526 0.29739252
0.33395743 0.3311701 0.11157526 0.117682904 0.25518274 -0.00038085607 0.10792522 -8.6125016e-05
0.0027241902 0.19392268 0.0015227667 0.31659982 0.19679414 0.44847447 -0.0011652637 1.1627123
0.043420695 0.0021655245 0.24788314 0.2692071 0.12703174 0.17584679 0.04902906 0.026107004
0.0007707651 0.22436236 0.15898107 0.061453972 0.22215454 -0.00070203637 0.29034254 0.43091708
0.00018940851 0.4653694 0.17449093 0.3847032 0.30852303 0.13090695 0.04756507 0.1621138
-0.0003563554 0.14940745 0.105956726 6.0630147e-05 0.015286892 0.22004189 0.062682986 0.5797177
00000000: 6923 283f c52b 373f 4c40 573e 1fb3 733e
00000010: f5ee 973d 4416 e73d c623 5e3e d689 4b3e
00000020: f64d 923e f79d 653f ee6c b23e 3ff3 403e
00000030: e640 9b3e b0ff 083e 929b b33a 20a6 333e
00000040: e588 a939 4952 bf3e 4891 a1bd 06d7 2b39
00000050: 34d0 433f c262 1c3f 027c 593e e2e6 0b3e
00000060: 26f4 483e e018 ee3d bd80 093e 54f2 4bbb
00000070: c67d a53e e539 c33e f172 5a3e b72b fb3e
00000080: d56c da3d ef83 c13d a989 0d3f bc75 723e
00000090: 8506 283e 7490 1e3f af53 9c3e 4ce5 8d3f
000000a0: b4a6 ddb7 1d27 2f3d e5af a3bd c195 a53e
000000b0: 6dd8 2f3e fafb 133e d70e 86bd 5d73 cbb8
000000c0: 9320 0e3e 1a57 083e 25f2 b33e 626c 8739
000000d0: a0a0 ac3e 1069 933f 2ca2 6ebc d56d 1c3e
000000e0: 7300 1c3e 3432 153e 85ee 283e 48c1 7e3e
000000f0: 9a02 b4ba 7acb 123e 18a3 8f3d 8f01 bcb9
00000100: b9f6 ef3d 1ea2 5c3e f686 893e a1c1 323e
00000110: 8671 9c3e a97e 2f3e a313 1a3e dd0e 633e
00000120: f070 cbb9 2203 c33e 0e55 5b3e 1239 303e
00000130: decc 2839 763b 103e 12bf a53d 56e1 8e3e
00000140: fc9d 7c3e de03 503f 1673 983e 1125 a73e
00000150: 2c80 3f3e 9f86 1a3e 935c 113e b903 1b3e
00000160: e486 943f 1ed3 d63d 5833 883e 61a3 e63b
00000170: dd63 7e3e 86c0 303e 41bb 223e 4140 2f3d
00000180: 7915 f7bc a447 ad3e a438 0f3e 0e66 b73b
00000190: 956a 5e3e af9d 303e 9937 1f3e 8d43 e43e
000001a0: c510 f83d 72ce 8d3d b5ce 033e 6ec4 aa3d
000001b0: a512 283e 4deb 413e e15b 3e3f e6aa 013e
000001c0: 9a7f 3a3f c10e fd3e 3238 ea3e 98a1 373e
000001d0: 87c4 143f 72fb 14ba 6dec 103e 394f b53e
000001e0: e333 683e 20ea a1b7 2737 123e 232a e63e
000001f0: 79d7 5d3e 8708 fbbc 8b3d af3d d246 0fba
00000200: f821 7f3d c920 c13e 1235 f03d 3815 f33d
00000210: 1685 013f fb3e a63d ba0e df3e 6619 153d
00000220: c0e9 0b3e aa2c 553e 17b5 d23d ed0e 2a3e
00000230: 6126 db3e e23d a53e effc 1a3f 3020 e83d
00000240: f2e7 eb3e 2b5f 523f 3654 4a3f 0cb0 783e
00000250: 7bd3 9c3c 616d b33e bb8d d63d 3d94 103e
00000260: fbd8 233f 8ea6 2f3f 15dc f63e 165d 923e
00000270: 6ea1 b53e adc6 0f3a b49f 673e 50ff 423e
00000280: e624 9a3e 2c70 603e 7dac 513e 1afe bb3e
00000290: a45c 7e3e 28ce 983e fffb 193f eb90 ac39
000002a0: 6fbc 0c3e cd3a ba3e a803 133e b024 7f3a
000002b0: 76cd d73d e7f6 a53e 4fd5 793e b982 573e
000002c0: dd45 25be 213a 3f3e 005f 363d 01c4 313d
000002d0: e7d9 d03d cad3 9738 1508 a93d 9fa2 373e
000002e0: 42f2 cc39 91cd b03d 265f b83d 2477 09bb
000002f0: 8bb2 053f b6b6 1b3f af72 8a3e ff80 443e
00000300: dfc2 073e 3a21 153e 529c 873e 11cf 033f
00000310: 2384 273e cad8 553e 1cdf f53e 69bc 993e
00000320: 2a96 d13d 65f5 1d3e 54d8 cf3e 4d57 993c
00000330: 6012 113e 8c2e 133e 7831 e738 d543 983e
00000340: 78fc aa3e 218f a93e 9281 e43d bc03 f13d
00000350: 50a7 823e a3ad c7b9 e607 dd3d 049e b4b8
00000360: 5488 323b ab93 463e 9297 c73a 5f19 a23e
00000370: 6784 493e 729e e53e c3bb 98ba c2d3 943f
00000380: e6d9 313d 79eb 0d3b 14d5 7d3e 83d5 893e
00000390: 9c14 023e 2e11 343e b2d2 483d 5bde d53c
000003a0: 2c0d 4a3a 3fbf 653e efcb 223e 29b7 7b3d
000003b0: 7b7c 633e dd08 38ba c7a7 943e 2aa1 dc3e
000003c0: f69b 4639 e644 ee3e c0ad 323e d1f7 c43e
000003d0: bbf6 9d3e 790c 063e 97d3 423d 2901 263e
000003e0: 36d5 bab9 44fe 183e d7ff d83d 204d 7e38
000003f0: df75 7a3c a952 613e f05f 803d 6168 143f

bn1.bias f4 [400]
0.27773935 0.33121413 0.12164529 0.1262148 0.0087315515 0.030100565 0.1358896 0.107194915
0.12742676 0.15205194 0.21003833 0.06002058 0.16900048 0.005857714 0.00022390236 0.044539757
7.874897e-05 0.05885963 0.2218169 -0.00021354077 0.10903091 0.065140225 0.031959977 0.06662924
0.13427192 0.023877354 -0.0002618609 0.0325584 0.20911695 0.14868408 0.02267753 0.113963574
0.04904127 -0.2551758 0.22154962 0.07428848 0.063104205 -0.043625537 0.09708931 0.26413414
-5.8558195e-05 0.0015184607 -0.013412826 0.20976494 0.07214817 0.05476133 -0.0042007463 0.00012409236
0.050328344 0.014639967 0.027732702 0.000110483685 0.20894572 0.26957762 -0.0012410459 0.036570497
0.06782603 0.054583196 0.006690328 0.05074696 0.00047672534 0.030878602 -0.032828927 2.2924682e-05
0.044090837 0.039621647 0.1363265 0.29126388 0.17446469 0.07234192 0.019729853 0.059430096
0.0001507679 0.08660715 0.037749223 0.06340878 -8.130903e-05 0.025678322 -0.017316274 0.1193905
0.05631139 0.25636712 0.12904757 0.103129186 0.030175146 0.03109084 0.06420975 0.03256575
0.26510304 0.007683036 0.045028813 0.002827774 0.07208735 0.13176428 0.034435 -0.03168067
-0.28809068 0.0834153 0.037116464 -0.00095497514 0.114130124 0.1707746 0.19797388 0.22525904
-0.044389512 -0.20473413 0.041700903 0.016652143 0.03661138 0.14973664 0.28233498 0.026911397
0.26051307 0.23717323 0.18112314 0.03836819 0.15285408 0.00039519576 -0.081418104 0.16023646
0.05859487 -0.00015311019 0.12656428 0.1350501 0.0580627 -0.16993834 -0.0032755185 -2.5386585e-06
0.0276933 0.15597253 0.03131298 0.022066372 0.2225825 0.017023912 0.12133079 0.012992637
-0.011296988 0.15499735 0.029653883 0.021113018 0.09473011 0.12378774 0.1861775 0.0436233
0.20499352 0.044022795 0.3570876 0.07851215 -0.1387941 0.045749065 -0.0005952014 0.024652954
0.087987 0.09637505 0.104136035 0.11478715 0.12035973 -1.14973145e-05 0.050668053 0.014202558
0.1841894 0.10920072 0.04610618 0.16051494 0.13233362 0.11238475 0.18339247 4.4027107e-05
0.039597202 0.014777739 0.05553988 8.7382374e-05 0.02647184 0.09529863 0.1215211 0.07552186
-0.014576097 0.022246871 0.0065993015 -0.0077440846 0.0034205737 -0.00023064103 -0.0016156856 0.10046053
-0.0001654935 0.001965588 0.012498485 -0.00011667541 0.16592252 0.12545551 0.06151292 0.0461564
0.03263805 0.046532895 0.13625981 0.09288982 0.041295934 0.048923213 0.12188693 0.09217804
0.037451472 0.042795863 0.26277882 -0.17930433 0.036549054 0.0345053 -2.1962003e-05 0.15617126
0.13969374 0.015946096 0.10600639 -0.028218053 0.06219803 -0.00013269926 0.025224086 7.4962416e-05
-0.0035423043 0.16819756 0.02349135 0.101373054 0.049612373 0.2414647 -0.00028047463 0.21386817
-0.0067980546 0.0008758544 0.15076327 0.16767424 0.04432258 0.111510634 0.1692028 0.15127659
0.00023362483 0.050960116 0.017635725 0.02070199 0.03323782 0.00010798716 0.06604384 0.19696517
-4.570306e-05 0.0928804 0.049658343 0.10895409 0.23863253 0.08035555 0.0038567039 0.08156605
-0.00012719094 0.07316088 -0.0062132296 0.00025583504 0.0022467456 0.04692913 0.014091468 0.12182668
00000000: da33 8e3e e694 a93e 2a21 f93d 743e 013e
00000010: c80e 0f3c 7695 f63c a526 0b3e 0289 db3d
00000020: 297c 023e 81b3 1b3e 4a14 573e 24d8 753d
00000030: 760e 2d3e 11f2 bf3b 55c7 6a39 526f 363d
00000040: 0826 a538 cc16 713d f823 633e eae9 5fb9
00000050: 994b df3d 3d68 853d 77e8 023d e974 883d
00000060: 947e 093e 719a c33c 604a 89b9 f55b 053d
00000070: c122 563e a440 183e 3ac6 b93c bc65 e93d
00000080: 80df 483d 67a6 82be e7dd 623e 8f24 983d
00000090: c73c 813d b1b0 32bd c3d6 c63d 973c 873e
000000a0: 629c 75b8 1607 c73a 78c1 5bbc 9fcc 563e
000000b0: 6bc2 933d 6b4d 603d 6aa6 89bb ca1e 0239
000000c0: 1825 4e3d 79dc 6f3c b12f e33c 7ab3 e738
000000d0: def5 553e 1406 8a3e 97aa a2ba f2ca 153d
000000e0: 60e8 8a3d a192 5f3d 8a3a db3b 0bdc 4f3d
000000f0: fef0 f939 1ff5 fc3c a077 06bd 614e c037
00000100: 9898 343d 4f4a 223d 2d99 0b3e 8a20 953e
00000110: dfa6 323e 0028 943d 80a0 a13c f96c 733d
00000120: 7317 1e39 175f b13d ee9e 1a3d 76dc 813d
00000130: 7484 aab8 585b d23c dcda 8dbc 0283 f43d
00000140: c6a6 663d 8d42 833e 0c25 043e 6535 d33d
00000150: de31 f73c 38b2 fe3c 6780 833d aa63 053d
00000160: 96bb 873e fac1 fb3b 2270 383d 2d52 393b
00000170: 88a2 933d 37ed 063e b70b 0d3d 97c3 01bd
00000180: 9f80 93be a4d5 aa3d 6f07 183d 4c57 7aba
00000190: 0ebd e93d 89df 2e3e aab9 4a3e 4eaa 663e
000001a0: c7d1 35bd d3a5 51be 91ce 2a3d 136a 883c
000001b0: d0f5 153d 9054 193e 368e 903e 4a75 dc3c
000001c0: f861 853e 8add 723e 5878 393e f727 1d3d
000001d0: c885 1c3e 4732 cf39 89be a6bd 0715 243e
000001e0: 2d01 703d 348c 20b9 119a 013e 934a 0a3e
000001f0: 27d3 6d3d 5104 2ebe 15aa 56bb d25d 2ab6
00000200: 0fdd e23c 43b7 1f3e 0a42 003d 89c4 b43c
00000210: abec 633e bb75 8b3c 477c f83d 12df 543c
00000220: 0117 39bc a0b7 1e3e b3ec f23c 35f5 ac3c
00000230: dc01 c23d 6d84 fd3d 51a5 3e3e 58ae 323d
00000240: d2e9 513e 3f51 343d 30d4 b63e faca a03d
00000250: 0a20 0ebe 5f63 3b3d 4a07 1cba fef4 c93c
00000260: 8732 b43d 4860 c53d 4645 d53d 8615 eb3d
00000270: 2a7f f63d 97e4 40b7 4e89 4f3d d9b1 683c
00000280: 259c 3c3e a1a4 df3d d5d9 3c3d 075e 243e
00000290: 7782 073e fa29 e63d 3ccb 3b3e bfa9 3838
000002a0: ad30 223d 541e 723c c97d 633d 0e41 b738
000002b0: 79db d83c ee2b c33d 0ee0 f83d 34ab 9a3d
000002c0: 95d0 6ebc 123f b63c f43e d83b 17c2 fdbb
000002d0: b42b 603b 3bd8 71b9 6ac5 d3ba 40be cd3d
000002e0: 5388 2db9 18d1 003b 72c6 4c3c a2af f4b8
000002f0: 98e7 293e 6977 003e f9f4 7b3d 7e0e 3d3d
00000300: 7aaf 053d 4799 3e3d b187 0b3e 053d be3d
00000310: ed25 293d b563 483d db9f f93d d7c7 bc3d
00000320: b766 193d b74a 2f3d f28a 863e 8e9b 37be
00000330: 76b4 153d 6e55 0d3d 0b3b b8b7 5ceb 1f3e
00000340: e00b 0f3e 63a1 823c e119 d93d 8c29 e7bc
00000350: 5dc3 7e3d 3025 0bb9 bea2 ce3c 2435 9d38
00000360: 0126 68bb fb3b 2c3e ee70 c03c ad9c cf3d
00000370: 5836 4b3d 8642 773e ab0c 93b9 4200 5b3e
00000380: 37c2 debb 9899 653a b061 1a3e ccb2 2b3e
00000390: 988b 353d b05f e43d 8043 2d3e 40e8 1a3e
000003a0: 30f9 7439 8ebb 503d cc78 903c 3897 a93c
000003b0: 6124 083d 2a77 e238 fe41 873d 3db1 493e
000003c0: 49b1 3fb8 1438 be3d 8c66 4b3d 5223 df3d
000003d0: 165c 743e 7391 a43d c1c0 7c3b 1a0c a73d
000003e0: 8f5e 05b9 5fd5 953d 5998 cbbb 9921 8639
000003f0: 233e 133b c238 403d e7df 663c 4480 f93d

bn1.running_mean f4 [400]
5.346737 0.88029665 2.69101 3.900684 5.5222034 2.3041606 0.60365534 3.4860156
1.9590704 22.387703 6.101254 0.6031882 1.7261695 0.21241575 0.42620543 1.8012986
1.4348459 0.3004246 0.7119393 0.9942598 17.032495 3.3360615 0.6546333 3.2130451
3.2194245 1.6605309 1.4531505 9.331357 3.8143818 2.1115472 0.54389215 0.12672791
10.437098 4.0634494 1.4108622 3.889485 3.6214123 2.273021 0.37348405 0.9389691
1.9677486 6.2541995 0.15044862 2.3340545 2.107127 3.3618162 0.0024083098 4.241908
2.1922793 1.7449301 0.6108436 8.664524 7.84217 0.3421738 0.16915557 1.9683807
2.5712647 1.9851593 12.100134 0.3661636 7.920511 0.29847196 2.9135165 2.3615925
1.0807835 1.3273687 2.5881479 0.5847451 6.5975676 1.3011947 1.0884528 0.628324
0.37105116 5.248443 0.24090071 4.53003 0.34959167 2.8913028 3.1745477 1.3350298
4.0292807 28.07639 2.6199815 1.7704712 0.35248205 0.3103215 8.569101 2.3940628
24.86604 0.56373596 2.0758183 8.9285965 1.3793931 8.629981 0.30795783 3.7177153
0.2344023 0.17011516 1.7654423 6.343195 5.327481 0.5695136 2.7429078 2.5207064
1.5761553 0.8251878 2.719911 0.647698 3.8472526 3.4107985 1.6388075 0.5136968
11.925388 2.2289047 1.8747165 1.5945768 0.32403553 12.927485 0.27352637 7.010946
6.1731353 5.3875413 2.441338 9.437454 1.4456341 7.28192 1.0542223 0.12774749
8.455857 3.103625 0.42559466 0.66672283 1.5706865 0.09822468 0.8120339 1.888548
3.5825214 3.154288 1.1328121 0.4348567 0.6446819 0.91996735 2.1221976 5.526323
5.852787 10.870745 24.277765 4.0860376 6e-45 0.64951354 1.3513541 1.6690611
11.955735 13.392014 0.11753104 2.8005564 0.4831128 4.4158163 0.6535198 8.463318
2.8935273 5.4029813 1.7001407 6.985784 2.1834247 1.6577762 0.3308277 1.0949346
0.43296573 3.4790914 0.6221488 0.6139513 1.1355059 0.65180874 2.0025005 0.6464946
0.47866988 2.2132885 5.39464 2.726554 3.8917105 4.720199 0.0005422321 1.1627303
5.2083883 0.0023971407 3.6124778 1.8052397 1.7572867 18.187061 2.525754 0.92818826
0.84302527 5.24902 3.2166646 4.9746165 1.6906862 1.2082062 0.3373655 1.7670025
2.691706 1.2654644 1.5897131 0.40574998 1.7230444 6.33424 5.2293344 3.9423535
8.013729 15.747372 10.455141 10.509387 1.0469323 3.0263977 1.2420534 2.1424828
6.270102 1.4446487 6.5760865 1.7595779 0.8390606 4.980626 0.29558194 25.663889
6.8863735 11.093153 1.2142562 2.70683 0.98406583 5.4087443 7.8250117 3.5017393
0.08712472 1.9363383 0.17010607 6.48414 2.1748512 2.4904063 4.5738115 2.2639403
0.6768663 0.14209503 0.37414813 0.47619197 10.998324 2.900005 0.060682327 6.2440724
1.198538 1.0335113 0.9907691 8.023279 0.6919505 1.3267274 0.60416836 0.6855983
00000000: 7818 ab40 1f5b 613f 8239 2c40 cfa4 7940
00000010: e4b5 b040 5e77 1340 2889 1a3f e11a 5f40
00000020: d2c2 fa3f 041a b341 793d c340 8b6a 1a3f
00000030: 1ff3 dc3f 8483 593e 9937 da3e f490 e63f
00000040: 08a9 b73f 41d1 993e a741 363f cf87 7e3f
00000050: 8d42 8841 0882 5540 0c96 273f 88a2 4d40
00000060: 0d0b 4e40 478c d43f d600 ba3f 3d4d 1541
00000070: d51e 7440 9723 0740 843c 0b3f f6c4 013e
00000080: 5afe 2641 c707 8240 2297 b43f 52ed 7840
00000090: 38c5 6740 2d79 1140 4d39 bf3e 4760 703f
000000a0: 30df fb3f 6722 c840 340f 1a3e 2661 1540
000000b0: 2bdb 0640 ff27 5740 bcd4 1d3b b6bd 8740
000000c0: 4e4e 0c40 df59 df3f 3f60 1c3f e4a1 0a41
000000d0: 0ef3 fa40 6831 af3e 1e37 2d3e e6f3 fb3f
000000e0: 9a8f 2440 b319 fe3f 269a 4141 cc79 bb3e
000000f0: d374 fd40 51d1 983e 0e77 3a40 5524 1740
00000100: 1d57 8a3f 38e7 a93f 37a4 2540 dbb1 153f
00000110: 461f d340 8c8d a63f 6c52 8b3f d7d9 203f
00000120: 6bfa bd3e 3ff3 a740 adae 763e 01f6 9040
00000130: aefd b23e 1b0b 3940 ca2b 4b40 42e2 aa3f
00000140: deef 8040 729c e041 c7ad 2740 cd9e e23f
00000150: 8778 b43e 76e2 9e3e 0a1b 0941 5338 1940
00000160: a6ed c641 0051 103f 35da 0440 88db 0e41
00000170: f48f b03f 6714 0a41 a6ac 9d3e 0cef 6d40
00000180: 2807 703e ab32 2e3e 03fa e13f 74fb ca40
00000190: b97a aa40 a5cb 113f cd8b 2f40 4153 2140
000001a0: 75bf c93f 823f 533f 0613 2e40 89cf 253f
000001b0: 6339 7640 864a 5a40 72c4 d13f a281 033f
000001c0: 64ce 3e41 60a6 0e40 b6f6 ef3f 181b cc3f
000001d0: fce7 a53e fbd6 4e41 a60b 8c3e ab59 e040
000001e0: 538a c540 bd66 ac40 e23e 1c40 d0ff 1641
000001f0: 8a0a b93f 7d05 e940 c2f0 863f 3dd0 023e
00000200: 314b 0741 cba1 4640 8be7 d93e 59ae 2a3f
00000210: 410c c93f 052a c93d 74e1 4f3f f1bb f13f
00000220: 0848 6540 dbdf 4940 fdff 903f 8aa5 de3e
00000230: df09 253f fb82 6b3f 16d2 0740 a3d7 b040
00000240: 084a bb40 92ee 2d41 dd38 c241 d2c0 8240
00000250: 0400 0000 8546 263f 2cf9 ac3f cba3 d53f
00000260: b14a 3f41 b045 5641 1db4 f03d 513c 3340
00000270: 905a f73e 5e4e 8d40 134d 273f c069 0741
00000280: 8d2f 3940 39e5 ac40 369e d93f 8b8b df40
00000290: 3bbd 0b40 0332 d43f 4062 a93e d126 8c3f
000002a0: afad dd3e 6fa9 5e40 2545 1f3f ea2b 1d3f
000002b0: 4258 913f f0dc 263f f828 0040 ac80 253f
000002c0: 3814 f53e 85a6 0d40 e4a0 ac40 dc7f 2e40
000002d0: c911 7940 df0b 9740 9524 0e3a 59d4 943f
000002e0: 1eab a640 5919 1d3b d632 6740 1812 e73f
000002f0: c5ee e03f 1a7f 9141 f4a5 2140 bf9d 6d3f
00000300: 81d0 573f f9f7 a740 d5dd 4d40 0f30 9f40
00000310: 6868 d83f 80a6 9a3f 2cbb ac3e 232d e23f
00000320: e944 2c40 bdfa a13f b87b cb3f 76be cf3e
00000330: b88c dc3f 18b2 ca40 b556 a740 854f 7c40
00000340: 3c38 0041 3cf5 7b41 4248 2741 7326 2841
00000350: e101 863f 80b0 4140 9bfb 9e3f 701e 0940
00000360: ada4 c840 40ea b83f 4d6f d240 d939 e13f
00000370: adcc 563f 4a61 9f40 8456 973e a54f cd41
00000380: 2c5d dc40 8e7d 3141 bf6c 9b3f b43c 2d40
00000390: bdeb 7b3f 6f14 ad40 7f66 fa40 7f1c 6040
000003a0: 726e b23d efd9 f73f 4930 2e3e 137e cf40
000003b0: c330 0b40 d162 1f40 aa5c 9240 66e4 1040
000003c0: 1c47 2d3f 5c81 113e 5890 bf3e 6fcf f33e
000003d0: 23f9 2f41 af99 3940 088e 783d 71cf c740
000003e0: b169 993f 194a 843f 0ba3 7d3f 5a5f 0041
000003f0: ab23 313f 34d2 a93f c7aa 1a3f 5f83 2f3f
