model_dir/checkpoint_actor_target_0.pth (torch_old, 531545 bytes, 10 tensors)

fc1.weight f4 [400, 24]
000000 3f 2c 26 bd af b7 26 3b 32 e9 3a bc e8 4f 63 bd
       -0.04056954 0.0025439074 -0.011408137 -0.055496126
000010 88 41 73 bd 03 25 c1 3c cf 7c 49 3c fe ce e7 3b
       -0.059388667 0.023577219 0.012297823 0.007074236
000020 d5 74 81 3c f3 56 84 bd a9 d4 2e bd af 20 46 bd
       0.01580278 -0.06461897 -0.042683277 -0.048371013
000030 e3 b2 9c ba 46 f9 fe 3b 88 0d 77 3c b1 96 a5 bc
       -0.0011955168 0.0077811806 0.01507891 -0.020213457
000040 3a 4c 86 bc 11 48 49 bd ab f8 f7 bc b5 3f 9e bd
       -0.01639377 -0.049140994 -0.030269941 -0.07726995
000050 28 d2 b0 3d 1d 57 ee bd ad 69 47 3d 76 0b 35 bd
       0.08633834 -0.11637709 0.048684765 -0.044200383
000060 3c 0b 14 bd 58 d4 0d bd 67 c7 47 bc 6a 2c 62 3c
       -0.036143526 -0.034626335 -0.012193537 0.013804534
000070 ac ea 1e 3d 36 eb 97 3d 0f 5a 98 bc 0f b3 14 3c
       0.03879802 0.0741791 -0.01859763 0.009075894
000080 2d ca b7 bd 8f 69 05 bd fb 89 29 3d 5f 3a 2f bc
       -0.08974109 -0.03257137 0.041391354 -0.010695069
000090 41 93 a5 bd a9 fc de 3d 4c 00 9b 3b 8e 44 89 bc
       -0.08084727 0.10888035 0.00473026 -0.016756322
0000a0 38 d5 a8 bc e4 56 87 bd 90 e7 bd 3c 01 27 a0 3d
       -0.020609483 -0.0660837 0.023181707 0.078199394
0000b0 c4 cd 80 bd 0c 36 02 3d 7f dd 7d 3c 86 70 c2 3d
       -0.06289247 0.031789824 0.015494703 0.094941184
0000c0 83 50 b9 3c f6 03 3c bc 4c f0 21 bc d5 a8 3b 3d
       0.022621399 -0.011475554 -0.009883951 0.045815308
0000d0 ea bd 47 bd 87 68 3d 3c 87 e7 b0 bb 0a e7 67 3d
       -0.0487651 0.011560566 -0.005398694 0.05661682
0000e0 c1 b5 49 3d 7e e4 8c 3c f2 79 0a 3b 47 a5 07 bd
       0.0492456 0.017198797 0.0021129814 -0.033116605
0000f0 11 3b 9c bd fe 44 01 3d 05 ba c1 bb c6 8b a2 3b
       -0.076284535 0.031559937 -0.005912068 0.00496051
000100 dc 0e 4e 3c a3 b2 1f 3d c7 86 35 bd 05 5d 04 3e
       0.012576785 0.03898872 -0.044317987 0.12926109
000110 e1 3e 9e bd ff 16 89 bb 08 d7 82 3c a8 11 b4 3d
       -0.07726837 -0.0041836496 0.015971676 0.0879243
000120 6d 11 63 3a 67 02 0a 3c 49 ec ab 3c c3 bb 3f 3d
       0.00086619594 0.008423424 0.020986693 0.046809923
000130 06 ca 8f 3d bd ad c9 3c 90 c2 b8 bc d8 60 79 3d
       0.07020955 0.024618978 -0.022553712 0.060883373
000140 85 dd 5f 3d 7a 9f b6 bc b7 55 9f bc 34 0c ce 3a
       0.054654617 -0.022292841 -0.019450052 0.001572019
000150 33 79 f4 3d 85 67 66 bb c9 8e 57 3c 34 87 0a 3b
       0.119371794 -0.0035156917 0.013156601 0.0021137716
000160 6a 02 8f bb 01 b0 89 bc 6c 90 ae bc 3a 39 a3 bc
       -0.0043643015 -0.016807558 -0.0213091 -0.019924749
000170 3b 47 ae 3d 95 bc 6c 3d 41 fd d3 3c ad b6 3c bd
       0.0850968 0.057797033 0.025877597 -0.04607265
000180 27 48 22 3d 40 10 97 bd d8 23 79 3c 46 17 81 3c
       0.03961959 -0.07376146 0.0152063 0.015758168
000190 9e 3a 72 3d 7f c0 24 bd 74 8e ba 3b bb 4a 9a 3d
       0.059137933 -0.04022264 0.0056932513 0.07533785
0001a0 13 6e 36 bc a9 c7 d7 bb 3c fd 1e 3d b3 b5 74 3d
       -0.011134642 -0.0065850806 0.038815722 0.059743594
0001b0 06 74 a6 3a de 38 59 bc af 50 82 bc 35 f6 c0 3c
       0.0012699373 -0.013258187 -0.015907614 0.0235549
0001c0 d0 26 27 bb 6c ca 2c bd 65 29 64 3c 75 bb e8 3d
       -0.0025505312 -0.042185232 0.013925885 0.113638796
0001d0 38 2f 5e 3d 58 f2 46 3b ff 54 05 3d 52 0c df 3d
       0.05424425 0.003035685 0.03255176 0.10891022
0001e0 70 08 50 bc ac a6 78 bd 6b c8 2d 3d 41 c9 67 3d
       -0.012697324 -0.060705826 0.04242746 0.056588415
0001f0 f1 8a 18 bb c0 ae 02 be 88 f1 db bc f7 ae 78 3d
       -0.0023276175 -0.12761974 -0.02684857 0.060713734
000200 eb 4f b4 3c 9f b7 ff bc 4c 76 4d 3d 90 91 12 3d
       0.022010764 -0.031215487 0.050161645 0.03578335
000210 5d 54 89 bd 84 70 82 bd bc b9 db bc 22 bc 3d bd
       -0.06705544 -0.06369117 -0.026821963 -0.046321996
000220 78 3a d2 ba 4b e8 c2 3c 54 5b da bb 26 1d f2 bc
       -0.0016039154 0.023792407 -0.006663719 -0.029554915
000230 8a ab 1e bd 1f 7f 84 3b fd a5 f1 3a 65 9a 1b 3d
       -0.03873781 0.0040434743 0.0018436309 0.03798904
000240 c0 5a 1f bc 66 bd 49 bd a9 61 45 3b 81 24 14 bd
       -0.009726226 -0.04925289 0.0030118024 -0.036167625
000250 d8 1e 47 3d 75 08 b7 bd 74 e7 75 3b 8b 4b 8e bb
       0.0486134 -0.0893716 0.003752199 -0.0043425015
000260 5f 38 5a bd 34 28 37 bd 72 41 47 3c 64 ec 64 3d
       -0.053276416 -0.044716075 0.0121615995 0.055889502
000270 de 0f d3 bc a8 51 97 bd 50 a3 5b bc 30 66 43 3d
       -0.025764402 -0.073886216 -0.013405636 0.047704875
000280 c2 10 9a bd 02 2f 90 bd 84 4e af 3b 7c 97 a3 3c
       -0.075227275 -0.07040216 0.005349936 0.019969694
000290 0f 0e ce bc 21 2d 99 bd 00 f9 ad bc 44 ad 0b bd
       -0.025153188 -0.07479311 -0.021236897 -0.034100786
0002a0 ef 62 dd 3c 5b ac 85 3d 7d d0 0c 3c b0 bb b4 bc
       0.027024714 0.06527015 0.008594629 -0.022062153
0002b0 68 2f 41 3c ae 68 85 3d ec 5e 01 3b 6f 7c 4d bc
       0.011791088 0.06514107 0.0019740416 -0.012541874
0002c0 5b c6 76 3d 13 0a 48 3d df 16 16 bc 0e d3 e8 bc
       0.06024776 0.048837733 -0.009160726 -0.028420951
0002d0 08 29 d0 bd b9 63 da 3c 23 3f 0d 3c ef 32 33 3d
       -0.10164076 0.02665888 0.00862101 0.043749746
0002e0 45 44 b9 bc e0 ca 90 3d 76 b4 f4 3c 6f 72 45 3d
       -0.022615561 0.07069945 0.029871207 0.048204836
0002f0 95 55 0d be 91 49 82 bd ee 64 00 bd 77 fe a5 3d
       -0.13802178 -0.06361688 -0.031346254 0.08105176
000300 91 5f 57 bd 70 36 7d 3b 4e 29 53 3c 56 62 8d 3c
       -0.052581374 0.0038637184 0.012888266 0.017258804
000310 b1 78 41 bc 95 0f 8b bd c6 13 2f ba 13 eb 05 bd
       -0.01180856 -0.067900814 -0.00066786667 -0.032694887
000320 89 d0 51 bd 93 97 63 bd ea 33 54 3d 91 b8 e6 3d
       -0.051224265 -0.055564474 0.05180732 0.11265672
000330 0d 29 55 bc 67 34 3e 3d c1 43 14 bd 7e c4 c1 3d
       -0.013010276 0.046436694 -0.036197428 0.09461306
000340 44 e5 ab bd ab 8e 24 bd 77 9f a5 bc 23 a0 8d bd
       -0.08393338 -0.04017512 -0.02021764 -0.06915309
000350 2e 66 88 3b 20 ba 6e 3d a5 22 d1 3c 14 02 a4 bd
       0.0041625714 0.05828297 0.025529215 -0.08008209
000360 f7 4a ba bd e6 c3 ac 3c a7 11 d9 bb a2 6b 4f bd
       -0.0909633 0.021089505 -0.006624419 -0.050639756
000370 f4 e0 f2 ba df a5 b9 3c 21 be 95 3c 42 d8 2e 3c
       -0.0018530176 0.022662101 0.018279137 0.010671677
000380 e6 c4 c7 bc 0b 62 f3 bc a5 7d 1e 3d 9b fa 64 bc
       -0.02438588 -0.029709836 0.038694043 -0.013975765
000390 69 25 ec bc d0 52 05 3d 3c 2e 1c 3d 4d 11 9e 3b
       -0.028826432 0.03254968 0.03813003 0.0048238398
0003a0 17 03 96 bd 04 7c af bc 76 0f 1d 3c 2b dd 56 bc
       -0.07324808 -0.02142144 0.009586206 -0.013114254
0003b0 dd 77 2f bd c8 87 0a 3d 41 53 8c 3c 79 b8 39 bd
       -0.04283892 0.033820897 0.017129542 -0.045341942
0003c0 91 2f 9e 3c a8 e8 7c bd ef f9 cc bc 5d fe f2 3c
       0.01930979 -0.061745316 -0.025021521 0.029662305
0003d0 f9 61 80 bb 64 ef 89 bd 96 30 cd 3c c5 8f f0 bc
       -0.0039179293 -0.06735113 0.025047582 -0.02936543
0003e0 ea 7e 30 3d 7b a6 9d bc bb a1 8c bc 3c d1 e6 bc
       0.043089785 -0.019244423 -0.017166963 -0.028175943
0003f0 a4 bc 89 bd 46 a3 ad bc ec c1 5c 3c b3 3b a9 3b
       -0.067254335 -0.021196019 0.013473969 0.0051645874

fc1.bias f4 [400]
000000 91 ac 4f bd 10 11 9c 3c 76 2f 71 3d cb 13 75 bd
       -0.05070168 0.019051105 0.058883153 -0.05983333
000010 11 6d 0a 3e 74 76 4f be 1b 09 20 be ea 7c 03 3e
       0.13518168 -0.2026003 -0.15628473 0.1284062
000020 5b eb 03 3e 8e b2 b1 3d 58 f6 8e 3d 71 c9 a6 3d
       0.1288275 0.08676635 0.0698058 0.08143891
000030 6a 72 21 be c3 38 3f bb 5b 0b ab bd 5f 6b 58 be
       -0.15766302 -0.002917812 -0.08351775 -0.21134709
000040 ce 45 55 be dd a5 db 3b 32 0a 91 bc 28 63 07 bc
       -0.2082741 0.006703122 -0.017705057 -0.008263387
000050 b7 e5 c1 bd 70 70 2d be 6a b6 08 be b0 72 20 3e
       -0.09467643 -0.16937423 -0.13350835 0.1566875
000060 2a c5 7d bd 2d 81 ff bd 36 a8 40 be 0f 70 e8 bd
       -0.06195561 -0.1247581 -0.18814167 -0.113494985
000070 42 37 72 be b7 28 ca bd ce ec 0f 3e df 59 81 be
       -0.23653892 -0.09871047 0.14055178 -0.2526388
000080 ef 7f 0c 3e ff ab a2 bd 0b 2e 83 bd 69 b7 be 3d
       0.13720678 -0.07942962 -0.064052664 0.093123265
000090 b5 a0 f5 3c c2 b9 13 3e ca 25 85 bd 96 ad 52 bd
       0.029983858 0.1442633 -0.06501348 -0.051435076
0000a0 37 da 3a be 7b 68 fb 3d f5 9c e8 3b f2 62 07 be
       -0.18247305 0.122757874 0.007098789 -0.13221338
0000b0 74 44 0b be 1d e8 9d bd 17 3f f1 3d 0a eb a2 bd
       -0.13600332 -0.07710288 0.117796116 -0.079549864
0000c0 86 8b 20 3e 00 38 34 3c 32 53 7a be 65 84 b9 3b
       0.15678224 0.01099968 -0.24445799 0.0056615346
0000d0 71 cb ca 3d 0e 6d ff 3d cd 8d e0 bc d2 d0 a3 bd
       0.099020846 0.124719724 -0.027411366 -0.07998814
0000e0 0d a1 25 3e ea 28 25 be 46 5e 85 3a 9b a9 0a be
       0.16174717 -0.16128889 0.001017519 -0.13541262
0000f0 73 1d c7 3d 7a ea c0 3d b8 7a 30 3e 98 fc ea bd
       0.09722414 0.09419723 0.17234313 -0.1147396
000100 16 ad 2f 3e f6 3c f3 bd 5e 3a ad 3d 23 4a 3a 3e
       0.17155871 -0.11876862 0.08458398 0.18192343
000110 73 98 af 3d 7f 1f 70 be 77 16 95 be c9 76 60 bd
       0.08573999 -0.23449515 -0.29118702 -0.054800782
000120 c3 88 dc bd f0 f3 0b 3d 4e 6e d4 3d 16 af d3 bd
       -0.10768273 0.034168184 0.103726014 -0.10336129
000130 4a cb 17 3e db b1 fc 3c 42 ec 00 3e 2c 6a e6 bd
       0.14823642 0.030846527 0.12590125 -0.112507194
000140 af 90 7e 3d 43 44 04 be 69 67 03 3e b6 00 0e be
       0.0621497 -0.12916665 0.12832417 -0.13867459
000150 0e 6b df 3d 1e 0f 61 3c f1 f4 de 3d 4c 7c 19 3e
       0.10909091 0.013736514 0.108865626 0.14988822
000160 b6 4c 33 3d 30 c0 ca bd dd 6d 58 3d ec 4c 5b 3b
       0.04377433 -0.09899938 0.05283915 0.0033462597
000170 69 dd 29 3e 03 f8 15 3d ca 23 45 bd ed 2f 03 3d
       0.16588368 0.036613476 -0.048129834 0.032028127
000180 f5 b5 54 3e c1 b9 32 be 70 59 ed bc d4 c9 4f ba
       0.20772536 -0.17453672 -0.028973311 -0.0007926498
000190 8b 9d e4 bb 71 80 04 3e 9e 77 47 be b0 30 f5 bd
       -0.0069767884 0.12939622 -0.19479224 -0.11972177
0001a0 54 27 34 be 6b d9 48 3c a7 22 2b bd 82 d6 2e be
       -0.17593127 0.012258868 -0.041781094 -0.17074016
0001b0 ba e6 86 bd 9d f3 ce bd 13 e1 06 3e 6b de 12 be
       -0.06586976 -0.10105059 0.13171797 -0.14342658
0001c0 6d 8a 3a be 1f f1 1b be db 86 ce 3c 4e 05 6a 3d
       -0.18216868 -0.15228699 0.025210788 0.057133965
0001d0 87 d9 9e 3d fd 92 a6 bd 11 55 b7 bd d8 88 d5 bd
       0.07756334 -0.081335045 -0.08951772 -0.104264915
0001e0 9f a9 9b bd 51 95 0f be 75 00 db bd cc 85 16 3e
       -0.07600712 -0.14021803 -0.106934465 0.14699477
0001f0 03 66 6b be 58 c9 9d 3d 09 89 7a bd 63 88 e9 bd
       -0.22988133 0.07704419 -0.061165843 -0.11402967
000200 9c 64 21 3e 61 8f b3 bd 33 5a 61 be 65 7c c1 bd
       0.15761036 -0.08767582 -0.22007065 -0.094475545
000210 c0 a7 20 be 74 da eb 3d ee 18 18 be bf 05 0f be
       -0.15688992 0.11516276 -0.1485326 -0.13967036
000220 be 12 a2 3d da 1a 31 bd b5 c2 68 bd 29 c6 00 3e
       0.07913731 -0.0432385 -0.056826312 0.12575592
000230 d2 94 81 bd 2f 6b 24 bd 77 69 13 be e9 db 2a 3e
       -0.06327213 -0.04014128 -0.143957 0.16685452
000240 4b b8 ac bd a1 cc d2 3d b5 dc 2a bc aa ae d0 3d
       -0.084335886 0.10292936 -0.010428597 0.101895645
000250 25 bd 58 bd 73 bc 09 3d c4 70 06 be 53 9a fc bd
       -0.052914757 0.033626985 -0.13128954 -0.123341225
000260 0e 8f b2 bc 44 3f a2 3d 70 53 ff bd d6 cb 20 3c
       -0.02179673 0.07922223 -0.12467086 0.009814223
000270 ee d6 db 3b 9c fd 51 3d 5f 89 72 3d 2b c2 de bb
       0.006708971 0.05126725 0.05921304 -0.006798049
000280 b9 8c f5 3b ac 34 43 be 31 6e 6d be 9e 03 ee bd
       0.007493582 -0.19063061 -0.23186566 -0.11621784
000290 ca 41 2e 3e b3 e5 1b bd 50 b4 fe bc ff 9c dc bc
       0.17017284 -0.038060855 -0.03109184 -0.02693033
0002a0 93 c3 82 bc 1e 8c 27 be e2 7a 69 3d 6a 00 d2 3d
       -0.015962398 -0.16362044 0.057001956 0.10253985
0002b0 99 e3 dc bd 1e 5c 25 bc b7 46 e5 3d 69 9c fa 3c
       -0.10785598 -0.010092763 0.111951284 0.03059216
0002c0 da 92 b9 3d 6a 91 cf bd ed 74 d9 3c af 74 cc bd
       0.09061213 -0.101351574 0.026545012 -0.09983193
0002d0 4d 31 8d 3d 84 3d 11 be 19 24 19 3e 24 cf b0 bd
       0.06894169 -0.14183623 0.14955176 -0.08633259
0002e0 33 80 55 bd 30 de 17 3e dc f6 1e bd 6c 1f 2e 3e
       -0.052124213 0.14830852 -0.038809642 0.17004174
0002f0 ca 89 a5 bd 07 99 7d 3d 30 b5 24 be 9e 46 34 3e
       -0.08082922 0.061913516 -0.16084743 0.17605063
000300 92 3b 0b 3e 93 bd e2 bd bd 6b 60 bc b3 a0 b9 3d
       0.13596943 -0.11071315 -0.013697562 0.09063854
000310 fc 16 cc 3d c5 e6 76 bd 23 11 45 be da c6 1d 3e
       0.099653214 -0.060278673 -0.19244818 0.15407887
000320 f0 3f 47 3e f2 50 11 3e d9 ce a4 bd 6b 8b b8 3d
       0.19457984 0.14191034 -0.080472656 0.09010967
000330 6c a5 78 3c 1d a4 7d bb ce 29 dd bd d8 1b 1b 3e
       0.015176158 -0.0038702555 -0.10798989 0.1514734
000340 16 ca 01 3e 12 54 1a 3e ae fc 63 be ce 0c 2a bd
       0.12674746 0.15071133 -0.22264358 -0.041516118
000350 8e fc 99 bc 28 f5 aa bd 0e 6e 7e 3d 77 46 4a 3e
       -0.018797185 -0.08347541 0.062116675 0.19753443
000360 a9 53 87 3d fb 04 df 3d 68 80 d5 bd 07 83 12 bd
       0.06607754 0.10889622 -0.10424882 -0.03576949
000370 f8 61 4a 3d c4 75 f3 3d 8a 1a 7a bb d4 0b 1e be
       0.049409837 0.118876964 -0.0038162791 -0.154342
000380 18 ba c5 bc 1d 10 a0 3d ac 1a 40 be fa 4f 64 be
       -0.024136588 0.07815573 -0.18760175 -0.22296134
000390 41 9e fa 3d b5 11 89 be 39 66 df 3d 90 3c 42 bd
       0.12237216 -0.26771322 0.10908169 -0.04742104
0003a0 e4 5f 13 3e b8 2f a9 3d f7 3c 23 be a9 9e 88 bd
       0.14392048 0.08261055 -0.15941225 -0.06670887
0003b0 32 77 c9 bd 8a 95 c3 3d b2 7c bd bc 33 bc f4 bc
       -0.09837188 0.09550007 -0.023130748 -0.029874897
0003c0 ce f2 a1 bd 2b 03 12 3e 57 5c cc 3d 41 c9 60 bd
       -0.079076394 0.14259021 0.0997855 -0.05487943
0003d0 63 ce b6 3d 50 3a 99 3d 47 bd 19 be 99 e3 99 3d
       0.08926084 0.07481825 -0.1501361 0.07514114
0003e0 99 79 c9 bc 9f 39 2b 3b 09 27 9a bd cb 3c 8f bd
       -0.024594115 0.0026126874 -0.075269766 -0.06994017
0003f0 67 71 dc 3d 6d 85 10 be d3 6e ea bd 0f b0 04 be
       0.10763817 -0.14113398 -0.11446919 -0.12957786

fc2.weight f4 [300, 400]
000000 2f 12 8b 3d ca 3e 7a bc dd 6c c5 3b eb 68 3d 3d
       0.067905776 -0.015273759 0.0060249404 0.046242636
000010 05 b5 18 bd 28 0f 4a 3b 57 c5 8d bd f4 94 6d 3d
       -0.03728201 0.0030831788 -0.06922405 0.05800338
000020 fc 3a e6 b9 8e 59 3f bd bf 89 93 bb d2 5b f0 bd
       -0.00043912965 -0.046716265 -0.0045025046 -0.11736263
000030 9f d4 49 be 42 41 00 3d 3d f1 33 bc d1 2c 3b bb
       -0.19710015 0.031312235 -0.010982809 -0.0028560648
000040 6b 7e df bc 09 6e 8c bd c7 22 24 3d 2d 1a 8f 3c
       -0.02728196 -0.06856925 0.04007223 0.017468536
000050 d5 6d 71 bc c5 3a 01 be 90 9f 19 be 6c 3c 64 3b
       -0.014735659 -0.12620075 -0.15002275 0.0034826053
000060 8c 9a f2 3b d7 65 51 bc 09 a4 39 bd 64 e3 36 3d
       0.0074036773 -0.012780628 -0.04532245 0.04465045
000070 67 4e e5 3b ed 63 bb bc c1 8a ca bb 0a ca 99 3c
       0.0069978717 -0.022874797 -0.0061810915 0.018773098
000080 60 93 cd bc a5 02 d5 bd 29 0a 71 bd 3a 20 81 bd
       -0.025094688 -0.10400895 -0.05884758 -0.06304975
000090 0c 83 ad bc 10 db 9d bd cd ea 0d 3d e0 86 d1 3d
       -0.021180652 -0.077077985 0.03464775 0.102308035
0000a0 d6 ee 72 bd dc 93 60 3c 3f d2 d7 bc 79 42 ba bd
       -0.059309803 0.013707127 -0.02634537 -0.0909471
0000b0 84 37 93 3d f3 0d 49 3c 81 41 c1 bd d8 14 60 3d
       0.07188323 0.012271392 -0.09436322 0.05470738
0000c0 69 46 4f 3d b4 f0 6b bd 2c 4c fa 3d 9b d0 63 bd
       0.050604258 -0.0576026 0.1222156 -0.055618864
0000d0 5d 78 bd bc 78 eb 56 3d d8 6c ae bc c3 c5 53 3d
       -0.023128683 0.052470654 -0.021292135 0.051702272
0000e0 67 2d 1d 3c ca 17 68 bd 2f c5 7b bd 9e 8b 96 bd
       0.009593344 -0.056663312 -0.061467346 -0.073508486
0000f0 99 29 3c 3d f7 8b 40 bd 32 97 18 3c ea 76 82 bd
       0.045938108 -0.04700848 0.0093133915 -0.06370337
000100 60 ca 4d bd 3a 65 71 bd af 39 5f bc 69 cd ca 3c
       -0.050241828 -0.058934428 -0.013624593 0.02475615
000110 9a fb 93 bd 9e c1 ba bd 6a aa 9b 3d 62 6c d0 3d
       -0.072257236 -0.09118961 0.07600863 0.101769224
000120 08 88 18 be 81 8f c3 bc 5c bb 99 bd d9 5d 81 3d
       -0.14895642 -0.023872139 -0.07506439 0.06316728
000130 b8 92 70 bd ab 1e ad 3c cd 9f 7b bc 8e 07 ea bc
       -0.058733672 0.021132788 -0.015357924 -0.028568055
000140 f2 4f 8a bc 9b 0b dc 3c 28 08 8d 3d 56 90 ab bd
       -0.016883824 0.026861003 0.06886321 -0.08377139
000150 09 7a b5 bc f3 bf 1a 3e dc 1a 8b 3d 93 6b 12 bd
       -0.022152917 0.15112285 0.067922324 -0.035747122
000160 df 1b 93 3d 7a b6 1e bd 2e 58 14 3c 9a 1c 68 bd
       0.0718305 -0.038748242 0.009054227 -0.0566679
000170 b9 5e 68 bd 2d 61 03 3e cc 34 b2 bc 42 54 8b bc
       -0.05673096 0.12830038 -0.021753691 -0.01700795
000180 05 bf 60 3d 13 63 86 3d 8f 17 4d bd 9f 01 e4 bd
       0.05486967 0.06561866 -0.050071295 -0.11133122
000190 da 8b 10 3d 24 ed 76 bd 42 bc 62 3d 9e a4 1b bd
       0.035289623 -0.06028475 0.055355318 -0.037998788
0001a0 f5 a9 80 ba a8 ee 2a bd 99 98 29 3d af b8 03 bd
       -0.0009816276 -0.041731507 0.041405294 -0.03215855
0001b0 0f fc a7 3c c3 a1 75 bc 08 0b 5d 3d 64 22 ce 3a
       0.020505933 -0.01499218 0.0539656 0.0015726802
0001c0 fa 0f da bd ba 35 83 3d 5c e3 b9 3d 10 1e bd bd
       -0.106475785 0.06406732 0.090765685 -0.092342496
0001d0 56 e6 9c bd 0e 64 b9 3c d7 b3 59 3d 23 74 79 bd
       -0.076611206 0.022630718 0.053150024 -0.060901772
0001e0 e2 f3 c8 bc be 72 d1 3d f4 5c 38 3e 6a 67 b3 3c
       -0.024530355 0.102269635 0.18004209 0.021899898
0001f0 1b dd df 3d 96 dd b3 b9 77 a5 8a bc 11 88 44 3c
       0.109308444 -0.00034306635 -0.016924603 0.011995331
000200 c0 93 78 3d 91 0c 05 bc 7e 72 dc bb 91 23 4b 3d
       0.06068778 -0.008120672 -0.0067275157 0.049594466
000210 7c 53 33 bc b9 d8 5f 3d 3f b2 90 bd fc 60 a7 bc
       -0.010945197 0.054650042 -0.07065248 -0.020431988
000220 70 cf 14 bd 26 88 cd 3b 5d ca c7 bc 2f 43 0c bc
       -0.03633064 0.0062723337 -0.024388487 -0.00856094
000230 17 11 2e 3d 80 c5 20 bc f0 60 52 bd d2 46 89 3d
       0.042496767 -0.009812713 -0.051361978 0.06702961
000240 91 84 16 bd 13 06 3d 3c 57 cb 54 3d e0 62 d7 bc
       -0.03674752 0.011537093 0.051951732 -0.026292264
000250 3c 50 31 3e 36 c4 23 3e bf de 34 3c 20 3d fd 3a
       0.17315763 0.15992817 0.011039435 0.0019320585
000260 60 bb ec bc 70 a3 f4 bd dc fb 97 bc a0 da 8e bd
       -0.028897941 -0.11945236 -0.018552713 -0.06975293
000270 52 e1 1e bd a0 a2 80 bc 3d f3 1e 3d b1 c2 8b 3d
       -0.0387891 -0.015702546 0.03880619 0.06824244
000280 68 c2 8d bd 92 67 06 3c 7b 2f fe bb 06 2c c2 3d
       -0.06921846 0.008203404 -0.007757125 0.09481053
000290 c7 0e 23 3d 64 d0 20 3e a6 08 a9 3d ac 97 80 3d
       0.039809015 0.15704495 0.08253603 0.06278929
0002a0 9b 1e 1b bd 93 d3 93 bd cd 50 2d bc cd 12 41 bd
       -0.037870985 -0.07218089 -0.010578346 -0.04713707
0002b0 d6 71 79 bd 39 0c 9c 3c c2 cf 68 3d 43 27 a9 bc
       -0.060899578 0.019048797 0.05683876 -0.020648604
0002c0 97 13 99 bd 70 17 1e bd 5d 96 88 3b 5d eb 97 bd
       -0.074744396 -0.03859657 0.0041683153 -0.07417939
0002d0 b2 4d 8c bd c6 f1 bc bc 56 3a f9 bc da e6 0e bd
       -0.06850757 -0.023064505 -0.030423325 -0.034888126
0002e0 7d 17 1b 3c cf 98 80 3d 9e 5b 11 bd 92 4c 58 3d
       0.009466049 0.06279146 -0.035487764 0.0528074
0002f0 ac 34 3d 3d a6 5a c5 3d f5 3d 4d bd 78 46 64 bc
       0.04619281 0.096364304 -0.050107915 -0.013932817
000300 7e 74 48 bd 60 96 b2 bd 96 b4 46 bd 0b 69 03 bd
       -0.04893922 -0.08720088 -0.048512064 -0.0320826
000310 b1 ca 2b bd 8e 8e 32 be 7d 4a 66 3e 44 0b a8 bd
       -0.04194135 -0.17437193 0.22489353 -0.08205274
000320 2d f3 aa bc a8 fe 76 bd 5c 43 54 bd 52 0c 1f 3b
       -0.020867908 -0.060301453 -0.05182205 0.0024268818
000330 c2 c6 d6 bc cf 9c b9 3d 4b f8 39 3c 19 64 42 3d
       -0.026217822 0.09063112 0.011350702 0.04745874
000340 f5 76 d2 3d 4e b7 6d 3b 05 4c b8 bc f4 62 ec 3d
       0.102765955 0.0036272588 -0.022497186 0.11542311
000350 c7 88 99 bc a4 ec 0b bd ec 96 75 3c 43 f2 b8 3c
       -0.018741978 -0.034161225 0.014989596 0.022576457
000360 9c 48 af bc 9f d1 18 3c df 87 21 3b db 70 6b bc
       -0.021396928 0.009327321 0.0024647636 -0.014370169
000370 ba 2a 5e 3d 53 11 56 bd 48 7b 7d bd bd b1 ee 3c
       0.054239966 -0.052262615 -0.06188515 0.029137487
000380 e3 94 40 3d 8f 74 35 3e 59 40 2d bd 6b 13 04 3d
       0.04701699 0.17720245 -0.042297695 0.03224508
000390 de d9 29 bc b8 94 ff 3d eb fe ae 3c 75 f1 a3 ba
       -0.010366885 0.12479538 0.021361789 -0.0012507873
0003a0 9a f8 43 3d 63 1d b8 3d 13 b6 98 bd 91 e2 24 bd
       0.047844507 0.0898998 -0.07456603 -0.040255133
0003b0 38 ca 6c 3c 9f ad ca 3d 2c be 93 bd fa 78 95 bd
       0.01445251 0.09896397 -0.07214007 -0.07298465
0003c0 8c 96 89 bd f8 0f 18 bc 83 b9 52 bd ec a4 9b bd
       -0.06718168 -0.009281151 -0.05144645 -0.07599816
0003d0 21 b8 ff bc 71 94 ac 3c 50 f5 09 3e 50 50 bc 3a
       -0.03121573 0.021066876 0.13472486 0.0014367197
0003e0 b7 e3 fc 3c 34 42 f2 bc 98 f6 37 3d f6 10 7a 3b
       0.030870302 -0.029572584 0.044912905 0.0038157082
0003f0 de 6c 77 bc 27 75 98 3d 43 73 e5 3c 0d 4d f5 3d
       -0.01510164 0.0744422 0.028009063 0.11977587

fc2.bias f4 [300]
000000 90 5f b1 3d db dc 7a 3d ac 2d 4c 3b e8 01 16 3d
       0.08660805 0.06124578 0.0031155152 0.03662291
000010 b6 13 36 3d d5 1a b1 3d cc 37 78 3d 51 62 40 3c
       0.04445239 0.08647696 0.060600087 0.01174219
000020 42 1a 02 3b 12 c3 36 3d 0d 6b ca 3c 86 c9 28 3c
       0.0019852077 0.044619627 0.024709249 0.010301953
000030 c2 79 4d 3d e3 c7 25 3d a6 ec 0f bc 6f 24 81 3c
       0.050164945 0.04047383 -0.008784449 0.015764443
000040 bb 17 59 3d 2f 55 28 3d d8 d7 4d 3d cf 32 fd 3d
       0.053001147 0.041096862 0.050254673 0.123632066
000050 d8 b4 99 3c 2f d9 bb bc 15 a4 b8 3d ad 3c 85 3d
       0.01876299 -0.02293071 0.09015671 0.065057136
000060 4e f7 b3 3d 06 f6 ed 3d b1 31 5f 3d b5 d4 63 3d
       0.08787404 0.11619191 0.05449075 0.055622775
000070 f9 09 b4 3d 59 22 4e 3c b2 d7 b2 3d 91 fe 0c 3d
       0.08790965 0.012581431 0.08732547 0.03442246
000080 84 4c b6 3c 1a 4b 2f 3d 1f 93 92 3d 6c 93 0f 3d
       0.022253282 0.04279623 0.07156967 0.0350527
000090 23 a4 a2 3d a9 6f ca 3d 88 8d 64 3d f8 48 84 3d
       0.07941463 0.09884579 0.055799037 0.0645923
0000a0 4d 92 0e 3c b5 68 38 3c 8f 5a 94 3c 43 2d 93 3d
       0.008701873 0.011255433 0.018109588 0.07186367
0000b0 52 04 2c 3d 18 4d ee 3d 67 0b f4 3c ef e9 68 3d
       0.041996308 0.11635798 0.029790593 0.05686372
0000c0 76 2d 63 3c ab 8f bc 3d a0 69 a1 bb ec 6a a1 3d
       0.013865819 0.0920709 -0.0049259216 0.07881722
0000d0 a1 c1 03 3e c4 b0 8b 3d 06 3d 3d 3d cd 2e fd 3d
       0.12866832 0.06820825 0.046200775 0.12362442
0000e0 71 45 81 3b 1d 7e b9 3c f3 ad 2c 3b 4a fa 90 3d
       0.0039450456 0.022643143 0.00263488 0.07078989
0000f0 93 15 7b 3d ce 4d 0a 3d 5d c0 69 3d 84 cb 0d 3d
       0.06129987 0.033765607 0.057068218 0.034617916
000100 96 3f 24 3d da 3a 23 3d d8 7b 95 3c 99 08 1c 3d
       0.040099703 0.039851047 0.01824753 0.038094137
000110 86 b0 10 3d 7c c4 2c 3d db 21 e9 3c eb d6 91 3d
       0.035324596 0.04217957 0.028458526 0.071210705
000120 c8 1d 0f 3d d6 49 92 3d fc 3e c3 3c 27 c5 1e 3b
       0.03494051 0.07142989 0.023833744 0.0024226399
000130 64 ba ca 3d 98 6b 2b 3d 85 f4 87 3c 70 5a 6f 3d
       0.098988324 0.041850656 0.016596088 0.058435857
000140 66 7a 26 bc a7 fa 93 3d 25 e2 9a 3c cc e6 43 3d
       -0.010161018 0.072255425 0.018906662 0.047827527
000150 47 92 a1 3c 23 9e bd 3d f1 19 82 3d e3 71 d3 bb
       0.01972307 0.09258678 0.06352604 -0.0064527853
000160 e0 d9 21 3d 1c d0 1c 3d 88 44 e9 3c 49 bf 37 3c
       0.039514422 0.038284406 0.028475061 0.0112150395
000170 d7 ab b1 3d c2 dc 46 3d 59 c8 88 3d 72 b7 7c 3d
       0.08675354 0.048550375 0.06678838 0.061698385
000180 9e 28 d6 bc d4 60 e7 3c 6d eb d6 bc 0b 3c 88 3c
       -0.026142415 0.028244413 -0.026235307 0.016630193
000190 8d 07 4e 3d bf 0b 91 3d d6 69 a8 3d 5a 6f 19 3c
       0.05030017 0.070823185 0.082233116 0.009364927
0001a0 38 c9 d6 3c 8e fa 1c bb a5 c7 e0 3b c0 26 59 3d
       0.026218995 -0.0023953053 0.006859737 0.05301547
0001b0 23 28 c0 bb 49 cc d3 3c 38 3e 24 bc d1 c0 11 3c
       -0.0058641597 0.025854247 -0.0100246 0.008896069
0001c0 7c 0a e4 3b e6 30 03 3d cc 14 ee 3d 1f 72 d7 3c
       0.0069592576 0.032029055 0.116250604 0.026299534
0001d0 f3 12 e6 3b 89 11 b7 3d e9 f6 49 3d 27 43 07 3d
       0.007021302 0.089388914 0.049307737 0.033023026
0001e0 ed d7 47 bd be 5b 53 3d e8 5a f5 3c aa b4 22 3d
       -0.048789907 0.051601164 0.029950574 0.039723076
0001f0 22 f0 ad 3d b1 cf 54 3d fa 25 80 3d 31 2f 45 3d
       0.08493067 0.051955882 0.062572435 0.04814071
000200 06 c7 f1 3d 51 91 34 3d 9c c1 8c bc dc 78 d2 3d
       0.11805539 0.044083897 -0.017182164 0.10276958
000210 da e3 9f 3d c2 87 7f 3d f2 7a bf 3c a8 b9 ab 3d
       0.07807131 0.062385328 0.023374055 0.083850205
000220 08 b9 c4 bb fe a7 de 3d 3e 59 59 3d 6f 23 23 3d
       -0.0060035028 0.10871886 0.053063624 0.039828714
000230 3e fa 3b bc 34 da bf 3d 15 ee 00 3d da 8d 9c bc
       -0.011473237 0.09367791 0.031477053 -0.019110609
000240 57 ac 1f 3d f2 66 84 3d ae 3e 80 3c a7 08 2f 3d
       0.038982715 0.06464948 0.015654888 0.04273286
000250 40 5f 05 3e ce 17 79 3d 01 6d 12 3d 80 12 c0 3d
       0.13024616 0.060813718 0.035748485 0.093785286
000260 df 21 bd 3d bf 70 37 3d 7b 90 dc 3d e8 f3 43 3d
       0.09234976 0.044785257 0.10769745 0.04784003
000270 d2 9e 48 3d 6e 61 f0 3c a1 98 23 3d ee 9e 33 3d
       0.048979588 0.029343333 0.03994048 0.04385274
000280 dc 6d 24 bd 2c 2a e4 3d df 3e 94 3d 96 20 08 bb
       -0.040143833 0.11140856 0.07238554 -0.0020771376
000290 99 c9 f8 3c 6c 51 8b 3d 34 3b 85 3d cb b6 62 3d
       0.030369567 0.06802639 0.06505433 0.055350106
0002a0 44 04 db 3d 9e 7a 01 3d 9d 52 9b 3d dc a3 cb 3c
       0.10694173 0.031611077 0.075841166 0.024858408
0002b0 67 cc 8c 3d 01 8b 7b 3b 28 79 90 3d ca e0 d2 3b
       0.06874924 0.0038382413 0.07054359 0.0064354884
0002c0 69 21 cd 3a fb 41 7a 3d 32 89 10 3d 56 34 23 3d
       0.0015650216 0.06109808 0.03528709 0.039844833
0002d0 62 36 b2 3d 21 7d 0d 3d 02 38 61 3d e5 07 b0 3d
       0.08701779 0.03454316 0.054985054 0.08595256
0002e0 71 d7 b4 bc f6 21 4e 3d 89 13 ea 3d 4d f1 5a 3d
       -0.022075387 0.050325356 0.11429507 0.05345278
0002f0 fa 37 b6 3d f4 1f 69 bb e1 3b 88 3d 63 bf 64 3d
       0.088973954 -0.0035572024 0.06652046 0.055846583
000300 e8 eb dd 3c e1 4a 57 3d ef fa 01 3e ae ca 9f 3d
       0.027090028 0.052561644 0.1269338 0.0780233
000310 8f 2f 6c 3c fa fc 21 3d 9c e7 98 3d 8b 98 c0 3d
       0.014415636 0.039547898 0.07466051 0.09404095
000320 42 e5 bc 3c 03 7d 24 3d c4 70 2c 3b d8 6f fc bb
       0.023058537 0.040158283 0.002631233 -0.0077037625
000330 cb 8e eb 3c 20 09 8a 3d 2a 63 63 3b 32 3d d4 3c
       0.028754612 0.06740022 0.0034696558 0.025908086
000340 06 af 07 bb c6 c7 9a 3d 4f 3c 5b 3d b8 40 08 3b
       -0.0020703687 0.07557635 0.05352431 0.0020790529
000350 e6 10 7e 3d db bc 88 3d 31 35 8a bc 74 60 9c 3d
       0.062027834 0.06676646 -0.016871067 0.076355845
000360 c3 15 c8 3d e7 ef 1c 3d eb e9 99 3d 9f 5c f1 bb
       0.09769776 0.038314726 0.075153194 -0.0073657776
000370 53 44 7c 3d 0c 31 2c 3d 12 ac ce 3d a2 9d 8b 3d
       0.061588597 0.042038962 0.100914136 0.068171754
000380 90 e5 aa 3c 18 ce 02 3c 34 11 02 3d 82 39 81 3d
       0.020861417 0.007983707 0.031754687 0.06309797
000390 5b a0 99 3a a9 52 05 bd 9b fe 6a 3d 0a ab 60 3d
       0.0011720763 -0.032549534 0.057371717 0.054850616
0003a0 d3 5f 45 3d 98 1e ea 3d 17 36 8c 3d 95 34 c2 3b
       0.04818709 0.114316165 0.06846254 0.0059266784
0003b0 fd 83 32 3d 85 39 78 bc 4f 11 89 bc 7f 63 f9 3c
       0.043582905 -0.0151504325 -0.016731886 0.030442951
0003c0 a3 7c 64 3d a3 25 56 3d 1f 99 8b bc ae 5d 29 3d
       0.055782925 0.052281987 -0.017040787 0.041349106
0003d0 11 bb 65 3c 66 0d 80 3c 74 a3 d8 3d a0 c5 8d 3c
       0.014021651 0.015631389 0.10578051 0.017306149
0003e0 fc 67 8d 3d b4 b6 8d 3d 2d 9b fb 3d 0a 27 9d ba
       0.06904599 0.069196135 0.12285457 -0.0011989784
0003f0 11 eb ea 3c 15 8a 66 3b bd 52 26 3d 46 17 c8 3d
       0.028676542 0.0035177518 0.04060625 0.09770064

fc3.weight f4 [2, 300]
000000 d4 be ed 3d 0f 49 bc 3d 6a 23 c0 bd 9b 9f 09 be
       0.11608663 0.09193622 -0.09381755 -0.13439791
000010 8a 8c d9 bd 86 f1 2c be 23 13 3f 3e 09 d0 c3 bd
       -0.10622509 -0.16889009 0.18659644 -0.09561164
000020 21 f7 32 3e 6a 69 62 be c8 8c f1 3d 1c d2 cd bd
       0.17477085 -0.22110525 0.1179443 -0.10049841
000030 ea d7 18 be bb 1f 09 be ae ba d1 3d 3f 51 23 3e
       -0.14926115 -0.1339101 0.102406844 0.15948962
000040 01 23 de bd 1e 1f d8 3d f7 99 4b 3d 5e 8d 13 be
       -0.1084652 0.1055281 0.04970738 -0.14409396
000050 c8 80 df 3d ae 4c 10 3e f5 66 d0 3d 87 33 de bd
       0.10913235 0.14091751 0.101758875 -0.10849672
000060 e5 6c 72 bd e4 60 85 3d f4 b5 26 3e a8 6c 3a be
       -0.05918588 0.06512621 0.16280347 -0.18205512
000070 9b ac e9 bd d7 ae 30 be 4e ef b9 bd 3b b4 bb bd
       -0.11409875 -0.17254196 -0.09078847 -0.091652356
000080 70 a0 66 bd 70 65 ea 3d 75 78 2a be 79 a2 70 bd
       -0.05630535 0.11445129 -0.16647513 -0.058748696
000090 cb 76 23 3d 5e 60 40 be 89 d2 5f 3d a9 24 fb bd
       0.03990821 -0.18786761 0.05464414 -0.12262852
0000a0 d2 b5 06 be 9d 25 0a be a7 74 0e 3e ba 85 2f be
       -0.13155296 -0.13490911 0.13911687 -0.17140856
0000b0 0e 7c f1 3d 8e 3f aa bd 51 59 17 3e 46 8d d5 3d
       0.1179124 -0.08312903 0.14780165 0.104273364
0000c0 98 b9 20 bd f1 a6 00 3e 6f d1 c7 3d bf 74 f7 bd
       -0.039239496 0.12563683 0.09756743 -0.120828144
0000d0 db 1c 26 be 89 81 6d 3d 00 38 0f 3e fa 34 2e be
       -0.16221945 0.057984862 0.13986206 -0.17012396
0000e0 a7 ac 0d be 28 28 c1 bd 24 ac bb 3d a7 86 22 3e
       -0.13835393 -0.09431487 0.091636926 0.15871678
0000f0 b1 7e 05 be b5 78 d4 3d 70 64 8c bd 09 75 19 be
       -0.1303661 0.103745855 -0.068550944 -0.14986052
000100 60 d7 14 3e bd 9e dc 3d 3a 52 db bc 4f d5 1c be
       0.14535284 0.107724644 -0.026772607 -0.15315746
000110 7e a1 04 be b3 a0 2e 3e 63 aa fe bd 24 af 4e 3e
       -0.1295223 0.1705349 -0.124348424 0.20183998
000120 61 af 7b 3d 20 f3 19 3e 12 da c1 3d 94 8f 3d 3e
       0.06144655 0.15034151 0.09465422 0.18511802
000130 d9 dc f8 bd a4 d1 18 be e1 e3 b0 3d f6 49 dc bd
       -0.12151498 -0.14923722 0.086372145 -0.107562944
000140 f0 91 1b 3d 13 62 11 be f2 62 a1 bd 80 c0 40 be
       0.037980974 -0.14197569 -0.078802004 -0.18823433
000150 1e de fb 3d 28 9d 0e be 59 28 b8 3c 56 0d c6 3d
       0.12298225 -0.13927138 0.022480177 0.096705124
000160 68 8e 55 be 95 0f 05 3e 74 8e 11 3e 5f c0 bf bd
       -0.20855105 0.12994225 0.14214498 -0.09362864
000170 00 18 57 3e 00 8e 00 3e bd a4 95 3d 92 67 a0 3c
       0.21005249 0.12554169 0.07306812 0.019580636
000180 43 bd d5 3d ad e4 d4 3d a5 a8 bd 3d 40 9a b8 bd
       0.104364894 0.10395179 0.09260682 -0.09013796
000190 61 c2 09 be fc 7b 3f 3e e1 62 1a 3e 56 2c 77 bd
       -0.13453056 0.1869964 0.15076782 -0.060345016
0001a0 eb 6f 77 3d b2 6c 05 3e 30 ef cd 3d 81 fa d1 3d
       0.060409468 0.13029745 0.10055387 0.10252858
0001b0 2b 62 cc 3d 09 a8 2c be e7 66 34 be 17 17 fd 3d
       0.099796616 -0.16860975 -0.17617379 0.1235792
0001c0 27 8f e4 3d 98 d5 0c be 44 39 9b bd 56 b5 cb 3d
       0.11160117 -0.13753355 -0.07579282 0.099466965
0001d0 92 b6 22 3e 5b aa 74 bd 95 c1 28 3e 54 40 0f be
       0.15889958 -0.059732776 0.16480096 -0.13989383
0001e0 16 81 95 3d 02 c9 62 3d 50 5e f2 bd 37 ea 80 3d
       0.07300012 0.055367477 -0.11834395 0.06294673
0001f0 bf 2f a5 bc 0c 7a f0 bd 5a 10 ca 3d 36 ba d6 bd
       -0.020164369 -0.117420286 0.098664 -0.10484736
000200 a0 49 4a be 04 8f 89 3d 22 2a 08 3d c2 f8 be 3d
       -0.19754648 0.06716731 0.033243306 0.093247905
000210 f6 33 03 3e 3b 61 5a be a0 6e 11 3e c9 33 20 be
       0.1281279 -0.21326153 0.14202356 -0.15644754
000220 1f ba 59 3d 5d f9 41 be 29 0a 42 3e 34 e0 6a be
       0.053156015 -0.18942781 0.18949188 -0.22937089
000230 f5 82 87 3d dd e4 1f bd f2 46 61 3d 63 ef 9b bd
       0.06616775 -0.03903662 0.0549993 -0.07614019
000240 6a 35 9c 3d d2 a3 1e 3e b0 d4 f5 bd d5 6a ea 3d
       0.076273754 0.1549218 -0.120034575 0.11446158
000250 07 32 32 3c e0 14 18 3e b8 f9 e2 3d 99 d3 55 bd
       0.010876185 0.14851713 0.11082786 -0.05220375
000260 4e 2d d9 3d 7d b3 37 bd f9 f5 ad bd fe ba d1 3d
       0.10604344 -0.044848908 -0.08494181 0.10240744
000270 a0 fc da 3d 1a 35 19 3e cd 00 94 bd 9f fe af bd
       0.10692716 0.14961663 -0.07226715 -0.08593487
000280 17 b7 8a bc 3c 28 43 3e 3a a3 40 3d 40 8a da 3d
       -0.016933007 0.19058317 0.047030665 0.106709
000290 61 f6 1c be 2b 36 39 3e af c7 db 3d c8 bd 3d be
       -0.15328361 0.1808707 0.10731446 -0.18529427
0002a0 f4 7c 16 3e 24 ab ce 3d 83 bd 91 bd 0c f9 16 3d
       0.14696103 0.10091236 -0.071162246 0.036858603
0002b0 c7 06 ef 3c ba 84 a4 bd 37 2b f1 3d 82 cf a4 3d
       0.029178036 -0.08033128 0.11775821 0.080473915
0002c0 35 2c d6 3d 83 5b fa 3d a5 6e 25 3e a7 da a9 bd
       0.104576506 0.12224486 0.16155489 -0.08293658
0002d0 4a 52 2b be dd c2 09 be 4e 27 25 be 24 ad ef bd
       -0.1673061 -0.1345324 -0.16128275 -0.11702946
0002e0 83 4f e0 3d d7 8e e5 3d c6 6f 0e 3e 16 bb 12 be
       0.10952666 0.11208885 0.13909826 -0.1432918
0002f0 05 35 bf 3d ba a1 f9 bd 37 8c df 3d d9 88 1e 3e
       0.093362845 -0.1218905 0.10915416 0.1548189
000300 72 f6 f2 3d 36 47 13 be 9f 42 4d bb fc 1c 33 bd
       0.11863412 -0.14382634 -0.0031320227 -0.043728814
000310 ce 77 0b 3c 25 88 3e bd 94 bb e4 bd 1d 3e f0 bd
       0.00851245 -0.046516556 -0.1116859 -0.11730597
000320 3b 69 d9 3d 2f 53 e3 3d 68 0d ed 3d f5 6e 21 be
       0.10615774 0.110998504 0.11574823 -0.15764983
000330 4b 77 4d 3e 29 15 05 3d c7 9e 1c be 9a 13 12 be
       0.20065038 0.032490883 -0.15294944 -0.1426529
000340 3f 1c f2 3d 91 03 42 3e 25 63 98 3d 29 05 dd 3d
       0.11821794 0.18946673 0.07440785 0.10792
000350 f6 49 02 be a5 34 25 be be 53 00 3e d4 bf 51 be
       -0.12723526 -0.16133364 0.12531945 -0.20483333
000360 1c 07 2c be 66 48 00 3e 33 10 9c bd 85 a2 20 3e
       -0.16799587 0.12527618 -0.07620277 0.15686996
000370 3a 9c f5 3d 09 69 2a be 5c 80 99 bd c9 fa d8 3d
       0.119926885 -0.1664163 -0.07495186 0.105947085
000380 22 1e 74 3e 87 74 a4 3d d7 e4 ac 3d 6c e2 a9 bd
       0.2383962 0.08030038 0.08442085 -0.0829514
000390 38 14 95 3c b6 71 b7 3d f9 a9 a2 3d 59 d8 03 be
       0.018198118 0.089572355 0.07942576 -0.12875499
0003a0 c3 9c 15 3e 17 8d 5d be 9e 82 f1 3d 9d 17 e5 3d
       0.14610581 -0.21635853 0.117924914 0.111861445
0003b0 d5 6a d8 bd 82 77 0f 3d f2 1e c5 3b 90 d8 ac 3d
       -0.105672516 0.03502608 0.006015652 0.084397435
0003c0 0d 6b c3 3d ff 81 80 bd 98 1c d0 3d b4 80 46 bd
       0.09541903 -0.06274795 0.10161704 -0.048462585
0003d0 21 ec d5 3d 32 2b 14 3d 41 c6 67 be 4c 8c fb bd
       0.10445429 0.036174007 -0.22634222 -0.12282619
0003e0 38 1c 57 be 15 2a 1e bb 1e 42 36 3e ea 16 63 3d
       -0.21006858 -0.002413397 0.17798659 0.055441774
0003f0 27 87 d1 bd 7a 56 fc 3d af 9b f8 3d ef 97 c9 bd
       -0.102308564 0.123211816 0.12139069 -0.09843432

fc3.bias f4 [2]
000000 4d 12 24 3d cd 09 34 bd
       0.040056515 -0.04395466

bn.weight f4 [400]
000000 28 5c e2 3e 9b 78 4f 3e 68 3f 41 3f de 26 5c 3f
       0.44210935 0.20260851 0.75487375 0.85996807
000010 ae 9d 52 3f 3e 75 14 3f ef a9 50 3f a1 f1 79 3f
       0.8227185 0.579914 0.815093 0.9763432
000020 63 e4 c5 3e 54 d2 9a 3d 66 1a 2e 3f 8f 27 b6 3e
       0.38650808 0.07559648 0.6800903 0.35577056
000030 ae 08 03 3f 6d 95 f5 3d 2b 1b 40 3f 74 2a d6 3e
       0.5118512 0.11991391 0.75041455 0.41829264
000040 6c 0d 86 3f 34 0d 13 3f 83 13 81 3f b0 24 92 3e
       1.0472846 0.5744202 1.008408 0.28543615
000050 10 c0 5a 3f 82 8b 37 3e bd 30 84 3f c1 73 50 3f
       0.85449314 0.17924312 1.0327374 0.81426626
000060 d6 fb 1c 3e 2b d2 6b 3f ea 81 18 3e 54 29 95 3e
       0.15330443 0.92117566 0.14893308 0.29133093
000070 52 f8 53 3e e0 fb 72 3e 9d 8e e1 3e e3 3c 7b 3f
       0.20700195 0.23728895 0.44054118 0.9813978
000080 d7 2f 12 3f 41 c1 73 3f 05 7e 31 3f 3c 6f 57 3f
       0.5710425 0.9521676 0.69332916 0.84154105
000090 38 09 d9 3e 47 83 6a 3e 79 c0 3d 3e 00 02 44 3e
       0.42389846 0.22901641 0.18530454 0.19141388
0000a0 58 f8 67 3f 56 6c 29 3f c0 d5 7f 3e e7 be 55 3f
       0.9061332 0.6618093 0.24983883 0.8349442
0000b0 f6 88 6a 3f fb 08 a7 3e 16 6a 7c 3f 40 eb 31 3f
       0.91615236 0.3262404 0.98599374 0.6949959
0000c0 15 3e 7d 3e 26 4d 04 3f 72 98 de 3e b5 25 d1 3e
       0.24730714 0.5168022 0.43475682 0.4084908
0000d0 72 90 a0 3e 6e b6 7f 3f 7c 41 7e 3f 3a 7d 36 3f
       0.31360203 0.9988774 0.9931867 0.7128483
0000e0 aa 9a 22 3f 6b 21 36 3e fa f1 77 3e 2b 14 27 3f
       0.6351725 0.17786185 0.242134 0.6526515
0000f0 9b 05 79 3f a1 cd 72 3f bf 96 6e 3e 65 89 3b 3f
       0.9727418 0.94845015 0.23299693 0.7325652
000100 12 38 32 3e c8 74 28 3e e4 5b 93 3e 89 ef 5f 3e
       0.17404202 0.16450799 0.28781044 0.21868719
000110 1c 1e 46 3f 02 ee 82 3f 1a 4b 75 3e 50 de 14 3f
       0.77389693 1.0228884 0.2395443 0.5815172
000120 73 29 2e 3f 9f d6 cb 3e 08 0a 42 3f f3 4d 77 3f
       0.68031996 0.3981218 0.75796556 0.96603316
000130 11 ed e9 3e 4c b1 7b 3f d4 af d1 3e ee 7a 0b 3f
       0.4568868 0.9831741 0.4095446 0.5448445
000140 d9 63 cb 3e a7 f8 29 3f 76 cb 1d 3f d6 88 18 3f
       0.39724615 0.6639504 0.6163858 0.59583795
000150 78 34 9e 3e 54 d5 07 3f e1 43 64 3f 7e 05 34 3f
       0.30899405 0.5305989 0.89166075 0.7032088
000160 98 59 1f 3f ab a9 df 3e 72 40 7a 3f d8 ff df 3e
       0.62246084 0.43684134 0.97754586 0.4374988
000170 bc 71 57 3f 80 ad 85 3f 46 eb 78 3e 66 2f e2 3e
       0.8415792 1.0443573 0.243085 0.44176787
000180 f5 4d 04 3e ac 9c a9 3e 4b fc 80 3f 01 fd d5 3d
       0.12920363 0.33127344 1.0076994 0.10448647
000190 5a fb 9d 3e b6 1d 10 3f 46 dc 56 3f 80 50 92 3e
       0.3085583 0.56295335 0.8392986 0.28577042
0001a0 c7 ca f3 3e a4 5a e9 3e 35 7c ad 3e 4f 01 7d 3f
       0.47615644 0.45576966 0.33883825 0.9883012
0001b0 41 6c 66 3f 0e bb 5b 3f 4b 43 57 3f a9 91 80 3e
       0.9000893 0.858323 0.84087056 0.2511113
0001c0 7a a2 a2 3e 51 5e 16 3f c1 f6 b6 3e 90 9b 64 3f
       0.31764585 0.58737665 0.35735133 0.8929987
0001d0 7f 44 83 3e e2 09 4b 3f c3 71 3c 3e 1b d3 52 3f
       0.25638196 0.79311955 0.18402772 0.8235337
0001e0 46 00 85 3f 78 f1 3f 3f f6 05 a4 3e c8 fd 80 3f
       1.0390708 0.7497783 0.32035798 1.0077448
0001f0 b3 6c d1 3e 78 2b 71 3f 04 f9 01 3f 1c d2 77 3f
       0.40903243 0.94206953 0.5077059 0.96804976
000200 00 b2 54 3f 92 37 90 3e d7 4e 09 3e 7a 54 d9 3d
       0.83084106 0.28167397 0.13408981 0.10611816
000210 cf e8 23 3f 19 d2 eb 3e d8 9a ce 3e 74 a1 44 3f
       0.6402711 0.4605873 0.4035251 0.7680886
000220 b9 4c e9 3e 48 06 cc 3e 98 fb 21 3f 93 55 18 3f
       0.45566347 0.39848542 0.63274527 0.59505576
000230 92 9e 85 3f 32 c8 d2 3e 48 6c 0d 3f 67 a5 05 be
       1.0439017 0.41168362 0.5524335 -0.13051377
000240 1a a6 80 3e 66 09 3b 3f f6 a7 fa 3e 97 d3 a9 3e
       0.25126725 0.73061216 0.4895627 0.33169243
000250 2d 62 a1 3e f4 a5 87 3f fc 88 cc 3e 02 60 ab 3e
       0.31520215 1.059752 0.3994826 0.33471686
000260 11 da 2f 3f 37 59 c2 3e 79 ea 34 3f 04 74 ea 3e
       0.6869212 0.3795869 0.70670277 0.45791638
000270 43 b2 1b 3f 44 a0 07 3e b5 58 d0 3e 0f 5e 92 3f
       0.6081888 0.1324473 0.40692678 1.1434954
000280 cf 5d 8d 3f 3d 99 96 3f 74 d0 9a 3e f5 e7 83 3f
       1.1044253 1.1765515 0.30237162 1.0305163
000290 e8 3e 19 3f b8 3f 67 3f 4e d6 73 3e 86 84 1c 3f
       0.5986161 0.903316 0.2381222 0.61139715
0002a0 a2 44 9d 3e 5c d5 52 3f 74 11 7b 3f 3f 50 d6 3e
       0.30716425 0.8235681 0.98073506 0.41858098
0002b0 6d 70 79 3f ba b8 4d 3e 2c 69 57 3e 67 9e 31 3f
       0.97437173 0.20089999 0.21036214 0.6938233
0002c0 1c 60 7d 3e 2a a2 88 3f c8 40 14 3e 16 8f 1c 3f
       0.24743694 1.0674489 0.14477837 0.6115583
0002d0 79 fc 10 3f 54 d1 26 3e 83 08 fa 3e 2c 84 43 3f
       0.5663524 0.1629079 0.4883462 0.76373553
0002e0 50 53 a7 3e bb 69 cf 3d 10 a5 38 3f 80 2b 5d 3f
       0.3268075 0.10127588 0.72126865 0.863945
0002f0 8e a9 70 3f 1b 1c 10 3e 37 01 86 3f 95 4f 75 3f
       0.9400872 0.14073221 1.0469121 0.9582456
000300 ff 66 b6 3e 7e c4 68 3f fc 1b 82 3e e3 92 1a 3e
       0.35625455 0.90924823 0.25411975 0.15095095
000310 cf 20 32 3f 3d d3 dc 3e 30 57 cb 3e 9b 00 8d 3d
       0.6958131 0.43129912 0.39714956 0.06884881
000320 72 47 89 3e 27 f8 3f 3f d8 b8 54 3f 0c 7f 34 3f
       0.2681232 0.74988025 0.8309455 0.7050636
000330 13 fb f5 3e 38 b8 df 3e aa 3d af 3e 96 e8 66 3f
       0.48043117 0.43695235 0.34226733 0.9019865
000340 6e bf 39 3e ca 5e 18 be 4c e2 48 3f ab b1 ff 3e
       0.18139431 -0.14879909 0.784703 0.49940237
000350 82 24 7c 3f d6 69 75 3f 88 f5 94 3e 7c 4c 5f 3f
       0.98493207 0.9586462 0.29093575 0.8722608
000360 49 61 4e 3e ed c3 cf 3e 51 a4 21 3f ba eb 6c 3f
       0.20154299 0.40579167 0.6314135 0.9254719
000370 7f c8 0d 3e cb 17 3a 3f 94 9b 45 3f c9 89 9e 3e
       0.13846014 0.72692555 0.7719052 0.30964497
000380 a8 30 a3 3e e8 ee a7 3e cd b2 11 3f 1b 0a a0 3e
       0.3187306 0.32799459 0.56913453 0.3125771
000390 8d b9 f6 3e 86 11 b6 3e 66 08 2e 3e e9 c8 4c 3f
       0.4818844 0.35560244 0.16995391 0.79994065
0003a0 ff e0 41 3f a7 47 68 3f d1 9f 37 3f d9 16 33 3f
       0.7573394 0.9073433 0.71728235 0.6995674
0003b0 07 23 4f 3e 4c f8 3f 3f 23 17 6c 3f 72 d1 29 3f
       0.20228206 0.74988246 0.92222804 0.66335213
0003c0 1b 56 a4 3e 19 00 ce 3e 8b 24 33 3f e0 2e 4f 3f
       0.32096943 0.4023445 0.69977635 0.809309
0003d0 37 b1 87 3f b0 09 f5 3e 3f 44 67 3e 31 e3 75 3f
       1.0600957 0.47858953 0.22584628 0.9604979
0003e0 77 38 56 3f bf 44 be 3e 4d 30 2f 3f 6f fd cf 3d
       0.8367991 0.37161824 0.68433076 0.101557605
0003f0 6d 05 07 3e 9d 11 11 3f 8c a5 50 3f 40 87 53 3f
       0.13185664 0.566675 0.81502604 0.8262825

bn.bias f4 [400]
000000 3b 08 9f bc 5e dc 3b bc c8 d7 9f bc 0f 97 33 ba
       -0.019413104 -0.011466114 -0.019512072 -0.00068508176
000010 2a 20 1d bc e0 7a 84 3d 5c c7 e6 3c 4d e9 7b bb
       -0.009590188 0.06468749 0.028171234 -0.0038438619
000020 4d 22 65 bc 7c a4 13 bd ec cc d1 3c a8 ae d5 3a
       -0.013985229 -0.036045536 0.02561041 0.0016302662
000030 e3 a4 3e bb 40 a0 a3 bc 08 7c 79 3d 60 1c af 39
       -0.002908998 -0.019973874 0.0609093 0.00033399742
000040 fb b4 e8 3a 44 c2 0e 3d 17 01 38 3c ed c7 9e bc
       0.0017754132 0.034853235 0.011230729 -0.019382441
000050 2d f1 45 3d 6c 99 a7 3b 6c 15 cd 3c fa 44 4a 3d
       0.048325706 0.005114725 0.025034629 0.049382187
000060 f4 55 74 bd 85 26 0d bd 52 78 4e 3d dd 06 94 3d
       -0.059652284 -0.034460563 0.050407715 0.072278716
000070 9d be e5 bc 43 dd 16 bd 90 94 cf 3b 5e 29 aa bc
       -0.028044993 -0.036832105 0.0063348487 -0.020771679
000080 1d d2 c7 3d 07 24 c1 bc 59 27 95 3c ca e0 a5 3c
       0.09756873 -0.02357675 0.018207239 0.02024879
000090 7c 4d 94 bc 92 02 51 bd a2 bc e9 bc bd 75 dd 3c
       -0.018103354 -0.051027842 -0.02853233 0.027033681
0000a0 08 5b 0c bd c2 20 48 bd 6f 0d 12 3d 94 a9 95 3c
       -0.0342665 -0.048859365 0.035657343 0.018269338
0000b0 14 01 0f 3d 18 54 0f bc 16 9f b6 bc 98 60 7f 3d
       0.034913138 -0.008748077 -0.022292655 0.06234798
0000c0 60 b5 c6 3b 74 23 bb 3c 01 cf 51 3d 4f b9 77 3d
       0.006064102 0.022844054 0.051222805 0.06047946
0000d0 d8 ae 4b bb a6 39 21 3d 50 6b 20 3d 7a 5d 40 bd
       -0.0031079557 0.03936162 0.03916484 -0.046964146
0000e0 66 7c 8d 3d 33 f9 17 bc 96 1a 25 3d a6 71 d2 bc
       0.06908493 -0.009275722 0.040308557 -0.025688957
0000f0 72 1a aa 3c 55 78 88 3c dc 4f b4 3d 2f 74 c1 bb
       0.020764563 0.016658941 0.088042945 -0.0059037427
000100 ca 1c ae 3d 24 31 f8 3c a2 45 4a 3d 4a 19 98 3d
       0.08501585 0.03029687 0.049382813 0.074266985
000110 41 36 1f 3d b4 dd d9 3c 9b c4 f0 bc 0e 87 f9 bb
       0.0388701 0.026594974 -0.029390624 -0.0076149767
000120 c0 99 8d 3c ba da 09 3d 5b d0 6a 3c ad fb b4 3c
       0.017285228 0.03365586 0.014331902 0.022092665
000130 b1 38 15 bd da a1 a8 bd 0a 92 a9 bc 18 f4 ac 39
       -0.03643102 -0.08233996 -0.02069952 0.0003298826
000140 c7 4d 43 3d ef a8 69 3c 13 1c 59 3d a5 16 2d bc
       0.047681596 0.014261468 0.05300529 -0.010564481
000150 10 f3 a1 bc 0d 99 ca bc a6 a6 8c 3d ce 62 8a bc
       -0.019769222 -0.024731183 0.06867723 -0.016892817
000160 e7 35 1b 3d e1 1b 50 3d c5 5e 8e bc aa 37 61 bc
       0.037893202 0.050807837 -0.017379174 -0.0137461815
000170 22 02 e7 3c f5 72 f0 3b d8 7b 87 3b f8 7f d7 3b
       0.02819926 0.0073379227 0.0041346364 0.0065765344
000180 42 91 bc 39 3b a8 91 bc 26 6c a0 bc 79 1f 78 3b
       0.0003596638 -0.017780414 -0.01958282 0.0037860556
000190 1c c6 8f bc 86 ec e4 bc 15 b9 17 3c 33 cc 0d 3d
       -0.01755052 -0.027944814 0.009260436 0.034618568
0001a0 a2 ba fc bc d9 79 fa ba ea 84 a0 3b 3a 8a 03 3d
       -0.030850712 -0.00191098 0.004898657 0.032114245
0001b0 df 86 ad bc 61 fa c4 3c 18 07 a2 3c 76 8f 2f 3d
       -0.021182476 0.024045171 0.019778773 0.042861424
0001c0 82 3d 29 3c 81 dd aa bc 93 5f e4 3a 2f 6c 2d 3d
       0.010329606 -0.020857574 0.0017423503 0.0423395
0001d0 3a b4 91 bc b3 75 d0 3b 4c 7a ec bb ee d4 53 bc
       -0.017786134 0.006361687 -0.0072167274 -0.012929184
0001e0 89 38 37 3d 79 e2 91 3b 5b 1c 94 bc 75 e6 84 bc
       0.04473165 0.0044520465 -0.018079927 -0.016223172
0001f0 eb ac 14 bb 70 b5 c1 3c e9 36 c3 bc 52 17 7a 3b
       -0.0022686075 0.023646086 -0.023829894 0.0038160873
000200 1a a2 25 3c d1 dd 3e bb 52 be fc 3c c7 9c 5c bd
       0.010109449 -0.0029123912 0.03085247 -0.053860452
000210 f5 ef 06 3c 61 14 92 3c 4a 5f ac bc 87 d9 2b bc
       0.008235921 0.017831983 -0.021041531 -0.010488874
000220 c5 fc 49 bd e2 76 eb 3c 1b ce fb 3c 76 35 2c 3d
       -0.049313325 0.028743211 0.030737927 0.04204317
000230 f0 03 6b 3a 4e 42 87 3d 98 6c c3 bc 14 f4 ae 3d
       0.00089651253 0.066044435 -0.023855492 0.08542648
000240 60 4b 01 bd f0 06 a7 3c 5d 54 4f bd f5 b7 0e 3d
       -0.031566024 0.02038905 -0.050617564 0.034843404
000250 0b a3 38 3d 48 9c e4 3c 00 b7 6d 3c 21 de 03 3c
       0.045077365 0.027906552 0.014508963 0.008048565
000260 14 20 ce bb 66 83 a7 bc 3e 67 a5 bb 8c 26 c5 bb
       -0.006290445 -0.020448398 -0.005047708 -0.006016558
000270 6b ad 75 3b 1c 03 24 39 31 bc a4 3c 71 64 aa b9
       0.0037487398 0.00015641417 0.020109268 -0.0003249976
000280 2e 53 8b 3d e0 7f 44 3d f1 7a 2a bc 07 96 e1 bc
       0.06802975 0.047973514 -0.010405288 -0.027537359
000290 9f fb ca 3c 2e f8 fa 3b aa 20 e5 bc 9d 22 a7 3c
       0.024778185 0.00765898 -0.027969677 0.020402247
0002a0 06 78 c7 3c 56 e7 c4 ba 22 71 95 3d fc b4 dc 3c
       0.024349224 -0.0015022557 0.07296969 0.026941769
0002b0 c9 61 b2 bc 14 31 9a 3b a4 9f 70 3d aa d0 03 3c
       -0.021775143 0.0047055576 0.058745995 0.008045355
0002c0 b1 4a a7 bc 09 b1 b2 3d b3 5f 56 3c 74 a2 50 bb
       -0.020421358 0.08725173 0.01308434 -0.003183511
0002d0 ab 2b 49 3c a9 c3 fe bb 63 69 7b 3c f7 49 31 bc
       0.012278478 -0.0077747894 0.01534495 -0.010820857
0002e0 a9 7f 90 bc 2f 0f bd 3d 9c 02 ae bb ab c1 ba 3d
       -0.017638998 0.09231412 -0.0053103697 0.091189705
0002f0 bb 69 98 3b 27 26 59 3d 40 8a dc 37 56 20 3d 3d
       0.004651276 0.0530149 2.6290421e-05 0.046173416
000300 a7 7f b0 bc 7b b1 27 3c 80 c8 47 bd 97 de be 3c
       -0.021545244 0.010235186 -0.048775196 0.023299498
000310 34 56 07 bc e4 07 c1 bb 0c d9 51 3d 85 aa 0e be
       -0.0082602985 -0.005890833 0.051232383 -0.13932236
000320 0f 5f cd 3c 66 21 04 bc fe 5e c1 bc 78 ff 45 3d
       0.025069742 -0.008064603 -0.023604866 0.048339337
000330 cc 26 6a 3d 06 43 6e 3d 26 f7 95 3d 9c 42 1f 3c
       0.057165906 0.058169387 0.073225304 0.009720471
000340 99 62 b2 3d 25 e9 9f 3d 7c 1f 40 3c 8d 78 8b bd
       0.08710212 0.07808141 0.011726256 -0.068101026
000350 d3 a6 e6 bc 98 df 24 bc b1 aa a0 3d 2d 91 4e bc
       -0.02815572 -0.0100630745 0.07845057 -0.012607855
000360 ca 19 4f bc a2 84 92 3d 8f 7b 7a bc 85 81 ec bc
       -0.012640426 0.07154204 -0.015288248 -0.028870353
000370 1b 97 55 3d c5 1e 0c bd 57 cc 9f 3d 41 3b 55 3d
       0.05214606 -0.03420903 0.078026466 0.052058462
000380 d9 f1 70 3d f8 fb 5a bc 8e 8e 0a bc 4b d1 44 3b
       0.058824394 -0.013365738 -0.008456839 0.0030031975
000390 cd c7 3b bc 70 50 28 3a 4d 8a 4b 3d d9 67 5a bc
       -0.01146121 0.00064206775 0.04969244 -0.013330423
0003a0 2c 7f 3a bc ac a8 bb 3d bc db 93 3c 2a 00 79 3c
       -0.011382859 0.09163031 0.018049113 0.015197793
0003b0 76 95 a0 bd f7 20 93 3d f5 87 6f bc 31 6e 84 ba
       -0.078410074 0.07184022 -0.014619817 -0.001010364
0003c0 c6 17 07 bd 7c 49 d3 bc 92 7a 57 3d 4a c7 65 3b
       -0.032981656 -0.025791876 0.052607127 0.0035061412
0003d0 df 36 84 bb 8a 8c 9e 3c bf 99 ec bc e1 fa 85 3d
       -0.0040348615 0.019354124 -0.028881906 0.06541992
0003e0 07 42 00 3d 34 8c 98 bb 70 1a aa bb a2 d3 1a 3b
       0.03131297 -0.0046553854 -0.00519114 0.0023624678
0003f0 9f 8a 81 3d 82 de 56 ba e9 75 e2 bc 40 2c 78 bc
       0.06325268 -0.00081966084 -0.027644115 -0.015147269
