model_dir/checkpoint_critic_target_1.pth (torch_old, 575149 bytes, 9 tensors)

fcs1.weight f4 [400, 52]
00000000: 162d 4e3b 0c2c 36be 3c58 073d 826b e53d
00000010: 8832 733e 8e3e 08bf 8b58 d3bc c68a da3d
00000020: c289 a4bc fe43 afbd c82b 243d 1376 a63d
00000030: 8bdb 6b3e 7150 eebe 8427 d23c d98b a93d
00000040: a7a8 5abd 8225 6ebd e86a 0f3c 3c96 6abd
00000050: d2d1 8a3e 15f2 32bf 111e 8b3c b968 70bd
00000060: fd35 213e 222d d5bd c09a c13c 0d2c c5bd
00000070: 718d 66be b93b 16bf 5400 dabc a26c 20bd
00000080: 3e7a 183e 256b 52be b80a 83bc 812f 2fbd
00000090: 9478 75be 68c6 04bf 69f5 483c 01eb 1cbd
000000a0: 2f32 063e e2ea 10be 4f1e 873c 33db b6bd
000000b0: 9618 81be b255 40bf 19d3 353c 9ff3 e4bd
000000c0: cc2d d03d 4db4 5a3f 649f e33f 98a1 1e3f
000000d0: 8210 083e 8545 953c 9878 b4bd 1e67 e53e
000000e0: 100d 94bd 0eea 123e e52c 6bbd 996a d73e
000000f0: e105 153e e0bc 3c3e 0d29 16be 814b a53e
00000100: 1a53 f5bd c238 e8bd 9cdf 3ebe c63d 933e
00000110: 0eb5 2e3d e3d3 c33e 6377 063e 64da 593e
00000120: b321 53be 8936 1fbd 5de9 933d cd5e 323e
00000130: 7bf1 4e3e b09c 8d3e 00a0 7dbc c006 4fbe
00000140: e2d0 a23d cbd2 aa3d ebfc 2fbd 4c44 0cbe
00000150: 06fc 5d3e c0ca ca3e 5e92 83bb 0a73 8abd
00000160: 8393 c83d be38 e0bd 3bec 6dbd f0b3 11bb
00000170: f258 233e 29e4 c23e 3ac8 8cbd 72f8 63be
00000180: 3732 383e 2ce2 99bd b27c e23c 6e12 8bbe
00000190: 0e32 223f af0a c13f c487 cf3e 2583 00be
000001a0: 85a3 5d3d ffc7 e23d ba53 e0bd 8029 32bd
000001b0: 638d 403e 9bbf e6bd ac5d f4bd 59a0 7cbc
000001c0: 7e93 d23b 2856 eb3d fc7a 983d fd95 303b
000001d0: 6ecb 4c3e 018b 48be 81b1 bd3d faa9 393d
000001e0: fd02 de3d 0e11 373e 2379 a13d 1ce3 b8bc
000001f0: 8d85 423e a050 88be 9098 b83d 52f7 c0bb
00000200: 7aa8 d0bc 857f 94be 0036 fa3c 1aac 3abe
00000210: b06b 17be 4fff f0bd 61e6 553d 9f64 1cbe
00000220: bf62 e13d a45f 8fbe 2e74 083e ce2f 733d
00000230: 1310 54be 9b1a 79be 35ad 233e 8cb5 ff3d
00000240: fb8a d53d 77e9 89be 22c9 5e3d 28b0 cabc
00000250: 748f 46be d7d5 8ebe 8457 2d3d 07fc 09bc
00000260: d1fb f13e faa5 673d 6abe b73e d202 0c3f
00000270: 473a f23c 4e60 293f 484c aabd 2fba 3c3e
00000280: 9d88 c8be a090 18be 162e 6bbd 4507 3c3e
00000290: 67e1 f03c f412 223f fb77 4f3e 1338 27be
000002a0: 1465 5cbe f729 f4bd bf16 093e 005b 16be
000002b0: 7531 113e 5068 e83e 6244 8a3d cabd 2abf
000002c0: c0d7 3e3d 4365 a0bc 4fba b93d 0b42 2bbf
000002d0: c418 56bd c288 053f 03ee 23bc 2a9b 073e
000002e0: 4b0d 9f3e f414 39be 3229 caba ba58 653d
000002f0: f5af 92bd 91af 0f3f 8715 673d d769 693e
00000300: ec4c 183e cf0a edbd 0ac0 563d 6083 7a3e
00000310: c221 8bbd 0fb9 123f 07ee 8e3a a12d 2cbd
00000320: 98f3 c0bd 6580 1cbd 17e3 a73b bf4e 553c
00000330: 0040 24bf c064 99bd 1780 c13e 3565 da3e
00000340: 3626 09be 7596 163e 3730 353d 8bd6 b5bd
00000350: 00e6 5a3e 403b b03d 9101 723d 866c 79bd
00000360: 96e0 c33c 4a90 643e 53db 273e bc0e 56be
00000370: 6d2a e03d 3230 a13d ec05 303e 8e03 30be
00000380: eb67 603d 349b ea3d 2edf a5bc db60 d3bc
00000390: 1852 83bb 4df6 3a3e 67aa 583d a36a a3bd
000003a0: 12ab afbd 91b9 97bd 9bd6 293d 0b1f 7c3e
000003b0: 4ea6 6cbe 35d6 0e3e 859b 0ebd 923a 553e
000003c0: d16f d3bb 0fdf 18bc 0403 bf3d 088c adbc
000003d0: 0e4e 0cbe f913 ab3d 15f5 9c3d 8a97 4ebc
000003e0: 8c68 c53d 0cc8 473d 0abd c43d 11e2 ba3d
000003f0: 0045 093d 3d32 103e b13b a93d ff54 9c3d
0.0031459979 -0.1779024 0.03304313 0.11202146 0.23749745 -0.5322045 -0.025799057 0.10671
-0.02008522 -0.0855789 0.040080816 0.081279896 0.23032968 -0.46545747 0.025653608 0.08278627
-0.053383496 -0.05814124 0.008753516 -0.05727218 0.27113205 -0.6990064 0.01698211 -0.05869362
0.15743251 -0.10408999 0.02363336 -0.09627543 -0.22514893 -0.5868488 -0.026611485 -0.0391661
0.14890382 -0.20548685 -0.015996322 -0.042769913 -0.23971778 -0.51865244 0.012265542 -0.038310055
0.13105081 -0.141521 0.016493944 -0.08928528 -0.2521407 -0.7513076 0.011097693 -0.111792795
0.10164985 0.8543137 1.7783017 0.6196532 0.13287547 0.018221626 -0.08812064 0.44805235
-0.07229054 0.14347097 -0.05741586 0.42073515 0.14553024 0.18431425 -0.14664097 0.32284167
-0.11978741 -0.11338951 -0.18639988 0.28758067 0.042653136 0.38247594 0.1313148 0.21274716
-0.20618324 -0.03887037 0.07222245 0.17418976 0.20209305 0.27658606 -0.0154800415 -0.20217419
0.079499975 0.08340987 -0.04296581 -0.13697928 0.2167817 0.3960781 -0.004015251 -0.06760223
0.09793761 -0.10948323 -0.058086615 -0.0022232495 0.15951899 0.38064697 -0.06874128 -0.22262743
0.17987905 -0.07513842 0.02764735 -0.27162498 0.6335763 1.5081385 0.40533268 -0.12550028
0.054111023 0.110733025 -0.109534696 -0.04349661 0.18803935 -0.112670146 -0.11931929 -0.015419089
0.006426274 0.114910424 0.074453324 0.0026944869 0.19999477 -0.19584276 0.09262372 0.045328118
0.10840414 0.178776 0.07884433 -0.022569232 0.18996258 -0.26624012 0.09013474 -0.005888858
-0.02547096 -0.2900354 0.030543327 -0.18229714 -0.14787173 -0.11767446 0.05222166 -0.15272759
0.110051624 -0.28002656 0.13325569 0.059371762 -0.20709257 -0.24326555 0.15984042 0.12485799
0.10426899 -0.26935932 0.054391034 -0.024742201 -0.1939066 -0.27897522 0.04231979 -0.008421904
0.47262433 0.056554772 0.35887462 0.54691803 0.029568804 0.66162574 -0.08315331 0.18430398
-0.39166728 -0.1489892 -0.057416998 0.18362148 0.029404355 0.6331017 0.20260613 -0.16329984
-0.21522933 -0.11922067 0.13387583 -0.14683151 0.14179023 0.45392084 0.06751324 -0.66695845
0.046592474 -0.019579535 0.09068739 -0.6689765 -0.052269712 0.521618 -0.010005477 0.13242784
0.3106483 -0.18074399 -0.0015423654 0.05599282 -0.071624674 0.5612727 0.056417014 0.22794281
0.14873093 -0.11574327 0.052429236 0.24464178 -0.06793548 0.57313627 0.0010904678 -0.042035703
-0.09421462 -0.038208384 0.0051235068 0.013019263 -0.64160156 -0.0748992 0.37793037 0.4265534
-0.13393483 0.14705832 0.044235434 -0.088788114 0.213768 0.08605051 0.059083525 -0.06089451
0.023910802 0.22320667 0.1639226 -0.20904058 0.10945592 0.07870521 0.17189759 -0.17188856
0.054786604 0.11455384 -0.020248022 -0.02580302 -0.004007589 0.18258019 0.052896883 -0.07979324
-0.08577551 -0.07408441 0.04146443 0.24621217 -0.23110315 0.13948901 -0.034816284 0.20823124
-0.0064525385 -0.009330525 0.09326747 -0.021184936 -0.1370165 0.08353419 0.07663933 -0.012609372
0.09639081 0.048774764 0.09606369 0.0912515 0.03351307 0.14081664 0.08263338 0.07633399

fcs1.bias f4 [400]
00000000: 7437 13be 42bf aebd f097 ccbd 98be b4bc
00000010: 93fe f6bd 1ae4 afbd f478 57be 9709 cbbe
00000020: 3afc 1dbf 3ad7 11be b735 bebe 321f 5dbd
00000030: 043a e0bc 3ca7 7fbc 7d53 22be 257e b0bd
00000040: 4514 09be 0a2f 00be 5775 e73d 8bb3 0bbe
00000050: bf56 cebe 94a1 c7bd 23db cdbd 2a90 4dbd
00000060: 15a5 dbbe f269 bebe ba65 b13d b72b f83d
00000070: c5ac aebe f519 afbe 9fef 9fbc 602f 083e
00000080: 72f9 1cbe 695a 85be cf0e 27be 22ac 273d
00000090: d408 813d d119 4f3d e7fe 98bc 1d6c 61be
000000a0: 1228 0a3e 4ab2 7dbe 38ac 83be ae8f 84bc
000000b0: b1c2 aabc 5956 aa3d a333 9dbb 7043 563e
000000c0: 2620 05be d0e2 72bd 96eb 9dbd c27d 4f3e
000000d0: a80e 8abc b492 bebd 3583 1c3d 03c4 343d
000000e0: d3d4 9c3d b092 34be 81a4 03be 553f dbbd
000000f0: 639a 9fbe 61ef a93d 4a90 253d b41a 7f3d
00000100: 7df6 22be af99 093c 2bb2 b33d 1003 13bd
00000110: 41e8 69be a178 0fbe 09ca 9abe 9e3d 47be
00000120: 6795 b1bd 8321 f9bb dbf0 0bbb 7527 ea3d
00000130: 01a2 76be 4273 9dbd d4e7 19be 026d 0e3e
00000140: 23e6 3dbd f69e cabe 3fe4 173d 1836 d5be
00000150: 8597 54be 00ed 87be 38e2 173d 52d9 80bd
00000160: 94f7 27be 9f22 513e e25e 8eb9 e47a f5bd
00000170: 71ca f5bc 7660 c6bd 3c06 4cbd ef5a 4e3d
00000180: 9b54 68be 7c93 93be 8f28 9d3d 480f 1bbe
00000190: bdf8 c73d 1f8f 78be 5524 01be 77d4 68be
000001a0: 3827 18bc 314e 0cbe 934e 853c 394b 2dbe
000001b0: 142c 92bd d26c 4dbe 2f84 a2be babe 9fbd
000001c0: 59c0 9bbe ba4b 97be 9b52 833c 8432 d43d
000001d0: 7e9c 493d 67f9 cf3c c4d8 5fbe 373f 0cbe
000001e0: 4ef6 8abe 0f52 68bd 0f81 d5be a241 57be
000001f0: 3c33 e3be 3e08 68be 6af5 4bbe 41e2 2abd
00000200: 1eb4 2ebe e8c4 e3bd a70a 80be 8623 78bd
00000210: 16f5 afbd fcf1 96bd e00c 93be ae72 8bbb
00000220: 9f5e d33c bea8 3dbe 573f 63be 7d54 f4bd
00000230: c5b3 a1bd eb8b 52be 6ac7 a4be c69d 7abe
00000240: 7974 88bd b6cc 7a3d 13d2 97be f16d bcbe
00000250: 0854 28be 2131 98be fcda 59be 17d1 acbd
00000260: 8cd6 c7be b299 c43c 3d6a 9cbe 2dc6 6e3d
00000270: ca18 81be 065e 873d 5f86 99be bb60 b13e
00000280: 413c 5cbe 2750 07be 7deb 86be 7516 59be
00000290: 1866 19be 54d8 02be 5334 06be 8f70 803d
000002a0: 267f f7bd 7ed6 c8be d4c9 acbe 83e4 efbc
000002b0: c14b ddbd f901 2f3e 8e8b 37be 5378 80be
000002c0: 7431 4bbd 80eb 02be 1500 08be 430f e5bc
000002d0: a7dd a53d 32cc 7fbe df1b 043e 7ae3 b0be
000002e0: 559e 703d 6534 e9bd 54a0 67be aecb aa3d
000002f0: bd4c 64bd fe72 8f3d 5457 6dbe 1bfe b03d
00000300: fd84 703c 02fa acbe 1afb e5bd f974 07be
00000310: 34a7 c0bd 62e3 05be 35df b0bc 9fc1 64be
00000320: c389 66bd 2a65 57be 8d63 8bbe d4fb 69bd
00000330: c5a3 9ebe 39cc c7bd d7d5 b53d f823 8ebe
00000340: 5c91 92bd d2ed 1c3d 6ab6 eebe 8b3a febd
00000350: 01b6 9abe b1c2 34be 1732 36be d2a0 8ebe
00000360: 4e52 50be 22b2 663c 4f8b 2bbe 61a6 b3be
00000370: 1310 c6bd 26db 2abf 39cc 2dbe 1cd4 1bbe
00000380: 8f5d 1e3c cc6a 8bbe 8ab6 44be 2fb5 34be
00000390: 3248 95be b8f0 0bbd d902 f6bd 0922 8fbe
000003a0: 3125 b6be bd1f 033e 3664 10be 9c5b 8e3d
000003b0: 4234 2dbe 02f9 9ebd 0d13 48be 9c18 95be
000003c0: c7d6 48be 2827 96bd e607 d03d 055c 9abd
000003d0: 2729 1bbe 513b 943d 959f 26be d2a1 71be
000003e0: c997 f7bd 3d40 80bb 56fa aebe 2f84 693c
000003f0: a177 3ebd d7cc 16be 1d56 d8bc 8f2c 193e
-0.14376622 -0.08532573 -0.09989917 -0.022063538 -0.12060275 -0.08588429 -0.21042234 -0.39655754
-0.6171299 -0.14242259 -0.37150356 -0.05398483 -0.027371414 -0.015603837 -0.15852161 -0.0861781
-0.13386638 -0.12517944 0.11301678 -0.13642709 -0.40300557 -0.097476155 -0.10051563 -0.050186314
-0.42899385 -0.37190205 0.08661981 0.12117713 -0.34116188 -0.3419949 -0.01952344 0.13299322
-0.15329531 -0.2604554 -0.16314243 0.040935643 0.06300512 0.05056173 -0.018676234 -0.22013898
0.13491848 -0.24775043 -0.2571733 -0.016181793 -0.02084479 0.08317251 -0.0047974153 0.20924163
-0.13000545 -0.059298337 -0.0771095 0.20262817 -0.016852692 -0.09305325 0.038211066 0.044132244
0.076577805 -0.17634082 -0.12855722 -0.10705439 -0.31172475 0.08297611 0.040420808 0.062281325
-0.1591434 0.008398457 0.08774217 -0.035891593 -0.22842504 -0.1401086 -0.30232266 -0.19457099
-0.08671074 -0.007602872 -0.0021353278 0.11433307 -0.24085237 -0.07687999 -0.15029842 0.1390877
-0.046362054 -0.39574403 0.037082907 -0.41642833 -0.20760925 -0.26548004 0.037080973 -0.062914506
-0.16403037 0.20423363 -0.00027155044 -0.1198633 -0.030003758 -0.09686367 -0.049810633 0.05037969
-0.22688524 -0.2882346 0.076737516 -0.15142548 0.0976424 -0.24273346 -0.12611516 -0.22737299
-0.009286694 -0.13701703 0.016272819 -0.16923226 -0.071373135 -0.20061043 -0.31741473 -0.0780005
-0.30420187 -0.29549962 0.0160306 0.103611976 0.04922151 0.025387479 -0.21860033 -0.1369599
-0.2714104 -0.056718882 -0.41700026 -0.2102113 -0.44375026 -0.22659394 -0.19917837 -0.04171968
-0.17060897 -0.11121541 -0.25008127 -0.060580753 -0.08591668 -0.073703736 -0.2872076 -0.0042556142
0.025801955 -0.18521401 -0.22192131 -0.11930177 -0.078956164 -0.20561187 -0.3218339 -0.24474248
-0.066628404 0.061230384 -0.2965246 -0.3680263 -0.16438305 -0.29724982 -0.21274942 -0.08438318
-0.39030874 0.023999069 -0.30549803 0.058294464 -0.25214225 0.066097304 -0.2998533 0.34644112
-0.2150736 -0.1321417 -0.26351538 -0.21199973 -0.14980352 -0.12777835 -0.13105898 0.06271469
-0.120847985 -0.39226145 -0.33747733 -0.029283768 -0.108054645 0.17090596 -0.1792433 -0.250918
-0.04960771 -0.12785149 -0.13281281 -0.027961379 0.080989175 -0.24980238 0.12901257 -0.3454855
0.058744747 -0.113869466 -0.22619754 0.0833963 -0.055737246 0.07004355 -0.23177844 0.08642217
0.014680144 -0.3378449 -0.112295344 -0.13228215 -0.094068915 -0.13075021 -0.021590808 -0.22339486
-0.056283724 -0.21034685 -0.2722439 -0.057124928 -0.3098432 -0.09755749 0.08878677 -0.27761817
-0.07156631 0.03831274 -0.46623546 -0.1241351 -0.30216983 -0.17652394 -0.17792545 -0.2785707
-0.20343897 0.014080556 -0.16752361 -0.35087875 -0.09671035 -0.66740644 -0.16972436 -0.15217632
0.009665861 -0.27229917 -0.19210258 -0.17647241 -0.29156643 -0.034165114 -0.12012262 -0.27955654
-0.3557525 0.12805076 -0.14100727 0.06951067 -0.16914466 -0.07762338 -0.19538517 -0.29120338
-0.19613181 -0.07331687 0.101577565 -0.075370826 -0.15152417 0.07237876 -0.16271813 -0.23596886
-0.120894976 -0.003913908 -0.34175366 0.014252706 -0.046500806 -0.14726578 -0.02640825 0.14958404

fc2.weight f4 [300, 400]
00000000: b330 56bd 018c 52be e341 d8bd f8c5 67bd
00000010: 8f4b 143a 0c64 673e 940e d2bd 3cad 7a3e
00000020: 9871 68bc 85aa adbd 4344 8cbe e7ff 203c
00000030: d76f 57bd 70f2 16bc 3093 2bbf 812b bcbc
00000040: e914 42be 0243 2dbd 13f3 5ebe cfb5 3bbc
00000050: e183 683d 9534 70bd 1e1b 97bd a1a1 aabc
00000060: 8c75 06be 2759 ca3d de0b 00be b5e8 6abe
00000070: bf05 a43d 7d21 813b e4ad 96bd a9d7 d23c
00000080: 48dc 83bd f4ef 823e e53a 9dbd 5b99 8ebd
00000090: 15cc bd3d c2c1 17bd 8c28 e63d c134 1bbd
000000a0: e429 1c3e ed9f 71bd feb8 3f3f 06e1 8e3d
000000b0: 9e74 973c 56a0 c3be 0210 2f3e 614f a9bd
000000c0: 4bd7 77be c2a6 ca3d f9fd 07bd 2236 21be
000000d0: bc67 83be 1aa8 313e 8b43 1e3b 80b2 af3d
000000e0: bb56 be3a 9a31 a13d 1b03 ac3d 16fc b93c
000000f0: 0e54 e73c 5453 3c3a 3f89 823e f82d 853c
00000100: 7cd0 243d 56e7 8a3c 002a 793e c063 69be
00000110: 6d44 61bd 3f5c 8abe 4f00 03be ed4d bf3c
00000120: ba1b 493c 5c4f f23d fc0a d6bd faca b1bb
00000130: c30f 41bd 3241 d13c 6051 253e e1fd 843d
00000140: 55f1 e6bd e288 91bd 105d c43c 3828 8fbe
00000150: d682 153d 4d98 74be 6360 41be 997c 653d
00000160: 83ac af3d 1fb9 233d 0c2f 11bd 54af 22be
00000170: 1ee1 123e 6441 85be 3a57 07bd aa0c 9dbb
00000180: ff78 263e 8c38 87be 683c 68bd bad2 3bbe
00000190: e676 07be 3d76 59be f200 aabd c039 843c
000001a0: 43b8 4a3c 312d b73c 4647 df3d c020 bf3c
000001b0: 024c 13bd f2ae 993d 56fb a9be 9a20 c0bd
000001c0: 6050 f73c 3c05 16be 555e a53d 8a04 cfbd
000001d0: 10da 0c3d 1ece 9bbc 52b6 ae3c 2654 c23d
000001e0: 4f1b 13bd 5442 14bc 2ac4 673c 8856 d83d
000001f0: 1507 78be 5cc2 3d3e f198 693d d4d7 a9bd
00000200: b720 f23c 0233 aabd 9b5c eb3c 5731 d03b
00000210: 7009 f9bc fae3 2b3e 2340 20bd 8cb6 333d
00000220: 7eea b33d 16a1 933c 6cfc c6bc 3739 a33d
00000230: 6843 583c 7a31 7239 646b a7be c943 01be
00000240: 48df 3abe fffb 5b3e cba4 92be 8e2c a43c
00000250: 013a 6b3e 796e 26be 9457 08be 8133 823d
00000260: 3e93 bc3d f770 a0bd a110 c6be e5fa 61be
00000270: e33b 5c3e 162e 3bba 7762 cebe cc33 0d3e
00000280: 6352 c23c 8c00 dbbd 1f0f 8ebd ab39 5ebe
00000290: e266 d4bb 766d c83d 4946 58bc 7bb5 73bd
000002a0: 61ec d33b 2665 653a a5ed 5dbe 6e62 253c
000002b0: 5cb6 fb3c c8a5 c439 0a82 dd3d 60f4 20bd
000002c0: 0060 d33b 4e43 0a3e 2427 c83d 8a71 5a3c
000002d0: 41e1 583e e96b 9b3c 0415 aabd f29f 7ebd
000002e0: e565 813c 8150 c23c 2c3c 8b3d afb7 d6bb
000002f0: b420 93be 4dee 2cbe c27b 7b3d 2267 e5bb
00000300: 9f65 a33d 9824 b2bd ade5 9dbd 940f 43be
00000310: c62b 65be 0a62 053e eb01 adbd c88f 513d
00000320: c098 9fbe 15d4 2bbd 794f 5c3e 2dd4 40bc
00000330: a51c 893d d1d1 bebd cc3a 843a 8be8 25bd
00000340: 1911 37bc e60c a93e 2640 013e 05a6 833e
00000350: 36ac 373e ffbf d53c 16d8 3dbe 77a8 ca3c
00000360: 437a d5bd 8bca c43d fb02 2fbd 7b9d 143d
00000370: 3b5e 753d fe93 1fbe 2006 333e e988 aebc
00000380: db1d 533c 73ea cebc 2707 2ebe 0b24 5ebe
00000390: 6167 55bd 89b6 54bc cbcd b7bd bd84 b6be
000003a0: c2e6 debd 1a17 64be b556 4fbe 8e97 9d3d
000003b0: c678 1abe 51d9 2dbe c16a ebbd 7cec c43d
000003c0: 9dd9 023d 5c53 b3be 9f0c f9bd 7c27 153d
000003d0: f73b aa3d cbda 51be 8af6 6abe e164 263e
000003e0: d4de 4e3e 42d8 7f3d d243 05bd 5609 22be
000003f0: 0456 f83c c3e4 9dbe 9c24 b43b 2d8a e7bd
-0.052292537 -0.2056122 -0.10559442 -0.056585282 0.0005657011 0.22596759 -0.10256687 0.24480146
-0.014187239 -0.0847979 -0.2739583 0.009826637 -0.052596893 -0.009213075 -0.67021465 -0.022969963
-0.18953289 -0.04230023 -0.21772413 -0.011456921 0.056766395 -0.058643896 -0.07378219 -0.020829024
-0.13130778 0.09880286 -0.12504527 -0.22940333 0.080089085 0.0039407597 -0.07357386 0.0257376
-0.064385 0.25573695 -0.07677249 -0.06962844 0.09267441 -0.037050016 0.112382025 -0.037892107
0.15250355 -0.058990408 0.7489165 0.069765136 0.018488225 -0.38208264 0.1709595 -0.082670934
-0.24203221 0.09895088 -0.03320119 -0.15743306 -0.2566508 0.17349282 0.0024149145 0.08578968
0.0014521697 0.07870789 0.0839903 0.022703212 0.028238323 0.0007184048 0.25495335 0.016257271
0.04023789 0.016956013 0.24332428 -0.22791958 -0.054996897 -0.27023503 -0.12793086 0.023352588
0.012274677 0.11831543 -0.10451314 -0.005425808 -0.047134172 0.025543783 0.16144323 0.06493736
-0.11276499 -0.071061864 0.023970157 -0.27960372 0.036501728 -0.23886223 -0.18884425 0.05602703
0.08577826 0.039971467 -0.035445258 -0.15887195 0.14343688 -0.26026452 -0.03304217 -0.0047927694
0.16257094 -0.2641033 -0.056698233 -0.18342105 -0.1322895 -0.2123651 -0.083009616 0.016140819
0.012373033 0.022360416 0.10902266 0.023331046 -0.03596116 0.07504071 -0.33199567 -0.09381218
0.030189693 -0.14650434 0.08074633 -0.10108288 0.034387648 -0.019019183 0.021327171 0.09488706
-0.035914715 -0.009049017 0.01414589 0.105633795 -0.24221452 0.18531173 0.057030622 -0.08293119
0.029556615 -0.0831051 0.028730681 0.006353538 -0.030400008 0.16786185 -0.039123666 0.043875262
0.0878496 0.018021148 -0.024290286 0.07969897 0.013199665 0.0002309735 -0.3269912 -0.12623514
-0.18249238 0.21482848 -0.28641352 0.020040777 0.22971345 -0.1625308 -0.13314658 0.0635748
0.09207772 -0.07834046 -0.38684562 -0.22068365 0.2150722 -0.0007140351 -0.40309498 0.1378929
0.023720926 -0.10693464 -0.06936478 -0.21701686 -0.006481991 0.09786503 -0.013200351 -0.059499245
0.0064673875 0.0008750729 -0.21672685 0.010094268 0.030726604 0.0003750755 0.108158186 -0.039295554
0.006450653 0.13502237 0.097730905 0.013332734 0.21179678 0.018972354 -0.0830479 -0.062164254
0.015795657 0.023720028 0.06798586 -0.0065526585 -0.28735888 -0.1688778 0.06139732 -0.00700082
0.07978367 -0.08698386 -0.07709823 -0.19048911 -0.2237998 0.1302568 -0.084476314 0.05116251
-0.31171227 -0.041950304 0.21514691 -0.011769337 0.06694917 -0.09317363 0.0010088324 -0.040504973
-0.01117351 0.33017653 0.12622127 0.257126 0.17936787 0.026092527 -0.18539461 0.024738533
-0.1042371 0.096089445 -0.04272745 0.036282998 0.05990432 -0.15583798 0.17482805 -0.021305518
0.012885536 -0.025258278 -0.16994916 -0.21693437 -0.052100543 -0.012982973 -0.08974799 -0.35648146
-0.10883857 -0.22274438 -0.2024792 0.076949224 -0.15085134 -0.16977431 -0.11494971 0.09615418
0.031945813 -0.35024536 -0.121606104 0.03641461 0.08312219 -0.20493619 -0.2294561 0.1624942
0.2020219 0.0624621 -0.03253538 -0.15823874 0.030314453 -0.30838594 0.0054975282 -0.11305652

fc2.bias f4 [300]
00000000: 2e55 33be 1b90 28bd 3973 553c fc84 0dbe
00000010: 8100 a7bd 2571 d1bd e977 bebd 9c85 ecbd
00000020: 635d d8bd 0530 43be 4b27 a9bd 56a1 dbbd
00000030: 5c87 89bd 1d4a 0fbe e3ac 4ebd 733b 04be
00000040: 78e3 ddbc bd59 0fbe 36b9 173d 995c 02be
00000050: bfbf 9abc 0ba7 95bd 6361 82bd ff6b 2abe
00000060: 331d 00bd 00a4 c8bd 94e8 46bd 1961 adbc
00000070: 1db1 21bd f6bb 52bd cff9 e5bd 1229 acbd
00000080: c35e cebd 6439 97bd 688f 7abd ed35 22be
00000090: 360a a1bd 3ab2 e0bd 05c0 18be 31c0 5dbd
000000a0: c507 abbd 41a3 5dbd 14bd d5bd 4863 e6bd
000000b0: afdd c0bd e74d 91bd 004b a5bd 7d40 0ebd
000000c0: fe63 6fbe 8638 a7bd c383 09be 6578 fbbd
000000d0: d378 02be 6a2d 60bd 206c dbbc 2427 e3bd
000000e0: 6242 2fbe 59ec 19be 9ae0 8ebd 41c6 42be
000000f0: a7ec d3bd ad23 6ebd 2096 17be 26ec 2cbd
00000100: 39f0 b9bd 9ecb 81bd 96b3 0fbd 1113 7dbd
00000110: 77ba a4bd d678 c9bd 2f8e cabd 0c9b 17be
00000120: 9d34 48bd 0af2 3abd a04f 2ebd 292c 02be
00000130: f877 7abe 9470 1ebe 1f2f f0bd a49c 0dbe
00000140: 583b 53bd 90c1 9bbd 8467 e5bd 4c93 fcbd
00000150: 5cec 4fbe 7ba8 7bbd a33a 34bd c2fa ebbd
00000160: 7cb8 96bd 5acc 30bc 23dd c4bd c854 18bd
00000170: 545f 34be 45fd abbd 0c4c cdbc de53 c8bd
00000180: 67cf d3bd b9dd b4bd 79b7 e4bd 5a3e babd
00000190: 0b31 62bd f180 07bd acf2 6fbd fb47 bbbd
000001a0: cea7 9dbd 85f3 b2bd 7e47 dbbd 670b adbd
000001b0: e345 bcbd dbb9 0cbd b47f 2fbe 8af0 5abe
000001c0: d557 e4bd 410e 0abe 1dde 84bd 02ca 0abe
000001d0: f7f7 1ebd 65a1 f7bd dc41 84bd ebe2 61bd
000001e0: 32fb 30bd 8d45 22be c6df bfbd 974a e6bd
000001f0: 01f5 7ebd fe13 d2bd d7aa 24be 422a 06be
00000200: eeb1 f5bd def7 acbc aa4c e0bd 71ed cfbc
00000210: 208d cabd 6ec6 b9bd 18c6 7abe 0a1f 9ebd
00000220: 4769 60bd 3a24 6abd 9bdf b2bc d262 14be
00000230: 9415 aabd 25bf e9bd b590 2cbc 4103 05be
00000240: 6683 35bd e00a 05be 6691 95bd ea68 a9bd
00000250: 8a8c 56bd 9b46 45bd 8a07 82bd d418 bdbd
00000260: 8faa aebd fcf2 e7bd 5a38 bbbd c991 d0bd
00000270: 80d1 01be 16e7 7abe 69cc ccbd 2eef b5bd
00000280: 0c2f 8dbd 97a6 a8bd 5d08 9dbd de08 23be
00000290: d3d8 debd bb9c e6bd 862c 4a3c 8fe5 dcbc
000002a0: 4c5b d9bd 6d14 15be 03ee 02be 3f3f 80bd
000002b0: 627f c4bd fc53 99bd 98ec b7bd 5c93 cfbc
000002c0: 35c6 40bd 0d6e b4bd 41be 2fbd 7c53 d9bd
000002d0: f743 cabd abd5 f6bd 7c33 b1bd 6401 bdbd
000002e0: 52b2 8abc 7bda 02bd 20be debd 6bcb 45bd
000002f0: 91aa a6bd a71c 3abd 3962 c3bd 6d26 5abd
00000300: b022 e7bd b76d 1abe 9420 a1bd e875 89bc
00000310: 561e dcbd 3825 f1bd da33 eabd 74d2 a0bd
00000320: 4ca4 a9bd 2afb 94bd 1d84 3ebd 54e1 8bbd
00000330: 8a07 02bd e738 b7bd 4182 68be d025 c2bd
00000340: 03dd 0cbd 584a 38be 6451 cabd 54ab 05be
00000350: 3c50 46bd dc14 21bd 6a36 02be d262 14be
00000360: a525 a5bd 4dc5 0ebd 8f55 91bd 57c3 c6bd
00000370: 2404 c8bd 6e24 84bd 11de 2fbd 6a58 14be
00000380: a3bf a0bd 3641 45bd 77c0 a3bd f361 c5bd
00000390: 6bed b1bd d3de f0bd 2365 bcbd d3a7 b7bd
000003a0: 411b 56bd 657a 8ebe 7a54 e0bd 5673 babd
000003b0: 52a1 94bd c8fc ddbd 7e91 c0bd 128e 94bd
000003c0: dc45 fcbd f942 c3bd 4729 37bd 9695 17be
000003d0: fabd b7bd 98a1 12bd de0b 5abe 9aef 4fbd
000003e0: bd58 01be 1e1a a1bd d4f5 d0bd d2f0 0abe
000003f0: 8f39 a4bb 5314 0cbe 21dd 78bd 4a06 c4bd
-0.17512962 -0.041153055 0.0130279595 -0.13820261 -0.08154393 -0.10226659 -0.09300215 -0.115489215
-0.10564687 -0.19061287 -0.08259448 -0.10724132 -0.06715271 -0.13993116 -0.050457846 -0.12913303
-0.027086005 -0.13999076 0.037041865 -0.12730636 -0.01889026 -0.073072515 -0.06366231 -0.1664276
-0.031277847 -0.097969055 -0.048561648 -0.021164464 -0.03947555 -0.051448785 -0.11229288 -0.08406271
-0.10076668 -0.07383993 -0.06117192 -0.15840884 -0.07863276 -0.10971494 -0.14917 -0.054138366
-0.08351091 -0.05411077 -0.104364544 -0.11249405 -0.09417283 -0.07094937 -0.08070946 -0.03472947
-0.23377988 -0.08165078 -0.1342917 -0.12278823 -0.12741403 -0.05473081 -0.026784956 -0.1109145
-0.17115167 -0.15031566 -0.06976433 -0.1902094 -0.10347872 -0.05813949 -0.14803362 -0.042217396
-0.09079022 -0.06337665 -0.035083376 -0.06178576 -0.08043378 -0.09837501 -0.098904006 -0.1480524
-0.0488783 -0.045640983 -0.042556405 -0.12712158 -0.24459827 -0.15472633 -0.11727738 -0.13829285
-0.051570266 -0.076052785 -0.11201385 -0.12332782 -0.20305008 -0.061439972 -0.044001233 -0.11522438
-0.07359406 -0.010790909 -0.09612491 -0.03719023 -0.1761449 -0.08397917 -0.025060676 -0.097816214
-0.10342293 -0.08831353 -0.11167807 -0.09093924 -0.055222552 -0.033081952 -0.05858104 -0.091445886
-0.07698022 -0.08737854 -0.107069954 -0.084494404 -0.09193017 -0.034356933 -0.17138559 -0.21380821
-0.11149565 -0.13482 -0.06487677 -0.13553622 -0.038810696 -0.120913304 -0.06457874 -0.055148046
-0.04320831 -0.15846844 -0.09368853 -0.11244696 -0.062245373 -0.102577195 -0.16080795 -0.13102058
-0.11996828 -0.021114286 -0.109521225 -0.025381776 -0.09890199 -0.090710506 -0.2448963 -0.07720764
-0.0547879 -0.057163455 -0.021835139 -0.14490822 -0.08304897 -0.11413411 -0.010532548 -0.12989523
-0.044314764 -0.1299243 -0.07303123 -0.08271964 -0.052380122 -0.048163038 -0.06349094 -0.09233251
-0.08528625 -0.113256425 -0.091416076 -0.10184056 -0.12677574 -0.24502215 -0.09999926 -0.088835105
-0.06893739 -0.082348995 -0.07667611 -0.15921351 -0.108812 -0.11260363 0.012339717 -0.02696493
-0.106131166 -0.14558573 -0.12786107 -0.06262063 -0.09594609 -0.07486722 -0.089806736 -0.025338821
-0.047064025 -0.08810053 -0.04290605 -0.106116265 -0.098762445 -0.12052473 -0.08652398 -0.09228781
-0.016930733 -0.03194664 -0.10876107 -0.048289698 -0.08138002 -0.04543748 -0.09540219 -0.053259302
-0.11285913 -0.15080915 -0.07867542 -0.016779855 -0.107479736 -0.11774677 -0.11435671 -0.07852641
-0.0828329 -0.07274468 -0.04651271 -0.06830087 -0.03174547 -0.089464 -0.22705938 -0.094798684
-0.03439046 -0.1799711 -0.09878805 -0.13053638 -0.04841636 -0.039326534 -0.1271607 -0.14490822
-0.08063821 -0.03485613 -0.07096397 -0.09705227 -0.09766415 -0.06452261 -0.04293639 -0.14486852
-0.07849052 -0.048157893 -0.07995694 -0.09637823 -0.08687862 -0.1176125 -0.09198978 -0.08967557
-0.052272085 -0.27827755 -0.109536126 -0.0910403 -0.07257332 -0.1083923 -0.094027504 -0.0725366
-0.12318012 -0.095342584 -0.0447171 -0.14803156 -0.08971782 -0.03579864 -0.2129359 -0.05076561
-0.12631507 -0.078663096 -0.10203138 -0.13568428 -0.0050117443 -0.13679628 -0.06075776 -0.09571512

fc3.weight f4 [1, 300]
00000000: af7c fa3c fcf9 01bb 1a82 993c 7ab2 9f3c
00000010: 853e 47bc aef8 9fbc 2ddd 96bc 0d52 47bc
00000020: bcd3 6cbb 0624 e43c 4059 afbb d754 083c
00000030: 735d f739 3365 d83a f421 97bc 9fd2 cdbc
00000040: 6462 503c 2206 fe3b 2923 9cbc acca 223d
00000050: 97c5 533c ce8b 06bb edd4 0ebb b38d c93c
00000060: 9a8b 8e3c 592a 69bb b1a2 0abc 14a5 0b3c
00000070: 63de 82bb d3f7 d73b 1f40 e63b 5445 27bc
00000080: 7d31 6dbc db3e 6139 8b7e 83bc 8ce4 1fbb
00000090: f1f9 bab9 70db fbbb 2de5 edba 16b0 84bc
000000a0: 6a1d c9b4 0088 a938 6df6 c3bb a2b6 3e3c
000000b0: 6ff6 9a3b ad91 05bc ce60 78bc f6ae 86b9
000000c0: 3393 9e3c 6780 223c 8ead bdbc 89e2 fcb9
000000d0: 4d48 8ebc 5c21 193c 725e 9f3c 6710 a5b9
000000e0: 4b27 76bc 6eac 0ebb 4d45 8bbc 1a08 6d3c
000000f0: 4a40 73bb 142d c6ba 62fb 22bc 8102 fcbb
00000100: f625 08bc b586 8fbb 9892 f13b 3a5c 81bc
00000110: fdb8 3d3b fe7d 873a 36fd bebb 203a e73c
00000120: a205 d73a eeb4 f7bb dbb9 0cbb b582 243c
00000130: 9e73 023c 539e 87bc 828f 6b3b d071 a73b
00000140: 4c8d 273a 449c c7bb 3e8f 68bc 38ac 98bc
00000150: 0bab 8d3b 593d 85bb e057 183c 1641 ac3c
00000160: c2c3 0bbc ab2d 973a e0cf c13b d044 6c3c
00000170: 27f4 313d 6912 b0ba 254d 3cbb 7565 0f3c
00000180: 1c26 f3bb ed53 35bc 8057 b3bc a9b3 72bc
00000190: 48a0 b83c 51cd 2fbc 9b7f de3c 7471 0d3c
000001a0: 0085 96bc 5bfb 92bc 365e d23c 03b8 fd3a
000001b0: 8759 adbb 49b0 27ba 5bef 25bc 48d6 60bc
000001c0: 0dda 3ebb c99a e03b c025 26bb 9c8b c5bb
000001d0: fb10 8dbc 01c7 1ebb ad2c 903c 3166 5f3c
000001e0: e4ab c4bc 3619 acba 0c85 29bb 4edf 4cbc
000001f0: 91b1 643c 59c1 b93c 8bc5 fe3b 8a51 923c
00000200: 03c8 aa3c bbf9 023b 47b7 ad3b 9af1 d4ba
00000210: 911a 4cbc ec10 303c e316 843b 6d0d 10bc
00000220: aa4e 893c 06ba 1939 1b58 623a 2b83 8cbb
00000230: 8231 8bbc c7ec 5ebc 5829 253c bcac 8ebc
00000240: 3f54 b73b 8cb0 0abc 7006 b83b b472 45bb
00000250: 2f56 703c 09c0 5f3b 02bc a73c b458 b3bc
00000260: c07f fb3c df9c e6bc 1cc8 963b a8ff deba
00000270: 7fa9 b13c d00e ec3c e821 c23b 7d90 cabc
00000280: 737e d93b c05d 083d c2d1 82bc 02ab 31bc
00000290: 1ef2 b2bc a651 183b d5be f6ba a150 7cba
000002a0: 663a e53c 281a 4bbc 433d 4b3c 5078 fb3b
000002b0: 3ab6 0aba f399 c2bb b09d c23b 3939 0a3c
000002c0: f445 613c a8bf 70bc 809b f73b 6cfd a0bc
000002d0: 06b7 dfbc b2de 18bb 51b6 913c 91c8 e8bc
000002e0: 4951 e93c 850f 0fbd c6f0 c0ba 5019 9dbb
000002f0: c313 293c 0c8b 853c c52e 0f3c 3c0b a0bb
00000300: 2093 26ba 90e9 ee39 9255 583c 15d6 a2b8
00000310: 2770 7a3b 66ef bfbc 370d 2e3b e046 c3ba
00000320: b127 5fbc 2d6b 90bb ba12 cd3b f0af 4f3a
00000330: 4939 26bc 9a14 6abb 351f ab3c edc5 89bc
00000340: 68b0 5f3a 53f1 b1ba 76d8 33bb 4809 c2bc
00000350: 5269 ba3c a818 303a 6e90 0f3c 8d5f bf3b
00000360: 1483 263c 59ff 92ba fec8 2c3c 48f9 3abb
00000370: ef4c debc cd59 693b 5ef7 853c c27d 27bd
00000380: 96a8 733b 4a66 94bc 5379 a9bc fe07 d4ba
00000390: f343 833c 2b31 11bd c16d 7c3c a477 7a3b
000003a0: 55fd f6ba b46b 3c3a 577d 1abb ec75 933c
000003b0: c794 1abc 25dc 12bc ceab 9e3c 9cb5 99bc
000003c0: 1c39 44bb b186 1dba f356 cebc a53c 96bc
000003d0: 4bc7 38bb 0f08 f03b 7095 bb3c 0dfc 39bb
000003e0: 3214 15bd 2f3e 88bc 406a 763c 504e d4bc
000003f0: 09dc 4c3c 7b44 bcbc 3a4f 3bbc efc2 11ba
0.030577032 -0.001983284 0.018738795 0.019494284 -0.012160902 -0.01952776 -0.018416012 -0.0121655585
-0.0036136946 0.027849209 -0.0053512156 0.008321009 0.00047181136 0.0016509652 -0.018448807 -0.025124846
0.012718771 0.007752196 -0.019059734 0.039744064 0.012925527 -0.0020530107 -0.0021794394 0.0246037
0.017400552 -0.003557822 -0.00846164 0.008523244 -0.0039937957 0.0065908222 0.007026687 -0.0102094
-0.014477131 0.00021481088 -0.016051551 -0.00243977 -0.00035662905 -0.007686071 -0.0018149965 -0.016197246
-3.746057e-07 8.08388e-05 -0.005980304 0.011640223 0.004729084 -0.008152408 -0.015159799 -0.00025688828
0.0193573 0.009918309 -0.023154046 -0.00048233967 -0.01736846 0.009346332 0.019454215 -0.00031483473
-0.015024017 -0.0021770257 -0.017000819 0.014467264 -0.0037117177 -0.0015119636 -0.00994763 -0.007690728
-0.008309832 -0.004380072 0.0073722117 -0.015791047 0.0028949373 0.0010337231 -0.005828525 0.028225958
0.0016404877 -0.0075594103 -0.0021473083 0.010040929 0.007962136 -0.016554987 0.0035943692 0.005110003
0.00063915993 -0.0060916264 -0.014194308 -0.018636808 0.0043233684 -0.004066151 0.009298295 0.02102713
-0.008530559 0.0011533996 0.005914673 0.014420703 0.043445732 -0.0013433221 -0.0028732505 0.008752217
-0.0074203145 -0.011067373 -0.02189231 -0.014813342 0.022537366 -0.010730104 0.027160456 0.008633006
-0.018373966 -0.017942121 0.025679689 0.0019357208 -0.0052902135 -0.0006396813 -0.010127868 -0.013722964
-0.0029121668 0.0068543893 -0.002535209 -0.0060286056 -0.017220011 -0.0024227502 0.017599428 0.013635204
-0.024007745 -0.0013130072 -0.0025866656 -0.012504412 0.013958351 0.022675203 0.007775014 0.017861146
0.020847326 0.0019985277 0.0053013894 -0.0016246319 -0.012457506 0.010746222 0.0040310486 -0.008792263
0.016761143 0.00014660516 0.00086343446 -0.0042880974 -0.01699138 -0.013606257 0.010080658 -0.01741635
0.0055947597 -0.008464944 0.005616002 -0.0030128183 0.014668985 0.0034141561 0.020475391 -0.021892883
0.030700564 -0.028150974 0.0046014916 -0.0017013447 0.021687267 0.028815657 0.005924452 -0.0247271
0.0066373884 0.033292532 -0.015969161 -0.010843994 -0.021843966 0.0023242026 -0.0018825183 -0.0009625052
0.027981948 -0.012396373 0.012404743 0.0076742545 -0.0005291436 -0.0059387623 0.005939208 0.0084364945
0.013749588 -0.014694132 0.007556379 -0.019652091 -0.027308952 -0.0023326096 0.01778713 -0.02841595
0.028481143 -0.03492691 -0.0014720194 -0.0047942773 0.010319653 0.016301654 0.008739178 -0.0048841517
-0.0006354321 0.00045568915 0.013203995 -7.764638e-05 0.003821382 -0.023429584 0.002655817 -0.0014898442
-0.013620303 -0.0044073076 0.006258336 0.000792264 -0.010145494 -0.0035717846 0.020888904 -0.016818011
0.00085330615 -0.0013575949 -0.0027442253 -0.023686066 0.022755299 0.0006717541 0.008762462 0.005840248
0.010163087 -0.0011215016 0.010545967 -0.002852993 -0.027136294 0.0035606504 0.016353305 -0.040891416
0.0037179342 -0.018115181 -0.020687735 -0.0016176698 0.016023612 -0.03544728 0.015407027 0.0038218284
-0.0018843809 0.000718768 -0.0023573244 0.018000565 -0.009434885 -0.008963619 0.019369032 -0.018763356
-0.0029941266 -0.0006009145 -0.025187945 -0.018339464 -0.002819496 0.0073251794 0.022898406 -0.0028378994
-0.036396213 -0.016631214 0.01503998 -0.025916249 0.012503632 -0.022981873 -0.011432463 -0.00055603584

bn1.weight f4 [400]
00000000: 2b83 053f 139d 823e 885b 563b a923 1b3e
00000010: 4635 efb7 b409 413e 4d5e b23d 69f9 893e
00000020: 0060 093f 2270 413e 28f7 6d3e 0a3c de3a
00000030: cca9 673e e7ab f2bd 018e ba3d b0d3 263e
00000040: e4db 403e 90b0 493e 7a6a 21bb ae52 0dba
00000050: cbb0 e33e c101 7c3f baf9 9a3d 360a 7db9
00000060: 77e3 a03e c3f2 643e 0a2d a33e 79d0 92bb
00000070: a59a 243f 3f2c 9d3e ab51 fa3d e315 bf3d
00000080: dc91 783e 63b8 5dbd 03f8 133f f479 fa3e
00000090: 50ea 973c 7324 c13d 38f4 403e a000 783e
000000a0: 6584 273c 601a 1e3e 93c3 92bd e3fa 3f3e
000000b0: 2e40 8cb9 a1dd 0a3e 6d0b 87bc 6275 043a
000000c0: f6ee 763e 93d6 5a3f c9bf 9a3d 452a 073e
000000d0: 9519 443e 0f63 063e b0d8 2339 5507 6c3d
000000e0: dd72 633e 1b8c 613d 2037 8a3d 7030 2d3e
000000f0: 9de9 84be 911c a93d d4df 163e d809 d2b9
00000100: cc5e e03d cd9c a93d ef21 023e 4bd4 27bc
00000110: 841a 773e ff20 b33e 17c0 dd3e 74b2 dd3e
00000120: 31b4 c63a f9e3 623f 2610 693d c3db b039
00000130: 23d3 843e c2f8 793e 2b68 273e a3d8 853f
00000140: face fc3d 2a72 353f 4698 4e3e 8dc8 943e
00000150: 1a53 983e 62a5 273e e7b2 173e 2927 67b9
00000160: 21c9 883e e898 293f 1c97 653e 2f0c 193a
00000170: 3521 c93e bfb5 d43c cac1 ac3a 4951 4a3a
00000180: c059 b0bd 5886 723e a0fc 623e 61ba 953d
00000190: d720 c33d 8a7d db3d 8d60 313e 58d4 473e
000001a0: 06f3 f23a a90c 793b 5572 8b3e 0471 443e
000001b0: 2419 8d3d f8f2 b13e 0b7b 153f c58c 813d
000001c0: 260c 623e 64c0 743e e064 413f 03b1 883e
000001d0: 37db e43c c49c aeb8 46df d63d b0e0 c33d
000001e0: 2973 c73d 7180 873a 7999 883e ef10 5e3e
000001f0: 4732 a23e a75b c1bd 97b2 843d ee2c b63d
00000200: 1ab8 213e 4543 a33e 2820 ac3d 6fb5 763e
00000210: b3ec 5a3e 7c9c 5b3e af43 8d3e cbb4 4e3e
00000220: bc71 e73e 4a70 003f 3150 773e d396 013e
00000230: b099 803e 8fb7 a43e a834 5d3e 3d50 c53e
00000240: aecb b13e b7a9 023e c1d1 8d3e ab27 c93c
00000250: acdf bdbd dcd6 f73d 137b 583e 2465 943e
00000260: 5687 553e a45c 923f 89f4 913e e762 973e
00000270: 1479 2b3e 9cec 2db9 876c d13e e5ed 8f3e
00000280: c035 ce3e 108c ba3e 759d cd3e 4f8a c43e
00000290: 17d2 493e e4cf 813e be5e 3a3e c68c a738
000002a0: 9ad3 a2ba cc77 d83e 1c0b 753e 7bfc 0dba
000002b0: fcb9 a039 c97d a63e 64c6 c43d 6a1f 923d
000002c0: 2ca6 c2b9 0d22 d43e a868 a93d ab28 1339
000002d0: 23b9 863e 3028 183f 7d64 7f3c 3366 e73e
000002e0: 55b9 6eb9 3c13 97ba 6bee 2d3e 2440 933a
000002f0: 0977 673e 9ddf a13e 4b2c 8f3e 5147 e339
00000300: 61ca dc3d 1551 dd3d 894f 013e 80b4 133e
00000310: b55b 953d dcb4 053e aa4d 143f 735e b13d
00000320: 7f0e 713d 15c9 863e 8a1f 373e 219c 103a
00000330: 841b c13d 4f8a 9a3d 5223 b6b8 1053 db3e
00000340: 2805 783f 4916 c73e 1bfb 6d3e 9af2 f63e
00000350: d56e 1c3e 6a92 c93d 2414 883e 1ccf 163d
00000360: 33a0 cbbd 40b4 f03d 881f a53d 2cd5 0e3f
00000370: 05fd 163e 3c6c 0d3f 8c2e 90bd 2814 663f
00000380: 09aa 113e 4585 a03e 6b21 b23e 3e2e b53d
00000390: f6e5 323d e663 583e 8e8d 6c3d 4ebf 493d
000003a0: f8bc dc3e 65cf 4c3e 1c7e 803e a08c 8c3e
000003b0: 79c1 b63d 3730 653e 5eb3 813e 0931 803e
000003c0: e63e d13d af0b 193e 7e3b 4038 309d 8b3f
000003d0: 5370 953e bdaf 9d3d 2c08 3c3e c201 963e
000003e0: 2cf3 233e 2143 133e 846b 803e 680a c7bd
000003f0: 4610 a03e 1c4e 993e 577b 2e3a 2ad2 c73e
0.5215327 0.25510463 0.0032708365 0.15150322 -2.8515828e-05 0.18851358 0.08709393 0.26948097
0.5366211 0.18890432 0.23238814 0.0016955149 0.22623366 -0.11849194 0.09109116 0.1629169
0.18833882 0.1969626 -0.0024630115 -0.00053910434 0.4447082 0.98440176 0.07567163 -0.00024131764
0.31423542 0.22358231 0.318703 -0.0044804183 0.6429847 0.3069782 0.12222608 0.093303464
0.24274391 -0.054130923 0.5780031 0.48921168 0.018544346 0.0943078 0.18843162 0.24218988
0.010224436 0.15439749 -0.07166209 0.1874805 -0.00026750698 0.13561107 -0.01648494 0.0005052892
0.24114594 0.85483664 0.07556111 0.13199718 0.19150384 0.13123725 0.00015625614 0.05762418
0.22211786 0.055065256 0.067487955 0.16913009 -0.25959483 0.08257402 0.14733821 -0.00040061655
0.10955581 0.082818605 0.12708257 -0.010243486 0.24131209 0.34986112 0.43310615 0.4330021
0.0015159902 0.8862911 0.056900166 0.0003373307 0.25942335 0.244113 0.1634833 1.0456737
0.12344165 0.70877326 0.20175275 0.29059258 0.297509 0.16371682 0.1481434 -0.00022044465
0.2671595 0.6624894 0.22420925 0.00058383023 0.39283147 0.02596557 0.0013180312 0.0007717801
-0.086108685 0.2368406 0.22166681 0.073109396 0.09527748 0.10717304 0.17321987 0.19514596
0.0018535561 0.003800193 0.27235666 0.19183737 0.06889561 0.34755683 0.58390874 0.06325678
0.22074947 0.23901516 0.7554455 0.2669755 0.027936561 -8.3261664e-05 0.10491805 0.0956434
0.09738762 0.0010337961 0.2667959 0.21686147 0.31678984 -0.094413094 0.06479376 0.088952884
0.15792885 0.3188726 0.08404571 0.24092649 0.21379356 0.21446413 0.275907 0.20186155
0.4520396 0.5017134 0.24151684 0.12655191 0.25117254 0.32171294 0.21602118 0.3853778
0.34725708 0.12760054 0.27699092 0.024555048 -0.09271178 0.12101528 0.21140699 0.28983414
0.20852408 1.1434522 0.28506878 0.29567644 0.16745406 -0.0001658671 0.40903112 0.28111187
0.40275383 0.36434984 0.40159193 0.3838677 0.19709049 0.2535392 0.18200204 7.989402e-05
-0.0012422681 0.42278898 0.23930019 -0.00054163457 0.00030656147 0.3251784 0.096081525 0.07134898
-0.0003712637 0.4143223 0.08271915 0.00014034162 0.26313123 0.5943632 0.015587923 0.4519516
-0.0002276649 -0.0011526118 0.1698548 0.0011234325 0.22604002 0.31615916 0.2796348 0.0004334995
0.10780788 0.10806481 0.12627997 0.14424324 0.07292882 0.13057274 0.57931006 0.08660593
0.058851715 0.26325288 0.17883125 0.0005516429 0.09429076 0.075459115 -8.685015e-05 0.4283681
0.9688287 0.3888419 0.2324032 0.48231965 0.15276654 0.098423794 0.26577866 0.03681861
-0.09942665 0.1175313 0.08062655 0.55794024 0.14744957 0.5524328 -0.07040128 0.89874506
0.1422502 0.31351677 0.3479112 0.088467106 0.04367634 0.21131858 0.057752185 0.049254708
0.43112922 0.2000099 0.25096214 0.27451038 0.08923621 0.22381674 0.2533216 0.2503741
0.10217075 0.14945863 4.5831774e-05 1.0907345 0.2918726 0.07699535 0.18362492 0.29298216
0.16010731 0.14381076 0.25082028 -0.09718782 0.31262416 0.29942405 0.00066559523 0.3902753

bn1.bias f4 [400]
00000000: 52f2 3a3e 40a2 c13d a272 093a b49a a03d
00000010: 6dfd b2b8 fbc7 ca3c 2531 763c 858d 053e
00000020: 9330 973e eceb d23d c601 df3d e5e9 1b39
00000030: efbe a83d 3569 7ebc fd89 3c3d 8051 6c3d
00000040: 40b2 7b3d 6897 cc3c 7bbb 3d3e f277 9837
00000050: 2ba7 753e be4f 293e 1461 213c 0c3d abb6
00000060: 540b fb3d dde9 6d3d 76fb 893d c3de 143e
00000070: 390e 7b3e c417 ff3d bb3c cb3c d541 5c3d
00000080: 1006 c93d 9d69 8fbe 09a4 873e 85b6 1f3e
00000090: 6278 5ebd c5b7 3d3c e5cb 8b3d 208d c63d
000000a0: 3e69 10be 8da1 f33c 9766 74bc 6a46 973d
000000b0: 00cd 9038 9a30 853d 4289 cebc 95ac e839
000000c0: 7b30 243e dfe6 58bc e430 363c 99c8 3b3d
000000d0: 34cd 163e d89f 083d 8590 e538 e003 de3b
000000e0: 3f63 433d 3fe5 0f3c 3cc0 3a3c 732a 3c3d
000000f0: a964 d9bc 1362 613d 2d16 d6ba 46ca c4b8
00000100: e567 543d cabf 423c dcdf d53c 3317 d43e
00000110: 72b9 873d 6384 1f3e 6d8c 0f3e d869 af3d
00000120: e858 1d39 f192 053c 12e0 623c 1ad2 51b7
00000130: 177c fb3c 071c bd3d 5e60 0d3d 685f 273e
00000140: 9994 9a3c 773a 863e 0180 743d 5bd8 493e
00000150: a70c 633d 3dea 203d 5662 a13d dd65 46b9
00000160: e20c 0e3e fcd8 aa3d c3ab 973d 9f80 9b39
00000170: ed87 da3d 66e0 923c 98a8 cf39 a569 2539
00000180: 0e01 19bd 1787 a13d 07e2 3b3e 8f22 a53b
00000190: 832c 993c c425 ba3e 72fe 373d daa1 8e3d
000001a0: 92da 6239 5ea9 163a 26e9 583e 315d 1e3d
000001b0: 84cb 9b3c fd99 e43d 5b22 843e a400 7f3c
000001c0: 88bb e63d 72a2 2d3e 1e4b 2b3e 8d8e a33d
000001d0: 7146 613a 7f75 5339 0720 933c 0ea1 953c
000001e0: 1cba fd3c f769 2939 9c53 213e d337 bb3d
000001f0: f8fc 283e fb89 5fbd 7ccf 983c 0206 183d
00000200: 3c85 803d 0035 223e f3ec 283d 0d71 883d
00000210: 2edc 753d a60f 003e 9e87 ad3d 81ba e23b
00000220: 9d0c 183e 9984 2c3e f724 853d 3c39 f33a
00000230: 9de1 353d e3df c63d ac89 063e 8ead 003e
00000240: a84c 153e 5f8b 553c 903a 2e3e 2e4b 223b
00000250: 12f8 8abe 4382 0b3d f716 893d 621f a93d
00000260: c519 7b3d a7a3 543e 324c 283e acf1 053e
00000270: 2a14 9c3d 002d 1437 36de 223e 66dd 7a3d
00000280: 68f5 2c3e 5bd4 7f3d 91c2 0c3e cd4f 2c3e
00000290: 691d 5d3d 112e 9e3d 5b32 8e3d c116 2939
000002a0: fb29 34b9 b404 bf3d 6567 813d 1b6d 0eb9
000002b0: 51d3 6e38 6481 ad3d c41d c23b 1bac 473c
000002c0: 6dec 27b7 7ad7 e43d 64e0 dabb d848 04b9
000002d0: 54c2 4e3d 7aca 683e c79d 173c bab1 113e
000002e0: 6783 29b9 7dff 7eb8 568a 083d 8fd4 9e39
000002f0: 8955 a63d f719 043e 6f32 ce3d 9cdd 57b8
00000300: 1025 6f3c 3abd bb3c f81a b23c 1b55 283d
00000310: ec17 0f3c 15b1 523d 689c 853d 2668 77ba
00000320: 6997 7d3c 9517 a83d 0cba 5a3d dd3a 1139
00000330: 6399 d03c 16c3 093d e2b0 acb7 bb5d 513e
00000340: 4d41 1e3e ae72 35be 2d08 893d 02cc 9c3d
00000350: 9a5e a5bc 6cbf 0d3c 5a3a d83d c497 143b
00000360: d727 dbbc 01f1 b6bd 545a c03b f923 003e
00000370: 4349 023d e57f 1e3e 847f adbd 8689 763e
00000380: 9cc6 823d 8f5d f83d 80a7 063e ffae 103d
00000390: 5010 e33b 1a86 9c3d 1f7b a33c 04a8 a03e
000003a0: 255f 143e 7e45 c23d 7ff0 c43d d647 823d
000003b0: c7cd 323d 9e42 553d 0e31 b23d 8581 4f3d
000003c0: d290 883c 3de3 9a3b 9834 4839 a4dc 413e
000003d0: 75dd c53d 9e3d 253d 0846 663d 35cd b53d
000003e0: d4ef 7d3c 9748 9b3d 38de 993d dd47 543a
000003f0: e6d0 9f3d 2916 e53d bbf4 1a39 42b1 9a3d
0.182565 0.09454775 0.0005243217 0.07842007 -8.534906e-05 0.024753561 0.015026365 0.13042267
0.29529247 0.10298905 0.1088901 0.00014869084 0.08239543 -0.015528013 0.046030033 0.057694912
0.06144929 0.02497454 0.1852855 1.8175666e-05 0.23989551 0.16534325 0.009849805 -5.103304e-06
0.1225802 0.058084358 0.067374155 0.14538102 0.24517144 0.12455705 0.024809232 0.05377372
0.098156095 -0.28010264 0.26492336 0.1559697 -0.054314025 0.011579459 0.06825999 0.09694886
-0.14102647 0.02974012 -0.014917037 0.07386477 6.904639e-05 0.06503411 -0.025211934 0.00044379072
0.16034119 -0.013238638 0.011120055 0.0458456 0.14726716 0.033355564 0.0001094649 0.0067753643
0.04770207 0.008782684 0.011398371 0.04593892 -0.026537256 0.05502517 -0.0016333513 -9.383685e-05
0.051856894 0.011886546 0.026107721 0.4142395 0.06627168 0.15577845 0.14018412 0.0856511
0.00015005807 0.008152709 0.013847368 -1.2506289e-05 0.03069882 0.092338614 0.03451573 0.16344988
0.018869685 0.2621648 0.059692387 0.1971144 0.055431988 0.039285887 0.07880084 -0.00018920698
0.13872102 0.08342168 0.07405808 0.00029659734 0.10670457 0.017929267 0.0003960773 0.00015774982
-0.03735452 0.078870945 0.18347941 0.00503952 0.018697983 0.36356938 0.044920392 0.069644645
0.00021634463 0.00057472836 0.21182689 0.038663093 0.019017942 0.111621834 0.2580746 0.015564118
0.112662375 0.16956499 0.16727874 0.07986174 0.00085935654 0.00020166299 0.017959608 0.018265273
0.030972533 0.00016156571 0.1575455 0.09141507 0.1650275 -0.054574948 0.018653624 0.037115104
0.062754124 0.1584053 0.041241597 0.06662188 0.060024433 0.1250597 0.084731326 0.0069192057
0.14848562 0.16847457 0.06501191 0.0018556486 0.044404615 0.09710672 0.13138455 0.12566206
0.14580023 0.013033717 0.17014527 0.002476405 -0.27142388 0.034059774 0.06693833 0.08257939
0.061303873 0.20765553 0.16435316 0.13080472 0.076210335 8.831965e-06 0.15905079 0.0612463
0.1689049 0.062458377 0.13746096 0.16827317 0.053983126 0.0772363 0.06943198 0.00016125572
-0.00017181777 0.09327069 0.06318549 -0.0001358282 5.6940426e-05 0.08471945 0.0059239585 0.012187029
-1.0009023e-05 0.111739114 -0.0066795815 -0.00012615637 0.050478294 0.22733489 0.009253926 0.14227954
-0.00016166047 -6.079626e-05 0.033335052 0.00030294477 0.08121783 0.1290053 0.10068213 -5.1466384e-05
0.014596239 0.022917379 0.021741375 0.041096788 0.008733731 0.05143841 0.06523973 -0.00094378216
0.0154779935 0.08207623 0.053400084 0.00013850206 0.025463765 0.033633314 -2.0586365e-05 0.20445912
0.15454598 -0.17719528 0.066910125 0.07656099 -0.020186711 0.008651596 0.10558005 0.0022673467
-0.026752396 -0.089326866 0.005870143 0.12513722 0.03180815 0.15478475 -0.08471587 0.24075899
0.06385538 0.1212722 0.13149834 0.03532314 0.006929435 0.07642765 0.01995617 0.31378186
0.1448942 0.09485911 0.096161835 0.06361358 0.043653276 0.052065484 0.08700763 0.05066063
0.016670618 0.004726796 0.00019093079 0.18931824 0.0966138 0.040341966 0.05621913 0.08877031
0.015499074 0.07582205 0.07513088 0.00080978667 0.07803516 0.11185867 0.00014777754 0.075533405

bn1.running_mean f4 [400]
00000000: 1498 383f 33e9 ae3f b78b 8840 b18a 7b40
00000010: 637e 2641 0b9c a040 cba5 833e 6e61 ba40
00000020: 045f fb3f 43e0 b63f f5ae 0240 5e85 783d
00000030: 7867 b13f c4d7 853e 8886 c040 677a e73f
00000040: 6c67 1440 7760 283f dcd5 0541 bd9f 0f40
00000050: e696 a840 0fc9 ba41 93f1 3d3e d64b 5e3f
00000060: 57e6 1040 7649 dc3f 0d14 9b3e 521d fe40
00000070: 2254 1c40 64b8 683f 1709 863f cae8 2340
00000080: 2c8c 8a3f dad4 943e 48a6 5e40 faa7 cb3f
00000090: dd7d ff3f ac6f f93e daad 5d3f b983 3340
000000a0: e695 a140 ad03 333f 5b79 5840 de53 073f
000000b0: 9484 3440 e1ac 2340 e36c b940 bda7 0c41
000000c0: b30e a140 302b be40 e678 783f cdf3 6840
000000d0: 37dc 2e40 b8b7 2340 6058 4e3f 6536 8340
000000e0: 3291 b53e 3570 f03f b9e6 de40 f560 013f
000000f0: 99af 413c 9ccf cc40 cbf7 e63f ec2e 1b40
00000100: e6a0 4740 1119 f63e afab af3f bd0c cf3f
00000110: 718c 853f dae2 733f 722e 1040 b426 973e
00000120: 3d1c f03e c696 a041 5ec0 8e40 5297 b840
00000130: 11dc 023f fdd1 4240 ebe0 0e40 0a7c 9741
00000140: d9f4 473f 2908 0640 2107 f63f c5d6 8640
00000150: 0385 173f fb7b a23f b893 9340 6b2c fc40
00000160: 71b3 c040 3660 e23e ccff bf3f fa7e fe40
00000170: e6ce a43f 1494 fe40 df12 083f 463a 133e
00000180: 5776 b83e d46d 4f3f 92b5 4041 b592 ae3f
00000190: bd4a 8140 f0da 0c40 7ae7 b53e 6c98 3840
000001a0: bac7 f23e 4aec 0f3f f783 1941 99e7 4e3f
000001b0: de8d 8140 0755 0a3f 20d1 9d40 9ffa 2f40
000001c0: e7ab 1440 271c 1141 906d ae41 402a 433f
000001d0: 2218 8e41 cfb2 0f3e ae89 da3e 5580 ef3f
000001e0: e99e 473f 19c5 6940 529a 0840 41f5 0b40
000001f0: c9b9 823f 759f 743f 5a43 0340 7930 4b3f
00000200: 7bd5 7a40 8e32 4c3f 2806 b53f a9a4 2a40
00000210: efc2 1c3f 524a 6340 90fa 2f40 2f0b 7640
00000220: e193 3a3f e266 923f 6119 0740 00e5 2941
00000230: f879 f03e bcc8 643f cc92 ac40 48c6 8a40
00000240: e318 9b3f cba7 f340 661f 3840 04c4 b23c
00000250: 76f2 d33e 94be 663f ce0f 073f e031 9b3f
00000260: cca8 ea3f 7185 ca41 aae1 2340 4e08 a840
00000270: 67c1 9a40 714f 073e 98f3 df3f 51c0 693f
00000280: 1d88 5741 ed64 0b3e b6af 843f ccb5 0640
00000290: d4dc 6e3f 1672 0b41 9d15 6e40 b34b 7540
000002a0: b7c2 533e 5893 1d40 2b7b 483f 2c96 e83e
000002b0: 9e35 463f f08b f03f fdfc 0f3f a4e8 663e
000002c0: cc96 6e3f 330e 4b3f 1181 4240 ae15 2440
000002d0: a356 9f40 5172 3841 2062 4940 7680 303f
000002e0: 18cb 0b40 f900 5d3e 1d93 db40 7d7c b23d
000002f0: 09c2 0d40 0f5f 1e40 8ac0 ae3f db0d 5c41
00000300: 412f 883f e38e 3c3f 5058 543f b649 1b40
00000310: 5c1e 9240 49a4 123f 7d84 313f 3e9c 863f
00000320: 0845 7b40 6304 1c3f f898 0e40 ede2 4540
00000330: 50fc 963f 6d81 0441 6233 6340 ed6c ca40
00000340: 864e b941 ea63 9e41 4583 0640 3598 7440
00000350: e252 b33f 050f 0a3f 637f 1140 589c 093c
00000360: 0e61 fc3e 5393 4140 2581 233f 70b9 b640
00000370: c1da ae3e 8df8 f33d 5a45 ce3e 524e 0641
00000380: 79a3 f43f 2810 e03f 02cc c63f 5142 893f
00000390: 3250 a73e 153f 8540 2832 0d3f 8a63 eb3f
000003a0: a657 043f 5ad7 1440 dd2e 7a3f a1dd ea40
000003b0: a48c 0440 e477 ca3e 149d e63f 522f 353f
000003c0: 77eb 5140 99a9 ec3f d032 d440 9390 f73e
000003d0: fb95 1a3f 88ee 7540 8a5f 8f3f ece6 e140
000003e0: 455f 813e 21bc cb3f 9ec4 6040 da47 9b3e
000003f0: 8536 923e e543 eb3f be62 c83e 175a a53e
0.7210705 1.3664917 4.267055 3.93034 10.405856 5.019048 0.25712427 5.8243933
1.9638371 1.4287189 2.0419285 0.060674064 1.3859701 0.2614118 6.0164223 1.8084229
2.3188124 0.65772194 8.364712 2.2441247 5.26842 23.348173 0.18549185 0.86834466
2.2640588 1.7209918 0.30288735 7.941079 2.442635 0.9090636 1.0471524 2.5610833
1.0824027 0.29068643 3.478899 1.5910637 1.9960285 0.4871801 0.865934 2.8049147
5.049548 0.69927484 3.382407 0.52862346 2.820592 2.5574267 5.794542 8.790952
5.0330443 5.942772 0.97059476 3.6398804 2.7321908 2.5580883 0.806036 4.10039
0.35462338 1.8784243 6.9656644 0.5053857 0.011821651 6.400343 1.804437 2.424739
3.1191955 0.48066 1.3724269 1.6175762 1.0433484 0.95268023 2.2528348 0.29521716
0.46896544 20.07362 4.4609823 5.7684717 0.51117045 3.0440667 2.232478 18.935566
0.7810798 2.094248 1.9220926 4.213717 0.59187335 1.2694086 4.611782 7.880422
6.0219045 0.44214028 1.4999938 7.953 1.287564 7.955576 0.53153795 0.14377698
0.36027786 0.8102696 12.044329 1.3638521 4.0403733 2.200863 0.35528165 2.884303
0.47418004 0.56219923 9.594718 0.8082214 4.048568 0.5403599 4.931778 2.7496717
2.322992 9.069373 21.803497 0.76236343 17.761784 0.14033054 0.42683166 1.8711039
0.7797685 3.652655 2.134419 2.186844 1.0212947 0.9555581 2.0509858 0.7937084
3.9192798 0.7976464 1.4142504 2.6663 0.61234945 3.5514112 2.7496681 3.8444326
0.72881895 1.1437647 2.110924 10.618408 0.46968055 0.89368796 5.3929195 4.3367043
1.211697 7.6142325 2.8769164 0.021821983 0.4139592 0.9013455 0.5275849 1.2124596
1.8332763 25.315157 2.5606484 5.2510138 4.8361087 0.13213898 1.7496214 0.91309077
13.470731 0.13612719 1.0366123 2.104846 0.93305707 8.715353 3.7200692 3.8327453
0.20679747 2.4621181 0.7831294 0.45427072 0.77425563 1.8792706 0.56245404 0.22549683
0.9319885 0.7931854 3.0391276 2.5638232 4.979326 11.527909 3.146614 0.68946016
2.1842709 0.21582402 6.861708 0.087151505 2.214968 2.474552 1.3652508 13.753383
1.0639421 0.7365553 0.82947254 2.426374 4.566206 0.5728193 0.69342786 1.0516431
3.9260883 0.60944194 2.2280865 3.0919755 1.179575 8.281598 3.5500112 6.3257966
23.163342 19.798786 2.101762 3.82179 1.4009669 0.5392917 2.2734 0.008399092
0.49292797 3.024617 0.63868934 5.7101364 0.3415127 0.11912642 0.40287286 8.394121
1.9112388 1.750493 1.5531008 1.0723363 0.32678372 4.1639504 0.5515466 1.8389752
0.5169624 2.325644 0.9772776 7.3395543 2.071084 0.39544594 1.8016686 0.7077533
3.2799966 1.8489257 6.6312027 0.4835249 0.603851 3.8426838 1.1201031 7.0594387
0.25267997 1.5916787 3.5120006 0.30328256 0.2855722 1.8380095 0.39137834 0.32295296
