model_dir/checkpoint_actor_target_1.pth (torch_old, 531545 bytes, 10 tensors)

fc1.weight f4 [400, 24]
0	0xbca12f4c	-0.019675873
1	0x3b680e04	0.0035408745
2	0xbbee6ce1	-0.007276163
3	0xbd2e3324	-0.04252924
4	0xbda51690	-0.08060944
5	0x3d423c1a	0.0474206
6	0x3c8697c5	0.016429791
7	0x3ca42d0c	0.020041011
8	0x3d4705f9	0.04858968
9	0xbd4ffb1d	-0.05077659
10	0xbd00604b	-0.031341832
11	0xbac3cf8a	-0.0014939171
12	0xbc047764	-0.008085106
13	0x3cd8e542	0.026476506
14	0x3cd86e3b	0.02641975
15	0x3cda6e0a	0.026663799
16	0x3b2f0043	0.0026703037
17	0xbd0e7880	-0.034782887
18	0xbd1643d8	-0.036685795
19	0xbbb7a325	-0.005604165
20	0x3defdf31	0.11712492
21	0xbdac3e16	-0.084102795
22	0x3d2d220a	0.04226879
23	0x3ce10055	0.027465979
24	0x3ccbc6f0	0.024875134
25	0x3dae7196	0.085177585
26	0xbd268f5f	-0.040664073
27	0xbc3d7e6d	-0.011565787
28	0x3d9696ea	0.07353003
29	0xbd9c2038	-0.07623333
30	0xbd40caf6	-0.04706856
31	0xbc857b8d	-0.016294265
32	0xbc9c6b5c	-0.019094162
33	0x3d9ba775	0.07600299
34	0x3cfccb68	0.03085871
35	0xbd666f0e	-0.056258254
36	0xbbdbc7cb	-0.006707167
37	0xbc6c1dc9	-0.014411398
38	0xbbbe20f8	-0.00580227
39	0xbd7f42f6	-0.06231972
40	0x3d663129	0.056199227
41	0x3d0777d7	0.033073273
42	0xbb20db69	-0.002454484
43	0xbcbb8297	-0.022889419
44	0x3d55dac7	0.052210595
45	0xbe13f2ad	-0.14448042
46	0xbc2627d0	-0.010141328
47	0xbbc97134	-0.006147528
48	0x3d16d236	0.036821567
49	0xbd91476b	-0.070937
50	0x3bbccd9c	0.0057618152
51	0xbcd48a2e	-0.025944795
52	0x3c2737d5	0.0102061825
53	0xbd84359d	-0.064555384
54	0x3c27e3ac	0.010247152
55	0xbc781b43	-0.015143218
56	0x3d705148	0.058671266
57	0xbd6bbd95	-0.057553846
58	0xbc725c8a	-0.014792571
59	0xbd211d89	-0.039334808
60	0x3d5b4dfa	0.05354116
61	0xbd0f0054	-0.034912422
62	0xbcbaec1f	-0.02281767
63	0xbaa4cf9a	-0.0012574077
64	0x3d5fb5c4	0.054616705
65	0xbd1dbd02	-0.03851033
66	0xbb7225f9	-0.0036948903
67	0x3d9177e9	0.07102949
68	0x3db4feba	0.08837648
69	0xbda44ced	-0.08022485
70	0x3d67cf8b	0.056594413
71	0x3cf33cf0	0.029692143
72	0xbc789087	-0.015171177
73	0xb9cd888d	-0.00039202385
74	0x3caaec21	0.020864548
75	0x3d844945	0.064592876
76	0x3cde0a71	0.027104588
77	0x3c6fe81c	0.0146427415
78	0xbcb9c23f	-0.022675632
79	0x3da11b61	0.0786655
80	0x3cc232ec	0.023705922
81	0xbcb383ba	-0.021913398
82	0xbc8f969e	-0.017527875
83	0x3d5f9e92	0.054594584
84	0x3b443282	0.0029937332
85	0xbdd73b7b	-0.10509392
86	0x3c770d1d	0.01507881
87	0x3d61d69c	0.055136308
88	0xbce1bc77	-0.027555687
89	0x3bcb6af5	0.0062078186
90	0xbcefead0	-0.029286772
91	0x3ceaecb7	0.028677328
92	0xbdc4eeb5	-0.09615842
93	0xbe1f6ec3	-0.15569596
94	0x3c92a2ca	0.01789989
95	0x3b25bf69	0.0025291091
96	0x3d25bd26	0.04046359
97	0xbd247cd6	-0.040158115
98	0xb8ef08d3	-0.00011398052
99	0xbcf70d92	-0.030157838
100	0x3d07405a	0.033020355
101	0xbd315fbf	-0.0433042
102	0xbc1dbad0	-0.009627059
103	0x3cf1045a	0.02942102
104	0xbc1fb028	-0.009746589
105	0xbb260d4c	-0.0025337515
106	0x3d3f16a1	0.04665244
107	0xbd015d96	-0.03158339
108	0x3cacd6ea	0.021098573
109	0xbc26af65	-0.010173653
110	0xbc043ce1	-0.008071155
111	0xbd8acc1a	-0.067772105
112	0xbd1e8e12	-0.038709708
113	0xbd9374af	-0.0719999
114	0xbce905d0	-0.028445154
115	0x3d63c423	0.055606972
116	0x3dfc836d	0.12329755
117	0x3d5a2974	0.05326219
118	0xbc20e11a	-0.009819293
119	0x3d506640	0.050878763
120	0xbc911487	-0.017709984
121	0x3c70f59a	0.0147069935
122	0x3d22ab36	0.03971406
123	0x3cb2d97c	0.02183222
124	0x3dd5927f	0.104283325
125	0x3db9caf6	0.09071915
126	0xbcf22cbb	-0.029562345
127	0x3cd4a484	0.025957353
128	0x3c16c3a2	0.009201916
129	0x3d52830d	0.05139451
130	0x3d5e379b	0.05425225
131	0x3b9b4b04	0.004739167
132	0x3c9d018e	0.01916578
133	0x3cd345d6	0.025790136
134	0xbcba37f8	-0.022731766
135	0xbd9e7273	-0.07736673
136	0xbd433f54	-0.047667816
137	0x3daa6a96	0.08321111
138	0x3b1a094a	0.0023504072
139	0xbd3d9c4a	-0.046291627
140	0x3cb6e9c0	0.022328258
141	0x3c6d9a39	0.014502102
142	0x3c31e4b7	0.0108577525
143	0x3cae19db	0.021252563
144	0x3c6ff412	0.014645593
145	0x3d062df2	0.03275866
146	0xba11794a	-0.00055493845
147	0xbc5dcafa	-0.013537163
148	0x3c0917a1	0.00836745
149	0x3c1ffeff	0.009765386
150	0x39426ffd	0.00018543
151	0x3c95d103	0.018288141
152	0xbcc49890	-0.023998529
153	0x3d47455a	0.048650123
154	0x3c2aa44a	0.010415146
155	0x3d10ed5a	0.035382606
156	0xbcc948b8	-0.024570808
157	0xbdc213cd	-0.09476433
158	0xbc784020	-0.015152007
159	0x3cdece06	0.027197849
160	0xbd5e1f64	-0.054229155
161	0x3c56201f	0.013069182
162	0x3c6b9890	0.014379635
163	0x3cfdb598	0.03097038
164	0x3baa6b30	0.005200766
165	0xbe46f50b	-0.19429414
166	0xbc48005d	-0.012207118
167	0xbcbd3ccf	-0.023100285
168	0xbce8509d	-0.028358752
169	0x3d11d38c	0.035602137
170	0x3b48896a	0.0030599483
171	0xbd270637	-0.04077741
172	0x3ca3bacb	0.01998653
173	0x3b015d41	0.0019739422
174	0xbb695bca	-0.003560769
175	0xbd00077d	-0.03125714
176	0x3d026839	0.031837676
177	0x3c837f45	0.016051898
178	0xbb842226	-0.004032391
179	0xbd87d5ed	-0.066326
180	0xbcd0c916	-0.02548651
181	0xbd85cdea	-0.065334156
182	0x3c6143e2	0.013749095
183	0x3bbf81b1	0.005844318
184	0xbd4b3e1d	-0.049619783
185	0x3ce41365	0.02784128
186	0x3d16928c	0.03676085
187	0x3d0324a7	0.032017376
188	0xbc51e21d	-0.012810257
189	0xbe2ec314	-0.17066604
190	0xbcc858f7	-0.024456484
191	0x3d84d70a	0.06486328
192	0xbcee2c2f	-0.029073803
193	0x3d512633	0.05106182
194	0x3c40f08a	0.011776099
195	0x3d430d80	0.047620296
196	0x3bf11a82	0.0073578963
197	0xbcca7d03	-0.024717813
198	0xbae94c67	-0.0017799259
199	0xbb18e748	-0.0023331214
200	0x3ab6f62d	0.0013958864
201	0xbc1ac071	-0.009445296
202	0x3d800b8a	0.06252201
203	0x3d908fe5	0.07058696
204	0x3d9e7305	0.07736782
205	0x3d244c2d	0.04011171
206	0xbcd0c273	-0.025483346
207	0x3d5737ca	0.05254344
208	0x3b063b12	0.0020481986
209	0x3cabca92	0.020970616
210	0x3aecfd2f	0.0018080826
211	0xbc1c1e9e	-0.009528784
212	0x3e062a33	0.13102035
213	0xbd1f2fb4	-0.038863853
214	0x3d42c929	0.047555123
215	0xbca79853	-0.020458376
216	0xbd374ca1	-0.044750813
217	0xbda0327f	-0.07822131
218	0xbbdafd5e	-0.0066830358
219	0xbbaabc12	-0.005210408
220	0x3d19ee59	0.03758082
221	0xbd5c2d04	-0.053753868
222	0x3c954340	0.018220544
223	0x3d65cb16	0.05610188
224	0x3c8cfad2	0.017209444
225	0xbdeab8f6	-0.1146106
226	0x3c00bad8	0.007857047
227	0x3d97b10a	0.074068144
228	0x3b6a81f5	0.0035783027
229	0xbd7d472f	-0.061835464
230	0x3beefa6b	0.0072930357
231	0x3dbe319e	0.092868075
232	0xbcf0d5db	-0.02939885
233	0xbda30612	-0.07960142
234	0xbba66fec	-0.00507926
235	0x3dc69676	0.09696667
236	0xbc034583	-0.008012178
237	0xbd87c5b5	-0.066295065
238	0x3b217c89	0.002464088
239	0x3d84963d	0.06473968
240	0x3cfcb081	0.030845882
241	0xbd711f47	-0.05886772
242	0xbce04aea	-0.027379472
243	0x3db67140	0.089083195
244	0xbdc9fa59	-0.09862203
245	0xbc5125a6	-0.012765324
246	0x3cb9df6e	0.022689547
247	0x3cf634fb	0.03005456
248	0x3d34a416	0.044101797
249	0x3d057440	0.032581568
250	0xbc9a2cf2	-0.01882026
251	0x3d6fee39	0.058576796
252	0xbd8ee2a0	-0.06976819
253	0xbcb7da21	-0.02244288
254	0x3c41acad	0.011820954
255	0x3dbc3f4f	0.09191763

fc1.bias f4 [400]
0	0xbdca6cb6	-0.09884016
1	0xbd33b72b	-0.043875854
2	0x3dac8067	0.08422928
3	0xbd71d631	-0.05904216
4	0x3e2b243a	0.16713038
5	0xbe1c7087	-0.15277301
6	0xbe224634	-0.15847093
7	0x3e2524be	0.16127297
8	0x3e03b6d9	0.1286272
9	0x3d871fab	0.06597837
10	0x3dff6906	0.124712035
11	0x3d80c74c	0.06288013
12	0xbe17bd2f	-0.14818262
13	0x3d7f73cb	0.06236629
14	0xbd7ece70	-0.062208593
15	0xbe5f0936	-0.21780857
16	0xbe63ee2c	-0.22258824
17	0xbd997477	-0.07492917
18	0xbdab76ca	-0.083722666
19	0xbd1f3602	-0.038869865
20	0xbdeeb3cd	-0.11655388
21	0xbe576afb	-0.21036904
22	0xbda70a66	-0.0815628
23	0x3e0036e8	0.12520945
24	0xbda73d85	-0.08166031
25	0xbdb7b0da	-0.08969279
26	0xbe3eaae5	-0.18619879
27	0xbe142b19	-0.14469565
28	0xbe548f0e	-0.20757696
29	0xbe0fd323	-0.14045386
30	0x3de4c304	0.11170009
31	0xbe6240b6	-0.22094998
32	0x3db3f9e6	0.08787899
33	0xbdd8e7a3	-0.10591056
34	0xbd2e4b56	-0.042552315
35	0x3de2e17d	0.11078165
36	0x3d0f8ec8	0.035048276
37	0x3dbfaf28	0.0935958
38	0xbc4f92ef	-0.012669309
39	0xbc4433b4	-0.011975218
40	0xbe5c731e	-0.21528289
41	0x3e232c7f	0.15934943
42	0xbcaeb26e	-0.021325316
43	0xbd8e5dc9	-0.06951482
44	0xbda6224b	-0.081120096
45	0xbd5e41e8	-0.05426207
46	0x3d96c3e8	0.07361585
47	0xbde6ffe9	-0.1127928
48	0x3e129e50	0.14318204
49	0xbb477b7a	-0.0030438588
50	0xbe7e35e3	-0.24825244
51	0x3d2cf890	0.042229235
52	0x3df083e2	0.11743905
53	0x3d9a0639	0.07520718
54	0xbdd35eea	-0.10320838
55	0xbe20cda4	-0.15703446
56	0x3e2b26a5	0.1671396
57	0xbe128181	-0.14307214
58	0xbd58861a	-0.052862264
59	0xbe1fc103	-0.15600972
60	0x3d665ea0	0.056242585
61	0x3e08f98a	0.13376442
62	0x3e379488	0.17927754
63	0xbdb87fef	-0.090087764
64	0x3e2f6b71	0.1713083
65	0xbde42b9a	-0.11141129
66	0x3b4d5888	0.0031333286
67	0x3e37e604	0.17958838
68	0x3d389fb5	0.045074183
69	0xbe5c7345	-0.21528347
70	0xbe73ed38	-0.2382096
71	0xbd0f43c8	-0.03497675
72	0xbdb344a7	-0.08753329
73	0x3d3ebd09	0.046566997
74	0x3ddee6df	0.10883879
75	0xbe05edaa	-0.13078943
76	0x3db34143	0.08752682
77	0x3de39148	0.111116946
78	0x3dede5ba	0.116160825
79	0xbe25248e	-0.16127226
80	0x3c9d1b4c	0.019178055
81	0xbdf8992c	-0.1213859
82	0x3e63bf7c	0.22241014
83	0xbe1e4d12	-0.15459087
84	0x3e2092ce	0.15681002
85	0x3d021598	0.031758875
86	0x3e37ade8	0.17937434
87	0x3debdb6a	0.11516459
88	0x3bb70ca3	0.005586223
89	0xbdd29b0e	-0.102834806
90	0x3c751243	0.014957967
91	0xbe082079	-0.13293637
92	0x3e0ac2de	0.13550898
93	0x3c306599	0.01076641
94	0x3b8bfd30	0.0042721257
95	0xba3ef3c1	-0.0007284247
96	0x3e1ca90e	0.15298864
97	0xbe395388	-0.18098271
98	0xbd81bce6	-0.06334858
99	0x3c352bee	0.011057837
100	0xbd6d6017	-0.057952967
101	0x3e0adf3b	0.13561718
102	0xbe31a780	-0.17349052
103	0xbe0ec990	-0.13944077
104	0xbde9adad	-0.11410079
105	0x3c47b1e9	0.012188413
106	0x3d3861a2	0.045014985
107	0xbe182956	-0.14859518
108	0xbcc764e5	-0.024340102
109	0xbdfd7541	-0.1237588
110	0x3cf701e7	0.030152274
111	0xbe3a7975	-0.18210395
112	0xbe3a677a	-0.18203536
113	0xbdffc81b	-0.12489339
114	0x3dbf8e6d	0.093533374
115	0x3dbe5032	0.0929264
116	0x3db37383	0.087622665
117	0xbe162553	-0.14662676
118	0xbdd7fafd	-0.10545919
119	0xbdf41b36	-0.119192526
120	0xbd5f016d	-0.05444472
121	0xbdf41a3c	-0.11919066
122	0xbe082dc5	-0.1329871
123	0x3e26a65a	0.16274396
124	0xbe4889f0	-0.19583869
125	0x3d7a39c8	0.06109026
126	0xbd94707b	-0.072480164
127	0xbd6d662b	-0.057958763
128	0x3dd2584f	0.1027075
129	0xbdd9be38	-0.106319845
130	0xbe5b6f80	-0.21429253
131	0xbe3c7786	-0.1840497
132	0xbe2d3042	-0.1691294
133	0x3d88a2a2	0.06671645
134	0xbde1e113	-0.110292576
135	0xbe390b7d	-0.18070789
136	0x3d00668f	0.031347807
137	0xbd822ae0	-0.06355834
138	0x3d33ddb7	0.043912616
139	0x3df42935	0.11921922
140	0xbc8e23c9	-0.017351048
141	0xbd08b7e2	-0.03337849
142	0xbd23e7d3	-0.040016007
143	0x3e258cc7	0.16166984
144	0xbd0112c6	-0.031512044
145	0x3bc626bb	0.0060470975
146	0x3d92f0b8	0.0717482
147	0x3d2e9fed	0.042632986
148	0xbd782797	-0.06058463
149	0x3d65c96c	0.056100294
150	0xbe24a7ce	-0.16079637
151	0xbd8559e7	-0.06511288
152	0xbce84142	-0.02835143
153	0x3d6a7660	0.057241797
154	0xbdc523b0	-0.096259475
155	0x3cd0a3b5	0.025468687
156	0xbcfe5c82	-0.03104997
157	0x3d5f8c4e	0.054577164
158	0x3d35f005	0.044418354
159	0x3d4b4861	0.049629573
160	0x3bc0778b	0.0058736256
161	0xbe31ce89	-0.17363943
162	0xbe26db03	-0.16294484
163	0xbdaf33c2	-0.08554794
164	0x3e2e2ecc	0.17010039
165	0x3d7a0f93	0.06105001
166	0xbd32cc89	-0.04365209
167	0xbd8d19e6	-0.06889705
168	0xbd08eaef	-0.033427175
169	0xbe4a72ce	-0.19770357
170	0x3c32b227	0.010906733
171	0x3ba89aaa	0.0051453905
172	0xbe48eb55	-0.19621022
173	0x3d39d1a7	0.045365956
174	0x3ddb5965	0.1071041
175	0x3cf72e58	0.030173466
176	0x3df23d8f	0.118281476
177	0xbddc7c79	-0.10765929
178	0x3da2bf5c	0.07946655
179	0xbd959046	-0.073029086
180	0x3daac8c4	0.08339074
181	0xbe3d211a	-0.18469658
182	0x3df2dc74	0.11858454
183	0xbe16f0a3	-0.14740233
184	0xbd85d4b3	-0.0653471
185	0x3de63dd4	0.112422615
186	0xbd9cc316	-0.07654397
187	0x3e267ada	0.16257802
188	0xbd5b8983	-0.05359794
189	0x3d204159	0.03912482
190	0xbe15d01e	-0.14630172
191	0x3e164d48	0.14677918
192	0x3db7eda5	0.08980874
193	0xbe3e9ec3	-0.1861525
194	0x3b0eaea8	0.0021771584
195	0x3e0cd444	0.13752848
196	0x3d136a65	0.035990138
197	0xbcbad3f0	-0.022806138
198	0xbe03548b	-0.1282522
199	0x3de2bb75	0.11070911
200	0x3e0d9da6	0.1382967
201	0x3e05c111	0.1306193
202	0xbbf0f08c	-0.007352894
203	0x3db04f35	0.086088575
204	0xbba0a13d	-0.0049020336
205	0xbd6ba30b	-0.057528537
206	0xbd5bd656	-0.053671204
207	0x3e27864f	0.16359828
208	0x3dca3bc2	0.09874679
209	0x3dca62b3	0.09882107
210	0xbe66d5b4	-0.22542459
211	0x3d850fa1	0.064971216
212	0xbdbf0b4c	-0.093283266
213	0xbdcb97b3	-0.09941044
214	0x3dfd46c6	0.123670146
215	0x3db52023	0.0884402
216	0x3df2894d	0.11842594
217	0x3dcc9c8e	0.09990798
218	0xbe01d0d3	-0.12677316
219	0xbd0913a9	-0.033466015
220	0x3d02f8fb	0.031975728
221	0x3deb568d	0.114911176
222	0xbd12367f	-0.035696503
223	0xbcb09dc7	-0.02155961
224	0x3d0d0fe2	0.034438975
225	0x3e07216d	0.13196345
226	0xbe0f2980	-0.13980675
227	0xbe560113	-0.20898847
228	0x3db5cbe8	0.08876783
229	0xbe6956ef	-0.22787069
230	0x3e317fd3	0.17333917
231	0xbdbeee23	-0.09322765
232	0x3ddb36a2	0.1070378
233	0x3d815d2c	0.06316599
234	0xbdf47c2b	-0.11937746
235	0xbe06ce60	-0.13164663
236	0xbd7d27a8	-0.061805397
237	0x3c46834d	0.0121162655
238	0x3ca28d36	0.019842725
239	0xbd8ee413	-0.069770955
240	0xbda94dbf	-0.08266782
241	0x3dde6739	0.10859532
242	0x3d44391c	0.047906026
243	0xbdf8201e	-0.12115501
244	0x3e3a0c9a	0.1816887
245	0x3d69319c	0.056932077
246	0xbe0d20d0	-0.13782048
247	0xbc47152c	-0.012151044
248	0x3b41e789	0.0029587469
249	0xbd62afb0	-0.05534333
250	0xbdd5e836	-0.10444681
251	0xbd99db56	-0.07512538
252	0x3d9925b7	0.07477897
253	0xbe26192d	-0.16220541
254	0xbde9dfd2	-0.114196435
255	0xbe1523ca	-0.14564434

fc2.weight f4 [300, 400]
0	0x3c6a0c2c	0.014285129
1	0x3cdb8300	0.026795864
2	0xbdb72d72	-0.08944215
3	0x3cca62a1	0.024705233
4	0xbe2c502c	-0.16827458
5	0x3d838f52	0.064238206
6	0xbd5c9385	-0.053851623
7	0x3d5ef7ed	0.05443566
8	0x3c74fe9e	0.014953284
9	0xbdaddc80	-0.08489323
10	0x3db8cfd3	0.09024014
11	0x3c343730	0.010999486
12	0x3c12ea6f	0.008967026
13	0x3c2ffafc	0.010740992
14	0xbd681e54	-0.05666955
15	0xbc71ee86	-0.014766341
16	0x3c5efe8c	0.013610493
17	0x3d8773d5	0.0661389
18	0x3d6b7802	0.057487495
19	0xbc58432b	-0.013199608
20	0x3dba1241	0.09085513
21	0xbd2ddb9f	-0.042445775
22	0x3d26991b	0.040673357
23	0x3ba5dfa0	0.0050620586
24	0x3ce658a1	0.028118433
25	0xbc869e5f	-0.01643294
26	0xbdad698b	-0.08467396
27	0x3d1b3d7e	0.03790044
28	0xbc96621d	-0.018357331
29	0xbbc11a4d	-0.005893028
30	0xbc4c4f8a	-0.012470135
31	0x3b802cef	0.0039116065
32	0x3ca5de74	0.020247675
33	0x3d239894	0.03994043
34	0xbb45e32f	-0.0030195226
35	0xbd74003f	-0.059570547
36	0xbca3fe38	-0.020018682
37	0xbd8b0c51	-0.067894585
38	0x3d38f0d9	0.045151565
39	0x3d86b54d	0.06577549
40	0xbd4147b3	-0.04718752
41	0xbd3a2b99	-0.045451734
42	0xbd56d8a3	-0.052452695
43	0x3bea3a94	0.0071480963
44	0x3c9e24fe	0.019304749
45	0xbd2a9d3f	-0.041653868
46	0xbda3a9ec	-0.079913944
47	0x3d8ad90f	0.06779682
48	0x3d481128	0.048844486
49	0x3c4292db	0.011875833
50	0x3d865d13	0.06560721
51	0x3a9183d0	0.0011101905
52	0xbcdbe084	-0.026840456
53	0x3d97f0a5	0.07418946
54	0x3d0ad200	0.033891678
55	0x3cc7f67b	0.024409523
56	0x3e0e262f	0.13881753
57	0xbdf35357	-0.1188113
58	0xbdb074e9	-0.08616049
59	0xbd09d6f9	-0.03365228
60	0x3d84fc57	0.064934425
61	0x3c8f43b7	0.017488344
62	0xbcefb0d6	-0.029259127
63	0xbe044a87	-0.12919055
64	0xbdee43ab	-0.116340004
65	0xbd40a127	-0.047028687
66	0xbd74019e	-0.059571855
67	0x3d8d2947	0.06892639
68	0xbd914810	-0.07093823
69	0xbdd98f74	-0.10623065
70	0xbc486b03	-0.012232545
71	0x3d9f43e3	0.0777662
72	0xbcc4df18	-0.02403216
73	0xbcc3bdf0	-0.02389428
74	0xbd280d8e	-0.04102855
75	0x3d0a63ab	0.033786457
76	0x3b93f6ee	0.0045155203
77	0xbba2494e	-0.0049525863
78	0x3d24793a	0.040154673
79	0x3d980a6a	0.07423861
80	0xbd1dc60a	-0.038518943
81	0x3d67914f	0.05653506
82	0x3d52c5a0	0.051458
83	0xbd4f4495	-0.050602514
84	0xba0fc4c3	-0.0005484337
85	0x3cae3d0c	0.021269344
86	0x3d6c4d29	0.057690773
87	0xbc14d2f3	-0.009083497
88	0xbd0265c0	-0.031835318
89	0xbd12b020	-0.035812497
90	0x3cb1ab80	0.021688223
91	0xbd320161	-0.043458346
92	0xbb18ad4b	-0.002329665
93	0x3a9705de	0.0011522134
94	0x3ca4b12e	0.020104017
95	0x3d20f240	0.039293528
96	0x3d190dc7	0.037366655
97	0x3c666b94	0.014063735
98	0x3d2874a4	0.041126862
99	0xbcc2fd6a	-0.023802478
100	0xbc50c72f	-0.012742802
101	0x3ce02372	0.027360652
102	0x3d6e74bb	0.05821679
103	0x3d8c41ae	0.06848465
104	0xbc67a824	-0.014139209
105	0xbcdc9f7c	-0.026931517
106	0x3d07b38e	0.03313022
107	0x3d980576	0.074229166
108	0x3d5a07a0	0.053229928
109	0x3c070200	0.008240223
110	0x3ccd4ea6	0.025061917
111	0xbc91bfd7	-0.017791672
112	0xbdd459f9	-0.103687234
113	0x3cb9aeb0	0.022666305
114	0xbcd117a8	-0.025523975
115	0xbd5db656	-0.054128967
116	0xbd81c3b2	-0.06336154
117	0x3d4902e9	0.04907504
118	0x3d8c3daa	0.06847699
119	0xbdc20c88	-0.094750464
120	0xbdfb0086	-0.12255959
121	0x3db5582e	0.088547096
122	0xbd85fb06	-0.065420195
123	0xbd46ec14	-0.048564985
124	0xbcbc7354	-0.023004211
125	0x3c6db592	0.014508622
126	0x3db7360a	0.08945854
127	0x3bacdb84	0.0052751917
128	0x3be8a951	0.007100262
129	0x3caaef84	0.020866163
130	0x3d998455	0.074959435
131	0x3dff8959	0.12477369
132	0x3dad2245	0.08453802
133	0x3b5024d9	0.0031760244
134	0xbd3ec894	-0.046578005
135	0xbc839e93	-0.016066825
136	0x3c8232a6	0.015893292
137	0xbd1441ee	-0.036195688
138	0x3c75599a	0.014974976
139	0xbc8858a3	-0.016643828
140	0x3d163393	0.03667028
141	0xbc754d69	-0.014972069
142	0xbe0e5cc6	-0.13902578
143	0x3d01b71f	0.03166878
144	0xbb4e7123	-0.003150054
145	0x3ca28418	0.019838378
146	0x3d4bc037	0.049743857
147	0xbd15c7f4	-0.036567643
148	0xbc25641e	-0.010094671
149	0x3dc961a6	0.09833078
150	0x3c3944fb	0.01130795
151	0x3d411099	0.04713497
152	0xbdaa94cf	-0.08329164
153	0x3c79d1eb	0.015247802
154	0xbc84e3ab	-0.016221842
155	0xbb27f827	-0.0025630088
156	0xbda5d001	-0.08096314
157	0x3da2fddf	0.07958578
158	0x3d0e06fe	0.034674637
159	0x3d3fb0ad	0.04679935
160	0xbd84ed82	-0.064906135
161	0xbdc7f20c	-0.09762964
162	0x3d1a311c	0.03764449
163	0x3db42035	0.087952055
164	0xbcc0674c	-0.023486756
165	0x3cb53f23	0.022124832
166	0xbdaea235	-0.08527032
167	0x3d94a56c	0.07258114
168	0xbceeba4c	-0.029141568
169	0xbbe855a8	-0.007090289
170	0x3c2ea7eb	0.010660152
171	0xbc11d068	-0.008899786
172	0xbe1adcd0	-0.15123296
173	0x3d79e19f	0.061006185
174	0x3c04f5d6	0.0081152525
175	0x3d1ffe81	0.039061073
176	0xbd67eaf5	-0.056620557
177	0x3dd77b38	0.10521549
178	0x3d32cafb	0.04365061
179	0xbd9f7763	-0.07786443
180	0xbdf979d0	-0.12181437
181	0xbd5274d2	-0.05138094
182	0x3c8cb138	0.017174348
183	0xbd171ace	-0.036890797
184	0x3d7235e0	0.05913341
185	0xbc368c8b	-0.0111419065
186	0x3cca5333	0.024697876
187	0x3d566dba	0.052350737
188	0x3cd4592c	0.025921427
189	0x3d3ce58e	0.046117358
190	0xbc14f5c8	-0.009091802
191	0xbcd6ae95	-0.026206294
192	0xbb86c5a7	-0.0041129175
193	0xbae91184	-0.0017781709
194	0xbd1a1a8b	-0.03762297
195	0xbd93219b	-0.07184144
196	0xbd1a346e	-0.037647657
197	0xbd0e1ec2	-0.0346973
198	0x3d8a7cb3	0.06762066
199	0x3b0d4d99	0.0021561144
200	0x3d120ccc	0.035656735
201	0xbd269c2f	-0.040676292
202	0xbcdbf13f	-0.026848434
203	0x3cd51662	0.02601165
204	0xbcecdc1b	-0.028913548
205	0x3d9172b1	0.07101954
206	0xbd192feb	-0.037399214
207	0x3d21eead	0.03953426
208	0x3cfad0c2	0.030617122
209	0xbc633129	-0.013866701
210	0xbcddb6ac	-0.027064644
211	0x3db9390a	0.090440825
212	0xbd4ad09f	-0.049515363
213	0x3d081600	0.033224106
214	0x3c132d57	0.008982978
215	0x3d53db3f	0.05172276
216	0x3d07c84a	0.033149995
217	0xbd1244f6	-0.035710298
218	0x3c8add8e	0.016951349
219	0xbd1c52a4	-0.03816475
220	0x3ccc3946	0.024929654
221	0xbc6b68c4	-0.01436824
222	0xbcf8f19e	-0.03038865
223	0x3bc1080e	0.005890853
224	0x39d06e06	0.00039754825
225	0x3ca87d5d	0.02056759
226	0x3d17fe91	0.037108008
227	0x3dc8625b	0.09784385
228	0x3c4c8073	0.012481797
229	0xbdc096ba	-0.09403749
230	0x3d978d13	0.07399955
231	0xbce21cf6	-0.0276017
232	0x3cd5592f	0.026043503
233	0x3cab63bf	0.020921586
234	0xbdac2896	-0.08406179
235	0xbc193632	-0.0093513
236	0xbd1fbe96	-0.039000116
237	0x3db5e7e9	0.08882124
238	0xbd8b59a2	-0.068042055
239	0xbd906d41	-0.070520885
240	0xbd98cc40	-0.074608326
241	0xbb369602	-0.0027860408
242	0xbd50c3ac	-0.050967857
243	0xbcd63d09	-0.02615215
244	0x3d3cd3ab	0.0461003
245	0xbcb50a7e	-0.02209973
246	0xbb36fab9	-0.0027920438
247	0xbcd552bc	-0.026040427
248	0x3db99b25	0.090627946
249	0xbcf5de8e	-0.030013349
250	0x3d8bc3c8	0.06824452
251	0x3d37a7c7	0.04483774
252	0xbd2ba126	-0.04190173
253	0x3caa8b55	0.020818392
254	0x3ca4c5d9	0.020113872
255	0x3d391afb	0.045191746

fc2.bias f4 [300]
0	0x3c495ae9	0.012289741
1	0x3d81e435	0.06342355
2	0x3c9f1e81	0.019423725
3	0x3d1ee17f	0.03878927
4	0x3c88fb13	0.016721284
5	0x3da89985	0.082324065
6	0x3d30eca4	0.043194428
7	0x3ca18f09	0.019721525
8	0x3c417bc1	0.01180929
9	0x3d8e860f	0.069591634
10	0x3d9896a8	0.074506104
11	0x3c85fce2	0.016355935
12	0x3d3edc7f	0.046597
13	0x3ced78f1	0.028988333
14	0x3cf114d4	0.029428877
15	0x3d2ae81c	0.041725263
16	0x3c9120fb	0.017715922
17	0x3d4ad18f	0.049516257
18	0x3d272d62	0.040814765
19	0x3db350cd	0.08755646
20	0xbb841781	-0.004031122
21	0xbcd45f36	-0.025924306
22	0x3d15e158	0.036591858
23	0x3d92e717	0.07172983
24	0x3d734859	0.059395168
25	0x3df2f7eb	0.11863693
26	0x3cabb3cb	0.020959755
27	0x3ceb01b4	0.028687336
28	0x3d43c3f2	0.04779429
29	0x3ca653a9	0.020303564
30	0x3c2dfdb1	0.010619567
31	0x3d55543c	0.052082285
32	0x3be461a8	0.0069696493
33	0x3d79debf	0.061003443
34	0x3d3f9423	0.046772134
35	0x3c9ccbd0	0.019140154
36	0x3cf35736	0.029704671
37	0x3dd7eb12	0.10542883
38	0x3d300ad5	0.04297908
39	0x3d0de6fe	0.03464412
40	0x3d041609	0.032247577
41	0xbc9b12c3	-0.018929845
42	0x3d6652a5	0.05623116
43	0x3b0bb403	0.0021317012
44	0x3d2a21b1	0.041536037
45	0x3dd8d734	0.10587922
46	0x3d437e0d	0.047727633
47	0x3dad1726	0.08451681
48	0x3c7eb4f4	0.015546072
49	0x3dbc472f	0.09193265
50	0xbca629a0	-0.02028352
51	0x3d8c2ea2	0.06844832
52	0x3db926a6	0.09040575
53	0x3d091944	0.03347136
54	0x3da780b5	0.08178846
55	0x3db477f0	0.08811939
56	0xbaa123d2	-0.0012294
57	0x3d1cc304	0.03827192
58	0x3d3540d6	0.044251285
59	0x3ce69ad9	0.028150009
60	0x3d167cbe	0.036740057
61	0x3cd40697	0.025882049
62	0x3e005042	0.12530616
63	0x3cca55c9	0.024699109
64	0x3d375027	0.044754174
65	0x3d434ff0	0.047683656
66	0x3d053ae9	0.032526884
67	0x3b879375	0.0041374513
68	0x3c3410da	0.010990346
69	0x3d28b397	0.041186895
70	0x3c19fd6c	0.009398799
71	0x3d01f418	0.031726927
72	0x3d4ad7ad	0.04952209
73	0x3db5a8c9	0.08870084
74	0x3d307377	0.043078866
75	0xbc042339	-0.008065038
76	0x3d9427ad	0.0723413
77	0x3c89035c	0.016725235
78	0x3d6722eb	0.056429785
79	0x3db55405	0.08853916
80	0xb9fa66fa	-0.0004776044
81	0x3d642782	0.05570174
82	0x3d52bdcb	0.051450532
83	0x3cc483df	0.023988662
84	0x3c0a1d70	0.00842987
85	0x3df75a5f	0.12077784
86	0x3d918060	0.07104564
87	0x38ac4b3b	8.215612e-05
88	0x3cab2767	0.020892812
89	0x3d8ba6bb	0.06818911
90	0x3d36016b	0.044434946
91	0xbc9f89fc	-0.019474976
92	0x3d8a0ec6	0.06741099
93	0x3d92fdd3	0.071773194
94	0x3d9a6858	0.07539433
95	0x3d253636	0.040334903
96	0xbcb27c42	-0.021787766
97	0x3db9e3d2	0.090766564
98	0x3c854ea5	0.016272852
99	0xba95a92f	-0.0011418218
100	0x3caed153	0.021340048
101	0x3df188ae	0.11793648
102	0x3d454b12	0.048167296
103	0x3c660a5e	0.014040558
104	0x3c365ab9	0.011130028
105	0xbad1184c	-0.0015952676
106	0x3d3c1411	0.045917574
107	0xbd132c05	-0.035930652
108	0xbc00de9a	-0.007865572
109	0x3c45fe14	0.012084503
110	0xbba1833e	-0.0049289754
111	0x3cee427b	0.029084435
112	0xba835a51	-0.0010021423
113	0x3b5bff2d	0.0033568845
114	0x3de9a92d	0.11409221
115	0x3c0f626e	0.008751495
116	0x3c261e00	0.0101389885
117	0x3dc2c6e6	0.09510593
118	0x3d4de707	0.050269153
119	0x3cfe02fe	0.031007286
120	0xbd708d31	-0.0587284
121	0x3d5aa09b	0.05337582
122	0x3d37f506	0.044911407
123	0x3d81d6a5	0.06339768
124	0x3d45e719	0.048316095
125	0x3d5ca382	0.05386687
126	0x3d419035	0.047256667
127	0x3d287c9a	0.041134454
128	0x3dc8230d	0.097723104
129	0x3d344d88	0.044019252
130	0xba6b7f1e	-0.00089834805
131	0x3d964f36	0.07339327
132	0x3de7b504	0.11313823
133	0x3cd0ba74	0.025479533
134	0x3c003356	0.007824739
135	0x3d5a01af	0.05322426
136	0x3cd89bac	0.026441418
137	0x3d1ed5b1	0.03877801
138	0x3da3baea	0.079946354
139	0x3c280068	0.010254003
140	0x3bc1355d	0.005896254
141	0x3d834679	0.06409926
142	0x3cd53773	0.026027417
143	0xbb32a7cc	-0.002726066
144	0x3d6c5587	0.057698753
145	0x3d5b89b0	0.053598106
146	0x3bdad5df	0.0066783275
147	0x3d5a33e6	0.05327215
148	0x3e0d3c0e	0.1379244
149	0x3d954403	0.07288363
150	0x3d720819	0.059089754
151	0x3d88c654	0.06678453
152	0x3d944909	0.07240493
153	0x3daed1da	0.0853612
154	0x3e03668e	0.1283209
155	0xbb866f8b	-0.0041026524
156	0x3db89ed6	0.090146706
157	0x3c5bd5b8	0.013417654
158	0x3d9c14a3	0.07621124
159	0x3ce1175a	0.027476955
160	0x3d05f96a	0.032708563
161	0x3d53bf40	0.051696062
162	0x3dd2a570	0.10285461
163	0x3d48010e	0.04882913
164	0x3cbcf885	0.023067722
165	0x3cd1da54	0.025616802
166	0x3d8bd386	0.06827454
167	0x3deac085	0.114625014
168	0x3cfd5ec4	0.030928977
169	0x3ca010f7	0.01953934
170	0x3d8fa8ad	0.07014594
171	0x3cadd01a	0.021217395
172	0x3dae053d	0.08497093
173	0xbce45753	-0.02787367
174	0xbaa7ea35	-0.0012810888
175	0x3d1ab74f	0.037772473
176	0x3bc871ef	0.0061170976
177	0x3d390ae1	0.04517639
178	0x3d3551b7	0.044267382
179	0x3d4ec9ef	0.050485548
180	0x3d4635a0	0.048390985
181	0x3d0caf6c	0.034346983
182	0x3d67736d	0.056506563
183	0x3e0f101a	0.13970986
184	0x3c20e143	0.009819332
185	0x3c81c3dd	0.015840465
186	0x3dc65ba6	0.09685449
187	0x3da57c22	0.08080317
188	0x3d23ce5e	0.03999173
189	0x3cb940af	0.022613851
190	0x3dbb50ce	0.09146272
191	0x3c0e86b3	0.008699107
192	0x3d874852	0.06605591
193	0xbbfcfdc4	-0.007720681
194	0x3d58de73	0.05294652
195	0x3d9fc571	0.07801331
196	0x3cbffe31	0.023436638
197	0x3ce115e8	0.027476266
198	0x3d4031c0	0.046922445
199	0x3da22c10	0.079185605
200	0x3c2b60cc	0.01046009
201	0xba57242e	-0.00082069903
202	0x3c95bfd4	0.018279947
203	0xbbf16ab4	-0.0073674563
204	0x3dacb5b1	0.084330924
205	0x3db5e8cc	0.08882293
206	0x3c837f17	0.016051812
207	0xbc8a1f07	-0.016860498
208	0x3d6627ba	0.05619023
209	0x3d036bbf	0.032085177
210	0x3d7a77b5	0.061149318
211	0xbc92cd3a	-0.017920125
212	0x3d627210	0.05528456
213	0x3dcc7e96	0.09985082
214	0x3d36f38b	0.044665854
215	0x3da12a3b	0.07869383
216	0x3dad21fa	0.08453746
217	0x3c145d31	0.009055422
218	0x3da68746	0.0813127
219	0xbd02eacd	-0.031962205
220	0x3dd49cb2	0.1038145
221	0x3d23b086	0.039963268
222	0x3dbcec44	0.092247516
223	0x3d37d042	0.044876345
224	0x3bc6499b	0.006051255
225	0x3cd3d8a7	0.025860144
226	0x3d61b74c	0.055106446
227	0x3dd6e9ee	0.10493837
228	0x3c1f20bd	0.009712395
229	0x3c39050f	0.01129271
230	0x3d6f6a95	0.058451254
231	0x3d0d7563	0.034535777
232	0x3d73d4e7	0.05952921
233	0x3e162588	0.14662755
234	0x3d983dd9	0.074336715
235	0x3c03fa26	0.0080552455
236	0x3c742604	0.014901642
237	0x3d0bd612	0.0341397
238	0x3c174092	0.009231703
239	0x3ceb6cae	0.028738346
240	0x3cb2c1e5	0.021820972
241	0xba71ad5e	-0.0009219254
242	0xbbe87eb1	-0.007095181
243	0x3d0d8fa8	0.03456083
244	0x3c0a2e0f	0.008433833
245	0x3c4a5a7e	0.012350677
246	0x3da110d6	0.07864539
247	0x3c9bb4e1	0.019007148
248	0x3dbbb44d	0.09165249
249	0x3d909b64	0.070608884
250	0x3d96c9a6	0.0736268
251	0x3d75b936	0.059991084
252	0x3dc184f7	0.09449189
253	0x3d8e291a	0.06941433
254	0x3d3c711a	0.0460063
255	0x3d8b55f3	0.06803503

fc3.weight f4 [2, 300]
0	0xbde40e57	-0.111355476
1	0x3dfc0739	0.12306065
2	0x3e523795	0.20529015
3	0x3e1b3362	0.1515632
4	0xbd666c02	-0.056255348
5	0xbc60b8ce	-0.013715936
6	0x3e1a5966	0.15073165
7	0x3dd829d1	0.10554851
8	0xbe6c66ef	-0.23086141
9	0x3e744fb6	0.23858532
10	0xbb2d7996	-0.0026470176
11	0x3e3a8748	0.18215668
12	0x3dc7857d	0.09742258
13	0xbe2e757b	-0.17037003
14	0xbd8b8cd1	-0.06813968
15	0x3de2c783	0.1107321
16	0x3d81909e	0.06326412
17	0x3d8a3bf0	0.067497134
18	0xbde54c70	-0.1119622
19	0xbdbb665e	-0.09150384
20	0xbd302cef	-0.043011602
21	0xbe2d3166	-0.16913375
22	0xbe096486	-0.13417253
23	0x3e001e41	0.12511541
24	0xbdf79373	-0.120886706
25	0xbcb840ae	-0.02249178
26	0x3e03ae67	0.12859498
27	0xbe130044	-0.1435557
28	0xbd8515aa	-0.06498273
29	0xbe3cc30e	-0.18433782
30	0xbdf1a522	-0.11799075
31	0x3e081a02	0.13291171
32	0x3de5a52f	0.11213147
33	0xbd125083	-0.035721313
34	0xbde4216a	-0.11139186
35	0xbe0fb52f	-0.1403396
36	0xbdca024f	-0.098637216
37	0xbde66120	-0.11248994
38	0xbce6c261	-0.028168859
39	0x3e0857fc	0.13314813
40	0x3df406e0	0.11915374
41	0x3df612ee	0.12015329
42	0x3d9e9b67	0.077444844
43	0xbdf23230	-0.11825979
44	0xbe04800e	-0.12939474
45	0xbe3c0e79	-0.18364896
46	0xbe27d25b	-0.16388838
47	0x3dd43a33	0.10362663
48	0xbd5eba1d	-0.05437671
49	0x3db9a1fa	0.09064098
50	0xbd9e042c	-0.077156395
51	0x3e18265f	0.14858387
52	0xbdfa1cf5	-0.12212554
53	0x3e094eee	0.13409016
54	0xbd950d1e	-0.072778925
55	0x3e27f775	0.16402991
56	0x3cc69591	0.02424124
57	0xbd2f01d7	-0.042726364
58	0xbdcace6a	-0.099026516
59	0xbe28c194	-0.16480094
60	0x3d8f87b8	0.07008308
61	0xbe763579	-0.24043836
62	0xbd8e6839	-0.06953473
63	0x3d443a43	0.047907125
64	0x3debe521	0.11518312
65	0xbde5a2bb	-0.11212679
66	0x3e1df48b	0.15425317
67	0xbe2797b5	-0.16366465
68	0x3dcd9c5f	0.10039591
69	0xbda7c5c5	-0.081920184
70	0xbe1c711b	-0.15277521
71	0xbde5821b	-0.11206456
72	0xbe2910e9	-0.16510357
73	0x3d17423d	0.036928404
74	0xbe3903e3	-0.18067889
75	0x3c1d10b7	0.009586505
76	0x3de924f9	0.11384005
77	0xbe280d67	-0.16411363
78	0xbdb2772e	-0.08714138
79	0x3de4c4df	0.11170363
80	0xbd5be020	-0.05368054
81	0xbd3bbcbb	-0.045834284
82	0x3e31e032	0.1737068
83	0x3df3a7ad	0.11897216
84	0xbe1f5e3d	-0.15563293
85	0xbe22e2ff	-0.15906905
86	0xbd67ba60	-0.056574225
87	0x3e1f939f	0.15583657
88	0x3e056c57	0.1302961
89	0x3daf798b	0.08568104
90	0x3e1c54e9	0.15266766
91	0x3df69d2e	0.120416984
92	0x3d28ca78	0.041208714
93	0x3df974f8	0.12180513
94	0xbc5864d4	-0.013207633
95	0xbddb15bc	-0.10697505
96	0xbd27a5b5	-0.040929515
97	0xbdee4754	-0.116346985
98	0xbda9e8f0	-0.082963824
99	0x3e198a22	0.149941
100	0x3dbd0188	0.09228808
101	0x3d9ca951	0.07649482
102	0x3d81b999	0.06334228
103	0xbe525589	-0.20540442
104	0x3dedaae6	0.11604862
105	0x3d8bd836	0.06828348
106	0xbe2fa36b	-0.17152183
107	0xbd715f8c	-0.05892901
108	0xbd9dafc9	-0.07699544
109	0xbc0c2263	-0.00855312
110	0x3e0600d5	0.13086255
111	0x3de2882e	0.110611305
112	0xbdf5aca6	-0.11995821
113	0x3e2ba036	0.16760334
114	0xbdd8490d	-0.10560808
115	0x3ddf8f28	0.10915977
116	0x3e504a22	0.2034078
117	0x3e171bc3	0.14756684
118	0xbdff5445	-0.12467245
119	0xbdc16c9e	-0.09444545
120	0xbd606e7a	-0.05479286
121	0xbda1ca5f	-0.07899927
122	0xbd9634da	-0.073342994
123	0x3e213387	0.15742312
124	0xbe021e3d	-0.12706847
125	0x3dd2cc69	0.102928944
126	0xbe173067	-0.14764558
127	0x3da30583	0.07960036
128	0x3c278c80	0.010226369
129	0x3dbf81c2	0.09350921
130	0x3dadfbaf	0.084952705
131	0xbe0fadba	-0.14031115
132	0x3c99f7f7	0.018794997
133	0x3e018d1c	0.12651485
134	0xbd189454	-0.03725083
135	0x3d6ca8c2	0.057778127
136	0xbe1f6613	-0.15566282
137	0xbdc89820	-0.097946405
138	0xbcd82d05	-0.026388654
139	0x3e092ce0	0.13396025
140	0x3dad006f	0.08447348
141	0x3d6cf093	0.057846617
142	0xbd97fcce	-0.074212655
143	0x3e198c9d	0.14995046
144	0xbe1557fa	-0.14584342
145	0xbe8adb3d	-0.2712039
146	0xbe15a9d4	-0.14615566
147	0xbe0db6bf	-0.13839243
148	0x3bd1bff9	0.0064010588
149	0xbded0587	-0.1157332
150	0xbe4891f3	-0.19586925
151	0xbb1a4fe0	-0.0023546144
152	0x3dce9fc2	0.10089065
153	0x3e3198d5	0.17343457
154	0xbde61ea1	-0.11236311
155	0xbdef3517	-0.11680048
156	0xbdc99bf3	-0.09844198
157	0x3e195a27	0.14975797
158	0x3e152791	0.14565875
159	0x3e03a9dd	0.12857766
160	0xbe3c1dd4	-0.18370754
161	0xbd8e45bf	-0.06946897
162	0x3d5280ef	0.051392492
163	0xbdd1a986	-0.10237412
164	0x3dbda887	0.0926066
165	0xbdbb25cd	-0.09138069
166	0xbe1c71bf	-0.15277766
167	0x3e1bcc24	0.15214592
168	0x3d979cee	0.07402979
169	0x3da08c57	0.07839268
170	0x3ca8380d	0.02053454
171	0x3df19b4e	0.117972
172	0xbe0a507c	-0.13507265
173	0x3e0a445c	0.1350264
174	0xbd5c3e11	-0.05377013
175	0xbe2d33e4	-0.16914326
176	0x3cef5c8b	0.029218933
177	0x3df21cdc	0.11821911
178	0xbe01dd7b	-0.12682144
179	0x3e21f3c9	0.15815653
180	0x3e1894c6	0.14900503
181	0x3e039cdd	0.12852807
182	0x3e106276	0.1410006
183	0x3d95bca5	0.07311372
184	0x3df88a2a	0.12135728
185	0x3dd59455	0.10428683
186	0xbdf3498d	-0.11879263
187	0x3e1550e6	0.14581642
188	0xbdc06a76	-0.09395306
189	0x3e1a7623	0.15084128
190	0xbc86fbde	-0.016477522
191	0xbcc83b96	-0.024442475
192	0x3ddaab7a	0.10677238
193	0x3e26782e	0.16256782
194	0xbde0d016	-0.10977189
195	0x3d199ca8	0.037502915
196	0x3d6eb67e	0.058279507
197	0xbe10f22d	-0.14154883
198	0x3dbdd5e2	0.092693105
199	0x3e18c089	0.14917196
200	0xbd080775	-0.033210237
201	0xbd12ff93	-0.035888266
202	0xbceaf4c8	-0.028681174
203	0xbcc9a37b	-0.024614086
204	0x3cc575e6	0.02410407
205	0x3ccc3aee	0.024930444
206	0xbd77c996	-0.06049498
207	0xbded42d1	-0.1158501
208	0xbdf605d7	-0.120128326
209	0xbd913c56	-0.07091586
210	0xbe050ee9	-0.12993969
211	0xbe0ba952	-0.1363881
212	0x3cb2da83	0.02183271
213	0x3e241ecc	0.16027373
214	0xbe125b93	-0.14292745
215	0x3d039e85	0.032133598
216	0x3daa4032	0.083130255
217	0xbde81bb2	-0.113334075
218	0xbc74f663	-0.014951321
219	0x3d511299	0.051043127
220	0xbdc1c282	-0.094609275
221	0xbe38bcac	-0.18040723
222	0xbda3e49c	-0.08002588
223	0xbaa1545f	-0.001230847
224	0x3e1df990	0.15427232
225	0x3e0b6c24	0.13615471
226	0xbdb27541	-0.08713771
227	0xbcca6c9d	-0.024709994
228	0xbe0825b5	-0.13295634
229	0x3e2b6d1a	0.16740838
230	0x3e17a411	0.1480868
231	0xbe1e8d17	-0.15483509
232	0x3dd844eb	0.1056002
233	0x3db91703	0.09037592
234	0x3dd4a19d	0.10382388
235	0x3d551295	0.052019674
236	0xbcd6073f	-0.026126502
237	0x3d6d05a7	0.05786672
238	0xbd8ad2cb	-0.06778487
239	0xbdd4678c	-0.103713125
240	0xbd8e8edd	-0.06960843
241	0x3d6fb8ac	0.058525726
242	0xbdd57cb7	-0.10424178
243	0xbe00bd16	-0.1257213
244	0xbdd4ee4d	-0.10397015
245	0x3b37ad0d	0.002802673
246	0xbe1a93ff	-0.15095519
247	0x3e1e21ea	0.15442625
248	0x3d639b99	0.05556831
249	0x3cc541a9	0.02407916
250	0x3e2c0c38	0.16801536
251	0xbe14b021	-0.14520313
252	0xbe19af99	-0.15008391
253	0x3e065f33	0.13122253
254	0x3e07d745	0.13265713
255	0xbdc18c56	-0.09450595

fc3.bias f4 [2]
0	0x3d6180d7	0.055054512
1	0xbda12618	-0.07868594

bn.weight f4 [400]
0	0x3eea111c	0.45716178
1	0x3e879a9f	0.26485154
2	0x3f59c314	0.8506329
3	0x3f61108d	0.8791588
4	0x3f59df6a	0.8510653
5	0x3ee58517	0.44828102
6	0x3f4dd4de	0.80402935
7	0x3f7a2479	0.977119
8	0x3eb2456b	0.34818587
9	0x3e1e033b	0.1543092
10	0x3f266549	0.649983
11	0x3ec23334	0.3792969
12	0x3f15dcdc	0.5854013
13	0x3dfb2338	0.12262577
14	0x3f3444f1	0.70417696
15	0x3ed337ee	0.41253608
16	0x3f87083d	1.0549389
17	0x3f369c8e	0.71332633
18	0x3f825ed6	1.0185192
19	0x3ed2b234	0.41151583
20	0x3f6f7744	0.9354136
21	0x3e3f5e8d	0.18688412
22	0x3f64e006	0.8940433
23	0x3f4c0a4c	0.7970321
24	0x3e029594	0.12752372
25	0x3f65bf9b	0.8974549
26	0x3e2ce9ec	0.16886109
27	0x3eb89310	0.360497
28	0x3e589964	0.21152264
29	0x3e97fc79	0.2968481
30	0x3ee9d532	0.45670468
31	0x3f7cbed7	0.987287
32	0x3f178125	0.59181434
33	0x3f80f7ef	1.0075663
34	0x3f3aa579	0.7290874
35	0x3f4c6e42	0.7985574
36	0x3ec2f620	0.38078403
37	0x3e6d37f3	0.23165874
38	0x3e1faf9b	0.15594332
39	0x3e104849	0.14090075
40	0x3f836fc6	1.0268486
41	0x3f1e3da8	0.6181283
42	0x3e86ea8f	0.2635083
43	0x3f580725	0.843859
44	0x3f51ad52	0.8190509
45	0x3ea2de6b	0.31810316
46	0x3f8e7652	1.1129858
47	0x3f2c7a7d	0.673744
48	0x3e9670d3	0.29382953
49	0x3ef4dbcc	0.47823942
50	0x3eaa5452	0.33267456
51	0x3ec30c5d	0.3809537
52	0x3ecef925	0.40424457
53	0x3f777f87	0.96678966
54	0x3f7d073e	0.98839176
55	0x3f3ffac2	0.74992
56	0x3f1f44f9	0.6221462
57	0x3ecd0fa0	0.40050983
58	0x3ea3edb8	0.32017303
59	0x3f24d5cf	0.64388746
60	0x3f6f4780	0.93468475
61	0x3f786343	0.9702646
62	0x3e579c85	0.21055801
63	0x3f4d4175	0.80178005
64	0x3e62351f	0.22090577
65	0x3e56668f	0.2093756
66	0x3eba62f4	0.3640362
67	0x3e2d1676	0.169031
68	0x3f4dc29e	0.8037509
69	0x3f7e0e2f	0.9924039
70	0x3e55a874	0.20865041
71	0x3f10519a	0.56374514
72	0x3f1eee89	0.62082726
73	0x3ead6528	0.3386624
74	0x3f57e445	0.84332687
75	0x3f81e5a9	1.0148212
76	0x3f0055f0	0.5013113
77	0x3f7270f4	0.947036
78	0x3ecab9e8	0.3959496
79	0x3f09b280	0.53787994
80	0x3eadd1ba	0.3394907
81	0x3f2efd86	0.68355596
82	0x3f22b8a6	0.63563
83	0x3f129033	0.5725128
84	0x3e9bd5f8	0.30436683
85	0x3eed097b	0.46296296
86	0x3f5a5825	0.8529075
87	0x3f4329ee	0.76235855
88	0x3f24fe59	0.64450604
89	0x3edaa529	0.42704132
90	0x3f791cd9	0.97309643
91	0x3ef50245	0.47853294
92	0x3f4c10fa	0.79713404
93	0x3f789814	0.9710705
94	0x3e883e82	0.2661019
95	0x3f0003e4	0.50005937
96	0x3e430e50	0.19048429
97	0x3ea60909	0.32428768
98	0x3f8b5976	1.0886676
99	0x3e135d94	0.14391166
100	0x3ee834de	0.45352834
101	0x3f02d8e3	0.5111219
102	0x3f6cf97c	0.9256818
103	0x3ebd65a2	0.36991602
104	0x3eee85ba	0.465864
105	0x3ef3df9a	0.47631532
106	0x3ea71e95	0.3264052
107	0x3f6de7be	0.92931736
108	0x3f66eb49	0.90202767
109	0x3f5f5f74	0.87255025
110	0x3f5948a9	0.84876496
111	0x3e97e721	0.29668525
112	0x3ec35cfc	0.3815688
113	0x3f0f6781	0.5601731
114	0x3e6b7efb	0.22997658
115	0x3f65c676	0.8975595
116	0x3e9f8c0d	0.31161538
117	0x3f56539e	0.8372134
118	0x3e6bca1b	0.23026316
119	0x3f626ec3	0.8845026
120	0x3f8702cf	1.0547732
121	0x3f45a51d	0.7720507
122	0x3e76798e	0.24069807
123	0x3f8c8f0a	1.0981152
124	0x3eb7dcb7	0.3591058
125	0x3f7f2b56	0.996755
126	0x3ee8cdba	0.45469457
127	0x3f7ab690	0.9793482
128	0x3f38fbb5	0.72259074
129	0x3eace581	0.33768848
130	0x3e2839dd	0.16428323
131	0x3e5c2115	0.21496995
132	0x3f258c22	0.6466695
133	0x3efed912	0.49774987
134	0x3ee43be9	0.44576958
135	0x3f4d5cab	0.80219525
136	0x3ede396d	0.43403187
137	0x3f005f96	0.5014585
138	0x3f112b0f	0.5670633
139	0x3f254f98	0.64574575
140	0x3f740802	0.9532472
141	0x3ebea1c6	0.37232798
142	0x3f0d04b3	0.55085295
143	0x3d28333b	0.041064482
144	0x3e6700c9	0.22558893
145	0x3f3f3a48	0.74698305
146	0x3ee6036e	0.44924492
147	0x3ec22a00	0.37922668
148	0x3ed04752	0.40679413
149	0x3f808d0d	1.0043045
150	0x3ec25128	0.37952542
151	0x3eb7c234	0.35890353
152	0x3f3f3121	0.7468434
153	0x3eca941e	0.3956613
154	0x3f26a73f	0.6509895
155	0x3eea6b35	0.45784917
156	0x3f1e08d1	0.617322
157	0x3e29bb1e	0.16575286
158	0x3ee7025d	0.4511899
159	0x3f813554	1.00944
160	0x3f847892	1.0349295
161	0x3f74eff5	0.95678645
162	0x3e9d803b	0.30761895
163	0x3f84982a	1.0358937
164	0x3ef8c4eb	0.48587736
165	0x3f57b452	0.8425952
166	0x3e9fef19	0.31237105
167	0x3f0fc903	0.56166095
168	0x3ea35edc	0.3190831
169	0x3f5aa5d8	0.8540931
170	0x3f76fa0d	0.964753
171	0x3ee45bbc	0.44601238
172	0x3f84e2e5	1.0381743
173	0x3e724b9b	0.23661654
174	0x3e9059bc	0.28193462
175	0x3f3e1a10	0.7425852
176	0x3eb401b8	0.3515756
177	0x3f83cc51	1.0296727
178	0x3e262b9d	0.16227575
179	0x3f27b1ba	0.65505564
180	0x3f22d819	0.6361099
181	0x3e7c1cd1	0.24620368
182	0x3ef8f35a	0.48623163
183	0x3f505aad	0.8138836
184	0x3ed1a7de	0.40948385
185	0x3dbd9e5c	0.0925872
186	0x3f2db9bf	0.6786155
187	0x3f53b8bb	0.8270375
188	0x3f848a86	1.0354774
189	0x3e45615e	0.19275424
190	0x3f81bb32	1.0135252
191	0x3f78df4a	0.9721571
192	0x3eaf622f	0.34254596
193	0x3f62d717	0.8860945
194	0x3eac97a8	0.33709455
195	0x3e12a2b8	0.14319885
196	0x3f35cc6b	0.7101504
197	0x3ed5024a	0.4160331
198	0x3e900d3a	0.2813509
199	0xbcf7e850	-0.030262142
200	0x3e8628ab	0.26202902
201	0x3f4fb949	0.811421
202	0x3f529e58	0.82272863
203	0x3f235667	0.63803715
204	0x3f01d030	0.50708294
205	0x3ec17607	0.3778536
206	0x3e84750c	0.2587055
207	0x3f84a449	1.0362636
208	0x3e3fa3b7	0.18714796
209	0x3e499144	0.1968432
210	0x3f59dbc9	0.8510099
211	0x3efa2b98	0.48861384
212	0x3f87dc03	1.0614017
213	0x3f8664f7	1.0499562
214	0x3e829635	0.25505224
215	0x3f6b0bf2	0.918151
216	0x3e567b0f	0.2094538
217	0x3ea79167	0.3272812
218	0x3f0dd13f	0.5539741
219	0x3f798be3	0.97479075
220	0x3e211a3b	0.15732662
221	0x3f56e65d	0.83945256
222	0x3f3eb2a6	0.74491346
223	0x3e69d76e	0.22836086
224	0x3ea42f82	0.32067496
225	0x3e8489ac	0.25886285
226	0x3f037b19	0.5135971
227	0x3e912146	0.28345698
228	0x3ef4e770	0.47832823
229	0x3e8ce2d7	0.27516815
230	0x3e780b14	0.24222976
231	0x3f42c709	0.76084954
232	0x3f3848fc	0.71986365
233	0x3f70e1e8	0.94094706
234	0x3f385c50	0.7201586
235	0x3f50135b	0.81279534
236	0x3e560eb6	0.2090405
237	0x3f4ad2bb	0.792278
238	0x3f74967f	0.9554214
239	0x3f387370	0.72051144
240	0x3e8eb784	0.27874386
241	0x3ed940c6	0.4243223
242	0x3f399b87	0.7250294
243	0x3f60450f	0.87605375
244	0x3f8e164d	1.1100556
245	0x3ec26cac	0.37973535
246	0xbddafe66	-0.10693054
247	0x3f791318	0.9729476
248	0x3f5b0460	0.8555355
249	0x3eb37921	0.35053352
250	0x3f36b70d	0.71373063
251	0x3ded06d8	0.11573571
252	0x3e252fa3	0.16131453
253	0x3f096b9d	0.5367983
254	0x3f609ee4	0.8774245
255	0x3f410bad	0.7540844

bn.bias f4 [400]
0	0xbc99053f	-0.01867926
1	0xbd89b1f9	-0.06723399
2	0x3d79046a	0.060795225
3	0xbd0b3099	-0.033981893
4	0x3c932338	0.01796113
5	0xbca4526f	-0.020058839
6	0x3d531c6d	0.05154078
7	0xbcacaecd	-0.021079445
8	0x3da415d4	0.08011976
9	0xbd3495f8	-0.044088334
10	0xbd24a0d0	-0.040192425
11	0xbcc659b6	-0.0242127
12	0xbccc7907	-0.024960054
13	0x3d910e68	0.07082826
14	0x3d7936e1	0.060843352
15	0x3d3f3fd5	0.046691734
16	0xbd9ee6c0	-0.07758856
17	0xbcf87975	-0.030331353
18	0xbc833353	-0.016015684
19	0xbc72a23e	-0.014809189
20	0xbc42c4ba	-0.011887724
21	0xbdc1a078	-0.09454435
22	0x3a924546	0.0011159561
23	0xbd36af62	-0.04460085
24	0xbd763a46	-0.060114168
25	0xbb844876	-0.0040369583
26	0xbba45a51	-0.0050156494
27	0x3ceed408	0.029153839
28	0x3cc5d91f	0.024151383
29	0xbdca5149	-0.09878785
30	0x3c543642	0.012952389
31	0xbcc8013d	-0.024414653
32	0xbc96d795	-0.018413344
33	0xbd0f1f71	-0.034942094
34	0x3c88122a	0.016610224
35	0x3d574038	0.05255148
36	0xbd98ce80	-0.07461262
37	0xbe02a6d7	-0.12758957
38	0xbd218065	-0.039429087
39	0xbcceb1ad	-0.025231207
40	0xbd89a49b	-0.06720849
41	0xbd044b03	-0.0322981
42	0x3ccaa657	0.02473752
43	0xbd0b316b	-0.033982676
44	0x3d961395	0.07327954
45	0xbc720529	-0.014771738
46	0xbd20e7cc	-0.03928356
47	0x3d0745c2	0.03302551
48	0xbd7ca167	-0.061677363
49	0xbbe48b1d	-0.0069745914
50	0x3cf90096	0.030395787
51	0xbc48d984	-0.012258891
52	0x3d50cfdd	0.050979484
53	0xbd46e600	-0.04855919
54	0xba9e11cc	-0.0012059747
55	0xbccaeed4	-0.024772085
56	0x3be17b53	0.0068811565
57	0xbd038714	-0.032111242
58	0x3d11ceb9	0.035597537
59	0xbd3eb41e	-0.046558492
60	0xbc6784f7	-0.014130822
61	0xbd25c829	-0.04047409
62	0x3d8b06c5	0.067884006
63	0xbd1a733d	-0.037707556
64	0x3d2ac4cf	0.041691598
65	0x3d2ce150	0.042207062
66	0xbc80633b	-0.015672317
67	0xbd411bd8	-0.047145694
68	0x3c8b5a3b	0.017010799
69	0x3c1404c5	0.00903434
70	0xbe28eb9c	-0.16496128
71	0x3be633e5	0.0070252293
72	0xbd3bae32	-0.045820422
73	0x3d1c56ef	0.038168844
74	0xba87e17c	-0.0010366882
75	0xbd816a06	-0.063190505
76	0xbd8c39c1	-0.06846953
77	0xbd077dab	-0.03307883
78	0x3d28fa4f	0.041254338
79	0xbd8ca6df	-0.06867766
80	0xbcb6e194	-0.02232436
81	0x3cbdaaaf	0.023152677
82	0x3ce72b76	0.028218966
83	0xbd3006f2	-0.042975374
84	0x3a3ce0a8	0.0007205107
85	0x3b42e372	0.0029737619
86	0x3bf2ad90	0.007405944
87	0xbb520e7b	-0.0032052088
88	0x3d0ef598	0.034902185
89	0x3cb84f52	0.02249876
90	0xbc68889c	-0.014192726
91	0xbca47ced	-0.0200791
92	0x3c603a86	0.013685828
93	0x3cd68956	0.026188534
94	0xbcab8cea	-0.020941216
95	0x3ce7c76f	0.02829334
96	0x3d2045b2	0.039128967
97	0xbd512aa8	-0.05106607
98	0xbd44928a	-0.047991313
99	0xbb4671d1	-0.0030280242
100	0x3b8ed983	0.0043594255
101	0x3c0b5890	0.008505002
102	0xbd500634	-0.050787166
103	0xbac11142	-0.0014729875
104	0xbcf199e7	-0.029492332
105	0xbd25b0e8	-0.040451914
106	0x3ca5fe27	0.02026279
107	0xbc46be33	-0.012130308
108	0xbd774bdf	-0.06037509
109	0xbce7edc6	-0.028311621
110	0xbd4f202b	-0.050567787
111	0x3d6dcf92	0.058059283
112	0xbd501298	-0.050798982
113	0xbbc9f879	-0.0061636535
114	0xbd62db39	-0.05538485
115	0x3cdf9174	0.027291037
116	0xbca430c0	-0.020042777
117	0xbc1f8a32	-0.009737538
118	0xbd3156ae	-0.043295555
119	0xbbd61ff3	-0.0065345704
120	0x3d3e7826	0.0465013
121	0xbc5e140d	-0.013554585
122	0xbc8f9691	-0.01752785
123	0x3b600b91	0.0034186582
124	0x3d13631b	0.035983186
125	0x3cb0ee40	0.021597981
126	0xbd8f7e63	-0.07006528
127	0x3c17461a	0.009233022
128	0xbcde6f88	-0.027152792
129	0xbd7b182a	-0.06130234
130	0x3d555388	0.052081615
131	0xbc20958b	-0.009801279
132	0x3b8bb50d	0.0042635263
133	0xbdac349a	-0.084084705
134	0xbc8c29af	-0.01710972
135	0x3d3e0fe2	0.046401866
136	0xbbd8931c	-0.0066093337
137	0xbd700710	-0.058600485
138	0x3cf83c66	0.030302238
139	0xbc65aa0a	-0.014017591
140	0xbc84adec	-0.016196214
141	0x3d02da90	0.03194672
142	0xbc3c6770	-0.011499271
143	0xbcc1fdea	-0.023680646
144	0xbcf50f03	-0.029914385
145	0xbc495a36	-0.012289574
146	0x3c5aae48	0.013347216
147	0xbd86d46b	-0.06583484
148	0xbdc5c2d0	-0.09656298
149	0x3cef1f51	0.029189738
150	0xbdcb160a	-0.09916313
151	0x3cedacd2	0.029013071
152	0x3c8190bf	0.01581609
153	0xbc79e0c5	-0.015251343
154	0x3bedf0a5	0.007261353
155	0xbc4202c7	-0.0118414825
156	0xbabb5de3	-0.0014294948
157	0x3acb2c6b	0.0015500908
158	0x3d9cab65	0.076498784
159	0xbcd5c3c2	-0.026094321
160	0x3c973fc6	0.018463027
161	0x3d80ea24	0.06294659
162	0xbcc5ad57	-0.024130506
163	0xbd4441ed	-0.047914434
164	0x3d1c43df	0.038150664
165	0xbc3af99f	-0.011412053
166	0xbd488a36	-0.048959933
167	0xbd4ca856	-0.049965225
168	0x3c6a1cf9	0.014289134
169	0x3d207499	0.039173696
170	0xbcf019a1	-0.029309096
171	0xbbd92d60	-0.0066277236
172	0xbbd31259	-0.006441396
173	0x3cb36661	0.021899404
174	0x3c63d89a	0.013906622
175	0x3d16b1bd	0.0367906
176	0xbca6a9c4	-0.020344622
177	0x3b2ea478	0.0026648324
178	0xbb0b2190	-0.0021229722
179	0x3d0da016	0.034576498
180	0xbc82728c	-0.01592376
181	0xbd63e22b	-0.055635612
182	0x3d048b8b	0.03235964
183	0xbd91a63e	-0.07111786
184	0x3c39d544	0.01134235
185	0x3c5ba3af	0.013405724
186	0xbc68d3ff	-0.0142107
187	0x3d1278c1	0.03575969
188	0x3d1eb168	0.038743407
189	0x3d0609ea	0.0327243
190	0x3c911119	0.017708348
191	0x3c3b1501	0.011418582
192	0x3d05b78c	0.032645747
193	0xbbc8d86f	-0.0061293165
194	0x3c680596	0.014161488
195	0x3cefe1c2	0.029282454
196	0x3cdacc5b	0.026708772
197	0xbd720bee	-0.05909341
198	0x3d19b31f	0.03752434
199	0xbe0012e0	-0.125072
200	0xbd22cdce	-0.039747052
201	0x3b60fa69	0.0034328944
202	0x3c91e8f5	0.017811278
203	0x3d633a5d	0.05547558
204	0x3cacda77	0.021100266
205	0xbd8ce975	-0.06880466
206	0x3d3805fe	0.04492759
207	0x3ca717ee	0.020397153
208	0x39465686	0.00018914984
209	0x3dce436b	0.10071453
210	0x3da94691	0.082654126
211	0xbd26c722	-0.04071725
212	0xbd6b9f07	-0.057524707
213	0xbd1b154e	-0.037862115
214	0x3ca520bb	0.020157209
215	0xbd01a722	-0.03165353
216	0xbc5348ad	-0.012895745
217	0x3d4de9f8	0.050271958
218	0xbd2aacab	-0.041668575
219	0x3cafd0e8	0.021461919
220	0x3d997a1f	0.07493996
221	0xbc3b2918	-0.011423372
222	0x3d120932	0.0356533
223	0x3cce645a	0.025194336
224	0x3d5dddaf	0.054166492
225	0x3d22abac	0.0397145
226	0xbc8bdecb	-0.01707401
227	0xbd278725	-0.04090037
228	0xbd943f95	-0.0723869
229	0x3d31cf57	0.043410625
230	0x3cdebc77	0.027189476
231	0xbd162d79	-0.03666446
232	0xb9ae94a1	-0.00033298603
233	0x3da6de46	0.08147864
234	0x3ce7a18f	0.02827528
235	0xbc27e77e	-0.010248063
236	0xbe0bf8a0	-0.13669062
237	0xbca55518	-0.020182177
238	0xbd06127e	-0.03273248
239	0x3c9371b6	0.017998558
240	0xbb96a689	-0.0045974893
241	0xbc2d9ee8	-0.010596968
242	0x3c11db4d	0.008902383
243	0x3d20dbbb	0.03927205
244	0xbd0aa266	-0.03384628
245	0xbd978ea7	-0.07400256
246	0x3dfd433e	0.12366341
247	0x3c347a74	0.011015523
248	0xbd46e707	-0.04856017
249	0xbda82b82	-0.082114235
250	0xbb61fc3d	-0.003448262
251	0xbd0cd922	-0.03438676
252	0x3ce89291	0.0283902
253	0xbd7bfec2	-0.061522253
254	0xbd1596c2	-0.036520727
255	0xbd387cb6	-0.04504081
