model_dir/checkpoint_critic_local_0.pth (torch_old, 575149 bytes, 9 tensors)

fcs1.weight f4 [400, 52]
000000 c4 fb 05 3e ac 98 ac be 0a a6 e0 3c 33 9a 88 3d
       0.13084322 -0.3371023 0.027422924 0.06670036
000010 b0 4e 04 3e f6 8f 7a be 97 b1 00 bd b0 72 7b 3d
       0.12920642 -0.24468979 -0.031419363 0.06138867
000020 5d 88 7f 3e b3 bb 74 be 43 bf d8 bb 1c d3 72 3b
       0.24954362 -0.23899727 -0.006614597 0.00370521
000030 6a 7f 56 3e 65 51 35 3e 4a 5f ac bc a0 c6 aa 3b
       0.20947042 0.17706831 -0.021041531 0.005211666
000040 1e 54 c3 3d 90 a9 bc be 44 0f 3f 3c 33 d6 b0 3e
       0.095375285 -0.36848116 0.011661354 0.3453842
000050 db ca a1 3d 7d 13 75 3f ff ef a2 3c ec 1b b0 3e
       0.0790002 0.9573286 0.01988983 0.34396303
000060 95 07 ec 3a 38 6c 9d be 4f 7d 41 3c 52 03 cd 3d
       0.0018007631 -0.30746627 0.011809661 0.10010399
000070 d2 52 ef bd 30 42 99 be 9b 6d 1d bd 6f fc 20 3e
       -0.116857186 -0.2993331 -0.038434606 0.15721296
000080 a7 36 f1 3d 49 65 93 be 1a 3f 61 3c d6 26 33 3d
       0.11778002 -0.28788212 0.013747955 0.04373821
000090 6f 1c 60 be 05 b1 fd 3d b7 11 2c 3d ef 6b 45 3d
       -0.21885847 0.123872794 0.04200908 0.048198637
0000a0 6c ad 42 bd 8b 4c b1 be f8 f1 fa bc 38 dc 28 be
       -0.04752867 -0.3462871 -0.030632958 -0.16490257
0000b0 77 ca 75 bd ff af 67 3f 54 93 13 bd 50 e8 3f be
       -0.06000754 0.90502924 -0.036029175 -0.18740964
0000c0 9c 9e 5b 3f 2e 12 8c 3f 44 4c 0b bf 84 0b 45 3e
       0.85788894 1.0943048 -0.5441325 0.19242674
0000d0 9c 17 fc 3d 06 14 5f 3d 31 1b e8 bc 6b 49 b5 ba
       0.12309191 0.054462455 -0.028333278 -0.0013831084
0000e0 bc c7 cf 3c 6e c9 36 bd 5c 63 1b 3b a6 1a eb bc
       0.025363795 -0.044625692 0.0023710346 -0.02869923
0000f0 74 52 b2 3e f4 66 67 bd 71 f8 be 3c fc c2 cc bd
       0.34828532 -0.056494668 0.023311825 -0.09998128
000100 b6 aa 4f be b8 16 7d 3d ab ba 86 bc ec 7c 0a be
       -0.20279965 0.061789244 -0.016446432 -0.13524216
000110 a8 db 29 3f d2 04 84 be 2d 58 6e 3d 1c fd 29 3d
       0.66350794 -0.25784928 0.05818956 0.04150115
000120 65 4d ea be b3 5b eb 3d 65 8f 6c ba 97 fb 40 3b
       -0.45762172 0.114920996 -0.0009024053 0.0029446834
000130 3d c2 f3 3c cf fb 40 3e 1b a4 b5 3c 81 66 ef bd
       0.029755706 0.18846057 0.022172978 -0.11689473
000140 3b b9 94 bc 9a 65 d6 bd 60 15 ae bb ad c4 53 bd
       -0.018154731 -0.10468598 -0.0053126067 -0.051701237
000150 29 4e 31 3d a8 62 6f 3e 27 81 e8 3c 61 c8 3a bd
       0.04328743 0.23377478 0.028381897 -0.045601252
000160 a6 4a 39 3e 7b 8b 86 3d 27 71 d2 bc e5 05 a2 3c
       0.18094882 0.065695725 -0.02568872 0.019778201
000170 62 24 d3 3d 6d d1 1c 3e 6f 28 4b bd 0f 42 eb 3d
       0.10309674 0.15314265 -0.049599107 0.11487209
000180 c5 d5 dc 3e 30 15 a1 3d 6f a5 3f 3d a5 e9 86 3d
       0.43131843 0.07865369 0.04678863 0.06587533
000190 8a ae cd 3f 24 16 9c 3f 70 fd 47 3e f1 f6 19 be
       1.606889 1.2194257 0.19530272 -0.15035607
0001a0 f6 d9 98 3c b9 57 27 3c 1d bd 2f 3d 62 f1 19 3d
       0.01865862 0.010213786 0.04290496 0.037583716
0001b0 c1 58 24 be 77 f6 1f 3d 51 a9 07 3d 11 79 86 3d
       -0.16049482 0.039053407 0.033120457 0.0656606
0001c0 fa 01 58 bc 45 83 40 3e 0e 10 80 bd 59 3a c6 3e
       -0.013184065 0.18800075 -0.06253062 0.3871639
0001d0 ac f4 17 be ca af f1 3a 32 b3 35 bd 55 0e dc 3e
       -0.14839429 0.001843923 -0.044360347 0.42979684
0001e0 7b 1f 7c 3e 92 c2 c3 3e 57 91 b2 3d 35 7e fe 3e
       0.24621384 0.38234383 0.087191276 0.49705663
0001f0 9e 2d 1f be ef 64 9c be d5 b0 c9 3d 4f 84 03 3f
       -0.15544745 -0.30545756 0.09848181 0.5137376
000200 aa b7 e4 3d ce 34 4e 3f 1d ed f7 bc 6c 19 6d be
       0.11167844 0.80549324 -0.030264432 -0.23154229
000210 99 7a 4d 3e 40 77 0b 3d bf aa 0c bc de d1 4e be
       0.20066299 0.034049273 -0.008585631 -0.20197245
000220 86 29 43 3e 15 6b 48 3f 4f aa 11 be be dc 8d bd
       0.19058809 0.78288394 -0.14225124 -0.06926869
000230 fe af 10 3e 98 b0 3a bd 63 e3 ec bd 24 f7 77 bb
       0.14129636 -0.04557857 -0.11566808 -0.0037836516
000240 a0 18 3f 3e 82 26 2b 3f 33 32 3d 3e 48 a1 94 be
       0.18661737 0.66855633 0.1847618 -0.29029298
000250 ae 23 1b 3e 32 ea a2 be d8 d5 30 3e 1e 46 8c be
       0.1515033 -0.31819302 0.17269075 -0.27397245
000260 3a 9b 50 be fa e3 1b be 08 96 0f 3f 1e 05 59 3f
       -0.20371714 -0.15223685 0.56088305 0.84773433
000270 67 d3 78 3c a6 9b 1e be e8 66 32 3a c1 f3 9c 3d
       0.015187121 -0.15489063 0.00068054954 0.0766368
000280 ef 46 9b 3e 8f 23 5b 3c 3d 68 d8 3c e7 8d 9b 3d
       0.30327556 0.013375177 0.026416892 0.07595425
000290 36 a5 43 bd d9 60 14 be 6c f7 62 3c 62 6a a3 3e
       -0.04776498 -0.1449007 0.013852935 0.319171
0002a0 db 56 af 3e 32 7c 00 bd e8 c5 60 bd dd d8 ab 3e
       0.34245953 -0.031368442 -0.054876238 0.3356389
0002b0 78 00 2d 3e c5 58 ed bc 80 b8 07 3d 38 be ee 3d
       0.1689471 -0.028972993 0.033134937 0.11657375
0002c0 25 fc 14 3e 85 7c 85 be 26 a4 66 3d 1e 9c ea 3d
       0.1454931 -0.26071563 0.056308888 0.11455558
0002d0 51 d3 e2 3d 39 c2 2f 3e b9 a8 20 bd ea 34 26 be
       0.11075462 0.17163934 -0.039223406 -0.16231123
0002e0 8c c2 c4 be 02 8c 96 bc f9 fc fb bc 7c 79 74 be
       -0.38429677 -0.018377308 -0.030760275 -0.23874468
0002f0 56 aa 5a 3d 1a 1e 45 3e 4e 6b d9 bd 3c 26 ca 3d
       0.0533851 0.19249764 -0.1061617 0.09870574
000300 d9 62 d1 be 2e 7d e4 bc 26 96 e1 bd fa 58 ec 3d
       -0.40895727 -0.027891722 -0.11014967 0.115404084
000310 bd 03 ee 3d d6 ff 9d 3e ea 4c 80 be a4 85 89 3c
       0.11621807 0.3085925 -0.2505868 0.016787358
000320 a3 bf 45 be 2b 06 8f be 93 78 7c be c3 21 93 3d
       -0.19311385 -0.27934393 -0.2465537 0.07184174
000330 04 6d cf 3f 84 91 7a 3f 4c a6 92 be 47 7d d9 be
       1.6205144 0.9787829 -0.286425 -0.42478392
000340 0b bd b8 bd 26 3b f4 bd 68 42 0f bc 9c 7f 5f bd
       -0.09020432 -0.11925344 -0.00874386 -0.054565057
000350 9e 58 87 be 0c 29 18 be 93 03 c8 3b 14 7e da bc
       -0.26434797 -0.14859408 0.0061039417 -0.026671447
000360 51 32 bd 3c 5d de a0 bb 4b 22 4c 3e 4a 18 a6 be
       0.023095282 -0.0049093203 0.19934957 -0.32440406
000370 53 21 97 be 85 10 aa bc ef 4c 54 3e c3 12 93 be
       -0.29517612 -0.02075983 0.20732473 -0.28725252
000380 ac 81 e5 bd 5b 1a 53 be ba 4a 90 be bf a7 43 bd
       -0.112063736 -0.20615523 -0.28182012 -0.047767397
000390 f2 8a b4 be 50 c2 69 3e f8 ae 55 be 4e 66 d0 bd
       -0.35262257 0.2282803 -0.20867527 -0.10175763
0003a0 42 8c 54 bd a0 e8 3e 3e 49 76 c4 3c af e1 e3 bd
       -0.051891573 0.18643427 0.023982184 -0.1112703
0003b0 05 f1 7c 3e 76 e0 c2 bd 54 36 56 bd 1b d5 18 be
       0.24701317 -0.09515469 -0.052297905 -0.14925043
0003c0 58 dc cc 3c 0c 53 0e 3e 7d 7d 9e 3d d2 1c 5f be
       0.025007412 0.13898867 0.07738779 -0.21788338
0003d0 15 05 89 3e b7 81 82 bc 05 df 78 3d d0 54 56 be
       0.2676169 -0.015930993 0.060759563 -0.20930791
0003e0 e9 8b 1d 3d 88 6f 00 3e 57 3a 1d be ca 4e 8b 3c
       0.038463507 0.12542546 -0.15354286 0.017005343
0003f0 36 a6 c3 3e 04 fe 3e 3e d5 fa 2a be 86 d9 08 3b
       0.38212746 0.18651587 -0.16697247 0.0020881607

fcs1.bias f4 [400]
000000 77 9a df be c5 39 e2 be b5 0f 9f be eb d3 66 be
       -0.43672535 -0.441847 -0.3106667 -0.22541778
000010 d9 55 d7 bc b0 1c 7d 3c 70 90 15 bf ed 3d 80 be
       -0.026286053 0.015448734 -0.5842352 -0.25047246
000020 5c 5f a0 be 82 79 1d 3e 76 e3 ce bd 63 1e 82 be
       -0.31322753 0.15378383 -0.101019785 -0.25413808
000030 41 42 94 be e2 5c 21 be 5e a6 55 bd ed 3d ce 3d
       -0.28956798 -0.15758088 -0.052160613 0.10070405
000040 68 b8 e3 3c b7 b4 81 be ce 33 94 3d 2b 54 13 be
       0.027797893 -0.25333187 0.072364435 -0.14387576
000050 fb 07 e1 bd 38 40 2a 3c 8e 35 d8 bd 79 c4 00 be
       -0.1098785 0.0103912875 -0.1055709 -0.12574948
000060 3c 37 98 be a3 5c 08 be 5b 8d 25 be c5 b6 0a 3d
       -0.2972964 -0.13316588 -0.16167204 0.03386571
000070 f3 c3 da be e8 b5 a0 be 96 ba a6 bd 18 87 6a be
       -0.42727622 -0.31388783 -0.08141057 -0.22903097
000080 cf fd 6c be a5 69 47 be a7 a0 ce be 3a 90 47 be
       -0.23143695 -0.19473894 -0.40356943 -0.19488612
000090 04 ad 36 3d c3 2f a9 bd 4b 83 da 3d c3 64 33 bf
       0.044598594 -0.08261063 0.106695734 -0.70075625
0000a0 ef 22 be 3d d7 b8 d7 bd 14 90 54 be fb d7 a0 be
       0.09284007 -0.10533302 -0.20758086 -0.3141478
0000b0 dd 0c 91 be 10 a8 7c be e0 f6 85 be 13 e2 0b 3e
       -0.28330126 -0.24673486 -0.26164913 0.13660459
0000c0 65 9f ae be 47 71 67 be 08 c2 db 3d 7b b4 27 3e
       -0.34105983 -0.22601806 0.10730368 0.16377442
0000d0 74 f9 d6 bd fc 5d 25 be 29 4a 1e bd a6 b9 0f 3d
       -0.10496798 -0.16149133 -0.038644943 0.035089158
0000e0 be 58 97 bd 83 b5 99 be 20 c2 be be ac 77 f5 bd
       -0.07389973 -0.30021295 -0.3725748 -0.11985716
0000f0 ea f7 df b9 b8 f5 59 bd 47 71 d0 bd 66 9d 6e 3d
       -0.00042718585 -0.05321285 -0.10177856 0.058255576
000100 9e 00 78 be b0 ad 77 3d 28 4a 77 3c 52 53 7d be
       -0.24218985 0.060468376 0.015093364 -0.24738815
000110 f8 7e e6 3d 35 44 b6 be d1 15 38 be 63 38 71 bd
       0.11254686 -0.35598913 -0.17977072 -0.058891665
000120 d2 94 8b bd fb 6c d3 be 5c 79 f9 be 4e 64 e8 3d
       -0.068154946 -0.41294083 -0.48725402 0.113472566
000130 41 db ca bd 81 31 bd bd d6 e5 8f bd 70 6b e7 3b
       -0.099051006 -0.09237958 -0.070262596 0.007062368
000140 cf 1a f9 bd f5 64 92 3c 9b 9a 1e be 9f 9f 3a be
       -0.121633165 0.017870406 -0.15488665 -0.18224953
000150 c2 94 bc bd e1 90 37 be 0d 42 bc be 7f f0 38 3b
       -0.09208061 -0.1792636 -0.36769143 0.0028219519
000160 d4 d9 1a be e7 21 24 be 3b 3c 5f bd 4b 2d a8 bd
       -0.15122157 -0.16028558 -0.0545008 -0.08211764
000170 de 40 3a be 5e 35 14 be 3e a9 0c be 80 c6 0a bd
       -0.18188807 -0.14473483 -0.13736436 -0.03388071
000180 50 b5 75 be 2f 2a 21 be 0a 06 f3 bd b0 81 36 3d
       -0.23994946 -0.15738748 -0.11866386 0.044557273
000190 5d 41 2f bd 5d 48 88 be aa 79 c6 be c5 49 8f be
       -0.042786945 -0.2661771 -0.38764697 -0.2798597
0001a0 78 8a 43 bd 07 4d 2e be 08 21 ed 3d 02 7c b4 bd
       -0.047739476 -0.17021571 0.11578566 -0.08812715
0001b0 56 9f b1 be bd ab ab be 4c ba a9 be 65 e1 32 be
       -0.34691876 -0.33529463 -0.33149946 -0.17468794
0001c0 cf 24 0e 3d f6 e0 b5 be ea 01 0e be 13 a3 f3 bd
       0.034703072 -0.35523194 -0.13867918 -0.11896338
0001d0 fb 4a 8e be 4e b6 df 3d 39 f7 c2 bd bc 16 71 be
       -0.2779158 0.10923444 -0.0951981 -0.23543829
0001e0 c4 a0 c0 bd 9a 92 94 bd 0d ab 92 be a6 1b 8a be
       -0.094056636 -0.072545245 -0.28646126 -0.2697422
0001f0 c3 77 ad be f6 a9 00 be 58 50 ac be b8 31 ab 3d
       -0.33880433 -0.12564835 -0.33655047 0.083590925
000200 5b 4a 98 bd 44 02 94 bc af 47 9f be 1d d4 de bd
       -0.07436057 -0.018067487 -0.31109378 -0.10880301
000210 95 6f 11 bf 9c a4 59 be c1 1b 61 3d 79 30 0d bd
       -0.56810886 -0.212542 0.05495811 -0.034470055
000220 7c f5 55 3d dd df b8 bd 8b 30 ce bd 44 16 2f be
       0.052236065 -0.090270735 -0.100678526 -0.17098337
000230 6a 80 cd 3d 2d 4e 21 be 67 b3 8a be 2f 0f 40 bd
       0.10034259 -0.15752478 -0.27089998 -0.04688948
000240 53 01 cf be 35 b5 40 bf ba ce 0d be 42 23 35 be
       -0.40430698 -0.752765 -0.13848391 -0.17689231
000250 89 fc 3d be b8 95 18 3e 76 05 8d be f1 29 b9 be
       -0.18553366 0.14900863 -0.2754323 -0.3616481
000260 90 56 29 be 0f 23 06 3e 4b f2 a2 bd 87 a4 de bd
       -0.16536927 0.13099311 -0.0795637 -0.10871225
000270 86 24 10 be 14 92 07 3e 83 a4 38 be ec ad 3a 3e
       -0.14076433 0.13239318 -0.18031506 0.18230408
000280 44 00 47 be be 6b 44 bd 52 4e dc be 12 66 8f be
       -0.19433695 -0.047954313 -0.43028504 -0.2800756
000290 ae 9e 5e bd 3d 11 c9 be 49 b4 9a be 17 3d 88 3d
       -0.054350547 -0.39270964 -0.30215672 0.06652277
0002a0 a7 c8 9d be 9e 10 99 be fd 42 ab be f1 15 08 bc
       -0.30817148 -0.2989549 -0.33449546 -0.0083060125
0002b0 23 5a bf be c2 b4 2c be 7d fc a2 be f4 5d 36 bc
       -0.37373456 -0.16865829 -0.31833258 -0.011130799
0002c0 bd 4e 2e be d6 11 27 be b4 2f c0 bd a1 e6 6e be
       -0.17022224 -0.16315398 -0.09384099 -0.23330165
0002d0 5d d5 a4 bd da 27 74 be 28 9a bc be c8 8a e5 bd
       -0.08048508 -0.23843327 -0.36836362 -0.11208111
0002e0 52 04 ca 3d c3 20 a9 be cd 54 63 bd 69 4c c1 3d
       0.09864105 -0.33032808 -0.055500794 0.09438402
0002f0 90 73 05 be 57 9c 03 3d 77 ee 74 be 09 9f 44 bd
       -0.13032365 0.03213152 -0.23919092 -0.04800323
000300 6b 5c 15 be e8 e8 4b be 71 c8 da be 2b fd 35 bf
       -0.14586036 -0.19913065 -0.4273105 -0.7108943
000310 6d a9 8d be d3 3c 8a be fb 6e 68 be 6a d3 05 bf
       -0.27668324 -0.2699953 -0.22698586 -0.5227572
000320 1e 56 13 3e a0 7a 6a be 43 41 90 be a2 b2 48 be
       0.1438832 -0.2289834 -0.2817479 -0.19599393
000330 82 ca c4 bd 95 c0 10 be ec 87 a5 3d a6 40 59 be
       -0.09608938 -0.14135964 0.08082566 -0.21216068
000340 91 13 96 3d 72 fe b6 be 92 75 95 be 91 15 13 be
       0.07327951 -0.35741 -0.29191262 -0.14363696
000350 59 47 29 be a1 ea a6 3c 01 53 12 bd e8 4b 94 bd
       -0.16531123 0.020375552 -0.03572369 -0.072410405
000360 03 9d 7b bd c3 70 8c be 7f 0b 1d bd da f4 54 3e
       -0.061429035 -0.2742978 -0.03834104 0.20796528
000370 b2 08 12 be 60 b9 6f be 94 6e 70 bd 70 98 b2 3c
       -0.1426113 -0.23410559 -0.058699206 0.021801203
000380 82 c8 27 bd 02 2b 1a be 62 58 2b be e8 a4 a4 be
       -0.040962704 -0.15055469 -0.16732934 -0.32157063
000390 3b 6d ad be 0b bc d4 bd 4c 1f 1c be a0 a6 0e be
       -0.338724 -0.10387429 -0.15246314 -0.1393075
0003a0 d7 14 56 bd 03 08 32 bd 9f eb 11 be 37 bd 53 bd
       -0.05226597 -0.04346467 -0.14250039 -0.05169412
0003b0 fb de 8b be 62 c7 29 bd 23 e2 6f be 95 df 13 bf
       -0.27318558 -0.041449912 -0.23426108 -0.57763034
0003c0 1a e6 5c bd 9d 53 9e be 0f 19 45 be 7c e7 53 bd
       -0.05393038 -0.30923167 -0.1924784 -0.051734433
0003d0 e1 c4 fa bc a7 d8 cf bd c4 6f 48 be 5e e0 86 bc
       -0.030611457 -0.10148745 -0.19573885 -0.016464408
0003e0 97 4d 20 bc d2 6a 91 bc 2d 13 a1 be c6 2d d7 3d
       -0.009784124 -0.017751131 -0.31459942 0.105067775
0003f0 19 61 bb bd 39 80 af 3d 1e 51 df bc 79 a9 d3 bd
       -0.09149379 0.085693784 -0.02726036 -0.10335059

fc2.weight f4 [300, 400]
000000 31 4d ae 3c d8 d3 3d 3d a5 e0 61 bd 1a 12 10 3b
       0.021277042 0.046344608 -0.05514588 0.0021983446
000010 75 a0 1c 3d 3d 08 01 bd e3 cc 9d bd 9a d0 b1 3c
       0.03823896 -0.031501997 -0.07705095 0.021705914
000020 50 ff a9 bc 82 21 00 bd c4 12 b6 bd 6d e6 0c bd
       -0.020751625 -0.031281956 -0.08890298 -0.03439944
000030 85 fd 0b bd 77 75 3e 3d 48 ed 1c bd 0a 59 1f 3d
       -0.034177322 0.046498742 -0.038312227 0.038903274
000040 01 35 f5 bc c1 d9 50 3d ad 8f f4 bd 95 af c2 bb
       -0.0299325 0.050988916 -0.119414665 -0.005941341
000050 9b d8 3f bc 0e 5a 32 bd b0 cd 90 bb 9a 33 42 bd
       -0.011709358 -0.043542914 -0.004419051 -0.047412492
000060 52 35 d7 3c fe 03 b1 bd da 26 11 bd 69 c6 f1 bd
       0.026270542 -0.086433396 -0.035437442 -0.11805422
000070 55 fb b8 3b 81 fb bb 3c 75 8a 3f bc fa 0a 74 bb
       0.0056451955 0.022947075 -0.011690726 -0.0037237988
000080 39 0b fb 3b d2 2c 10 3e 32 bb a9 bd 8d b0 7a bc
       0.00766125 0.14079598 -0.08287658 -0.015300882
000090 91 6d a7 bd b2 15 74 3c 3e 53 07 bd 32 c8 8a 3c
       -0.08175195 0.014897751 -0.03303837 0.016941164
0000a0 f6 6f b5 3b 00 3f 8d bc d5 a8 42 3d 9e bb a0 bd
       0.0055370284 -0.017241955 0.047524292 -0.07848285
0000b0 45 65 b1 3d 86 d6 70 bd 65 8c 04 3e 71 05 e9 bd
       0.08661894 -0.058798335 0.12944181 -0.11377991
0000c0 4c 0f 55 bd 90 5b 31 bb 49 0e e8 3c a0 fb fe 3c
       -0.05201654 -0.0027062632 0.028327124 0.031125844
0000d0 1d e7 38 bc 09 ab 4c bd b4 57 03 3d 89 35 a1 3c
       -0.01128557 -0.0499678 0.032066062 0.019678848
0000e0 a8 f8 33 3d 07 cb 12 bc 7c ab b7 bc 22 db 1a bb
       0.04393831 -0.008959538 -0.022420637 -0.0023629148
0000f0 5d f1 d8 bc d7 5b 8b bd e4 cd f4 3a ac d2 91 3c
       -0.026482278 -0.068046264 0.0018677083 0.017800651
000100 62 36 f2 3b d8 a6 40 3c 2e 54 9f 3d ca 6a e3 bd
       0.007391737 0.011758529 0.07779728 -0.11104353
000110 7d b2 31 bd 36 85 6d bd 2b 96 2f 3d d9 cd 18 bd
       -0.04338311 -0.057988368 0.04286782 -0.037305687
000120 0d da ad bd 26 c2 76 3d 1d 66 71 bd 48 6b e6 bc
       -0.084888555 0.060243748 -0.058935273 -0.028127328
000130 72 e4 f6 bc 8c 1d e5 3c 05 2c 38 3d 65 73 75 bc
       -0.030138228 0.02796819 0.044963855 -0.0149811255
000140 49 be 78 3d ec c1 5c bd 60 8c 72 3d 30 d5 a7 bd
       0.060728345 -0.053895876 0.059215903 -0.08194959
000150 e5 8b ae bc 34 5d 17 3d b8 49 6a bc 0b 9a 94 3c
       -0.021306941 0.03695412 -0.0142998025 0.01813986
000160 69 28 6b bb 7b cd 63 3c 43 13 4c bd 96 ca e9 bc
       -0.003588224 0.013903971 -0.049823057 -0.028538983
000170 88 ef 3e 3c 41 78 91 bc a4 80 9d bd 15 21 35 3d
       0.011653788 -0.017757537 -0.07690552 0.044221003
000180 a4 96 a5 3d fe ec 1e bd 3f 0d 3a bd 19 7b a0 bb
       0.08085373 -0.038800232 -0.04542279 -0.004897487
000190 62 60 c9 bc dc 5a 7b bd 6c 59 95 bd 2d ab 1e bd
       -0.024582092 -0.061365947 -0.072924465 -0.038737465
0001a0 30 fa a5 3d 63 fb 64 3d a6 39 18 3d e1 df e5 3c
       0.0810436 0.055903804 0.037164353 0.028060855
0001b0 94 9d 83 bc 8a 84 36 bb b6 c8 cd bc 3e c8 ea bc
       -0.01606635 -0.0027849996 -0.02512012 -0.028659936
0001c0 fb cd b5 bd 3e 50 a2 bd 41 47 5a 3d bc 67 06 3d
       -0.08877178 -0.07925461 0.05329061 0.032813773
0001d0 3d eb 8a bd 0f 8b 7c bd 16 a3 e9 3d 12 9d 80 bd
       -0.067831494 -0.061656054 0.11408059 -0.06279959
0001e0 d8 43 9a bd 10 41 9f ba bb 7b 89 bc 39 75 81 bc
       -0.075324714 -0.0012150127 -0.016782632 -0.015802966
0001f0 df 2f 95 bb 89 aa 0e 3e a6 f3 9a 3b 8b 3d b7 bc
       -0.004552826 0.13932241 0.004728752 -0.022368213
000200 5d 31 c7 bc db 0e 35 3d 57 d0 d4 bb 1e 69 4d bd
       -0.02431553 0.04420362 -0.0064945626 -0.050149076
000210 16 b6 26 3d 11 06 21 3c 2e 64 e5 3b da d5 cd 3c
       0.040700994 0.0098281065 0.0070004677 0.025126386
000220 54 8a e3 bc 8d 0a af bc 14 ec 60 bd 47 82 2d bc
       -0.02777592 -0.021367336 -0.05491264 -0.010590143
000230 af 85 78 bd 6f 6c 20 bb 77 d8 13 bd 31 df 0e 3b
       -0.060674366 -0.0024478694 -0.03609511 0.0021800513
000240 46 96 24 3d 78 75 7d bd d1 c5 be bd 6e bb 10 3d
       0.040182374 -0.061879605 -0.09315074 0.035334997
000250 a4 e3 d5 3d b8 f1 92 bc 5c aa 88 bd 93 57 ab 3c
       0.1044381 -0.017937526 -0.066731185 0.020915782
000260 6c 05 e9 3c 80 bf 1d bd 22 4d f7 bd 64 12 8a bd
       0.028444968 -0.038512707 -0.12075259 -0.06741789
000270 09 fb 6a bc 5a 87 85 3d fc 6e 7b bd 5d 50 03 3d
       -0.014342078 0.06519957 -0.06138514 0.032059062
000280 94 d8 34 bd e7 9f 2d bb b5 20 16 bd d2 c5 43 bd
       -0.044151857 -0.0026493014 -0.036652286 -0.047796078
000290 bd b0 6b bc 3a f4 f4 3c 39 a6 8b bd da c9 15 3b
       -0.014385399 0.029901613 -0.06818814 0.0022855909
0002a0 ed aa 9d bc b6 db 8f bc fb 00 06 bd f2 8b 32 3d
       -0.019246543 -0.017560821 -0.03271578 0.043590494
0002b0 dc 55 db 3c 52 be 84 3c bf 69 c4 bb 24 44 90 bc
       0.02677434 0.016204033 -0.005994051 -0.017610617
0002c0 36 f8 84 bd f9 e0 8c bb 2e 2f b5 bc 32 8c 70 3d
       -0.06492655 -0.00429928 -0.022117224 0.05872745
0002d0 c6 1e 12 3d 49 8f e5 bc d3 40 0c bc c6 21 47 3d
       0.03567388 -0.028022425 -0.008560377 0.048616193
0002e0 6e 75 1f 3d 22 17 26 bd 88 1a 93 bd 89 a7 0b 3c
       0.03893035 -0.040549405 -0.07182795 0.00852383
0002f0 e4 4d 35 bd 52 da 36 3c 7e 60 b5 3c 5f af bd 3c
       -0.044263735 0.01116045 0.022140738 0.023154913
000300 57 54 75 3d 62 db 88 bc 95 4a fe bd c5 9a a1 bd
       0.059894886 -0.016706172 -0.12416569 -0.07890848
000310 56 ba 68 3d fb 3e 1a bd 05 0b 05 bc 69 4e 84 bd
       0.05681833 -0.03765772 -0.008120303 -0.06460268
000320 91 21 80 bc ec ae 80 bc a4 9f 73 3c 82 5a bf 3d
       -0.015641006 -0.01570841 0.014869604 0.09343435
000330 f7 9d 25 bd 44 79 86 3c ff 00 45 bd f1 00 91 bd
       -0.04043385 0.016415246 -0.048096653 -0.07080258
000340 e2 94 7a bc f5 09 07 3d 23 a3 62 3d 7e 58 2e bd
       -0.0152942855 0.03296848 0.05533136 -0.04256486
000350 1d d4 34 3b a9 0e 4e 3c 31 c2 09 bd 9d 9b 06 3d
       0.002759225 0.012576737 -0.03363246 0.03286325
000360 28 e4 cf 3d d2 0e c2 bd 3a b3 5b bd fc 8d 19 bd
       0.10150939 -0.09475483 -0.05363772 -0.037488922
000370 9e 70 b7 bd d0 d1 d1 bc c8 bd 0c 3d 49 82 1f bd
       -0.08957027 -0.025612742 0.034360677 -0.03894261
000380 94 7c a3 3c c3 e7 92 bd c3 72 64 bd ae 5d 34 bd
       0.019956864 -0.07173111 -0.055773508 -0.044034652
000390 75 6d a4 bd 6f d9 ca 3a db 1b 48 bd 5e 22 21 be
       -0.0802869 0.0015476177 -0.04885469 -0.15735766
0003a0 4e 81 26 bc db 78 1d 3c 26 0e 09 bd fb e5 c9 3c
       -0.010162665 0.009611334 -0.03346076 0.024645796
0003b0 ca 87 37 bd 29 b4 b1 3c 09 5a 15 3d 1f 70 03 bd
       -0.044807233 0.021692352 0.036462817 -0.03208935
0003c0 47 e7 ae bb 78 01 18 bd 7e f9 be bd 26 9e bf 3c
       -0.005337629 -0.037110776 -0.093249306 0.02339084
0003d0 00 b8 c5 3c 11 b5 b0 bd b1 9b 56 3d 16 a4 62 bd
       0.02413559 -0.08628286 0.052394573 -0.055332266
0003e0 8b 56 38 3d 97 43 12 3d f3 c2 b3 38 59 d8 c7 bd
       0.04500441 0.03570899 8.571697e-05 -0.09758062
0003f0 a7 fa 50 bd 22 fe 13 bc de 2b 16 bd cc 6a 60 bc
       -0.05102029 -0.009032758 -0.03666293 -0.013697337

fc2.bias f4 [300]
000000 0c 06 89 bd 07 c4 07 be 1c 97 25 bd 26 29 b9 bd
       -0.066906065 -0.13258372 -0.040427312 -0.090410516
000010 75 cf 0b be 5e 8c b4 bd db a7 aa bd d0 f0 1f be
       -0.13653357 -0.088158354 -0.08332797 -0.15619206
000020 26 9d 14 be c9 d8 18 be 2b e2 98 bd f7 45 22 be
       -0.14513072 -0.14926447 -0.07465013 -0.15847002
000030 62 71 24 be 21 4f e2 bd fb 83 4c bd 46 94 06 be
       -0.16058877 -0.11050249 -0.049930554 -0.131425
000040 e4 28 89 bd ae ec 52 be a8 c6 d6 bd 76 df 33 bd
       -0.066972524 -0.20598099 -0.104871094 -0.04391428
000050 51 16 87 bd d6 36 c5 bd 32 c4 83 bd 72 aa d7 bd
       -0.065960534 -0.096296 -0.06433906 -0.10530557
000060 de 58 d2 bd d6 e4 b6 bd 10 53 e1 bd ed 8e 3c bd
       -0.10270856 -0.08930366 -0.11002171 -0.046034742
000070 03 75 31 bd d1 a2 ee bc 70 03 18 be 65 62 09 be
       -0.04332448 -0.029130371 -0.14845061 -0.13416441
000080 99 70 c0 bd 8c e9 9b bd c8 04 18 be 99 c5 0c be
       -0.09396476 -0.07612905 -0.14845574 -0.13747253
000090 4b 83 b0 bc 84 5c 88 be b4 90 b1 bd c1 6b 44 be
       -0.02154698 -0.26633084 -0.08670178 -0.1918173
0000a0 03 47 a7 bd 8d 26 87 bd 6f 66 90 bd f2 50 cc bd
       -0.08167841 -0.0659915 -0.07050788 -0.099763766
0000b0 b5 ea 4d be b1 08 98 bd 0a 7e 38 bd 0b ff fb bd
       -0.20109065 -0.07423533 -0.045042075 -0.12304505
0000c0 64 31 18 be 10 37 fa bd 88 02 14 bd df 56 00 be
       -0.14862591 -0.122175336 -0.036135226 -0.12533139
0000d0 12 a4 3d be dd 26 89 bd 50 ac 80 bd f1 23 f4 bd
       -0.18519619 -0.06696866 -0.06282866 -0.11920918
0000e0 3b 09 e4 bd 5a f2 65 bd bb 06 9c bd 72 7a 41 be
       -0.11134573 -0.056139328 -0.07618471 -0.18894365
0000f0 a6 d3 13 be f1 12 71 bd 1d 19 eb bd 16 a7 69 bd
       -0.14436206 -0.058855955 -0.11479399 -0.05704411
000100 68 b8 f6 bd 2f 0d 76 bd 45 09 00 be 9c 51 e0 bd
       -0.120468915 -0.060071167 -0.12503536 -0.10953066
000110 85 3a a9 bd cb 05 59 be bc fe aa bd 47 74 fe bd
       -0.08263115 -0.21193616 -0.08349368 -0.12424522
000120 7d 87 d7 bd 9d dc 08 be d5 ec a3 bd bd 88 0b be
       -0.10523889 -0.13365407 -0.080041565 -0.1362638
000130 0a db e3 bd 7d 0d ef bd b3 4e 11 be 91 6b df bd
       -0.11125763 -0.116724946 -0.14190178 -0.109091885
000140 12 07 d6 bc 44 3b d3 bd f6 3b 1b be 9a bd 1b be
       -0.026126418 -0.103140384 -0.15159592 -0.15209046
000150 7d 2d 04 be 72 0a 96 bd b0 77 55 bd 5d a3 07 be
       -0.12907977 -0.07326211 -0.052116096 -0.13245912
000160 f2 7d 2b be 8f 30 12 bd 23 53 f6 bd d1 11 c7 bd
       -0.16747263 -0.03569084 -0.12027576 -0.09720195
000170 e0 df 86 bd 9f 44 7d bd eb 9c 9f bd 05 1a 05 be
       -0.065856695 -0.06183302 -0.077936016 -0.12998207
000180 e9 d8 b1 bd f4 95 ad bd 1c 0b 2a be 7a ef 02 be
       -0.086839505 -0.08475867 -0.166058 -0.12786666
000190 d8 e4 6c be ce f3 0b be 2b 43 e7 bd 55 3e c8 bd
       -0.23134172 -0.13667223 -0.11292108 -0.09777514
0001a0 a8 77 ba bd b2 07 f6 bc 3d 22 11 be 89 b0 c7 bd
       -0.09104854 -0.030032966 -0.14173217 -0.09750468
0001b0 ac a4 a0 bd 08 8c ac bd 15 77 05 be 7d 89 44 be
       -0.07843909 -0.08425146 -0.13033707 -0.19193073
0001c0 88 42 c0 bd 03 74 4f be c4 26 b9 bd 5f 69 21 be
       -0.0938769 -0.20259099 -0.09040597 -0.15762852
0001d0 75 d2 ac bd d6 61 0b be 7c 3b e9 bd 98 64 c6 bd
       -0.08438579 -0.1361154 -0.11388299 -0.096871555
0001e0 24 70 18 be df e9 51 be 6c 00 08 be 94 fe 0f be
       -0.14886528 -0.20499371 -0.13281411 -0.14061958
0001f0 af 77 18 bd 28 4b 38 be e1 91 25 be 46 07 08 be
       -0.037223514 -0.1799742 -0.1616893 -0.13284025
000200 67 1b ff bd eb fb 1b bd 7d fa f2 bd e2 ec d6 bd
       -0.124563985 -0.038082045 -0.11864183 -0.104944006
000210 10 00 ed bd 5c ce 1a be d4 9d 39 be 3e 08 a9 bd
       -0.115722775 -0.15117782 -0.18126613 -0.08253525
000220 56 02 06 be 5f 01 0c be 36 6c d3 bd d1 99 3c be
       -0.13086829 -0.13672398 -0.10323374 -0.18418051
000230 cb 5e ab bd ff bc 98 bd 0a e5 71 bd a2 69 06 be
       -0.0836769 -0.07457923 -0.05905632 -0.13126233
000240 47 e3 81 bd d8 81 1e be ff df f6 bc 48 1a 7c be
       -0.06342178 -0.15479219 -0.030136107 -0.246194
000250 42 f6 a7 bd f7 2e a3 bd 2b 35 0c 3e 6a de f8 bd
       -0.08201267 -0.07967942 0.13692157 -0.12151797
000260 52 73 09 be 0f e9 b8 bd 14 e7 17 be 95 72 c0 bd
       -0.13422897 -0.090288274 -0.14834243 -0.09396855
000270 ac d8 09 be ba 9a e3 bd bd c3 02 be 91 b8 b9 bd
       -0.1346156 -0.11113496 -0.1276998 -0.090684064
000280 5d af d7 bd 61 70 d8 bd 75 93 8e bd 1b 1d 3d be
       -0.10531495 -0.105683096 -0.06961719 -0.18468134
000290 92 56 30 3c ce 35 f1 bd a2 40 75 bd 8f 7c 8c bd
       0.0107628275 -0.117778406 -0.05987609 -0.06859695
0002a0 4f 79 ed bd ea a0 0f be 6c 96 d9 bd fe 5f c1 bd
       -0.115954034 -0.14026228 -0.10624394 -0.09442137
0002b0 36 d9 10 be 34 78 36 be 5b 0a 1b be 86 e4 97 bd
       -0.1414536 -0.17819291 -0.15140669 -0.07416634
0002c0 48 2b e3 bd 9d 20 05 be ed b2 c7 bd 0e 31 d4 bd
       -0.110922396 -0.13000722 -0.09750924 -0.10360919
0002d0 f8 2d be bd 3c 95 bb bd 4b f9 f1 bd bb d1 b7 bd
       -0.092861116 -0.091593236 -0.11815127 -0.0897555
0002e0 a8 6b db bd 2c 5a cb bd 81 7d d5 bd 09 68 c4 bd
       -0.10713893 -0.09929308 -0.104243286 -0.09590156
0002f0 ad b3 c9 bd 9c 55 ab bc 35 10 d1 bd 24 d7 9e bd
       -0.098487236 -0.020914845 -0.10208169 -0.077558786
000300 03 1a 21 be f2 57 25 be 04 b5 20 bd 51 79 56 be
       -0.15732579 -0.1614683 -0.03923513 -0.20944716
000310 d9 85 18 be 86 62 ca bd 17 fb 03 be bc d5 f4 bd
       -0.14894809 -0.09882073 -0.12888752 -0.11954829
000320 74 83 73 be 8c a4 7f bd 8e b8 d6 bd 72 b9 a4 bd
       -0.23780614 -0.062412784 -0.1048442 -0.080431834
000330 c9 0d 9a bd bc 50 70 bd 29 f2 18 be e5 6a e5 bd
       -0.075221606 -0.058670744 -0.14936127 -0.11202029
000340 d3 3b e7 bd 85 92 11 be 73 0e e1 bd 45 ec 88 bd
       -0.112907074 -0.14216049 -0.10989084 -0.0668569
000350 e3 c4 cf bd 16 17 91 bd 20 24 08 be 9c 22 09 be
       -0.10144975 -0.070844814 -0.1329503 -0.13392109
000360 46 e6 b4 bd 29 1b 37 bd 55 70 ad bd 57 85 fb bd
       -0.08832984 -0.044703636 -0.08468691 -0.12281292
000370 5e 14 91 bd 83 da 0e be 71 d3 f9 bd 1b 27 09 be
       -0.07083963 -0.13950543 -0.121985324 -0.13393824
000380 d9 ae e7 bd 52 c8 a0 bd 14 5f 01 be 91 29 c0 bd
       -0.113126464 -0.07850708 -0.12633926 -0.09382928
000390 13 87 e1 bc 9f 6f 27 be 8e 92 ca bd a1 5f b5 bd
       -0.027530229 -0.16351174 -0.09891234 -0.088561304
0003a0 42 8c 15 be 33 8e 2c be 3e d4 f3 bd a2 c7 db bd
       -0.14604285 -0.1685112 -0.11905716 -0.10731436
0003b0 0e 6b 24 be ce cd 2b bd 29 47 25 be a3 0e 0b be
       -0.16056463 -0.041944318 -0.16140427 -0.13579802
0003c0 42 e8 de bd 4b 3a 30 be 54 9a aa bd 57 9d aa bd
       -0.108841434 -0.17209737 -0.08330217 -0.083307914
0003d0 0b a6 09 be bd d9 6a bd c1 73 1f be 9f 40 a4 bd
       -0.13442247 -0.057336558 -0.155715 -0.08020138
0003e0 a9 c0 f0 bd 07 60 aa bd 0d 35 49 be 1c 31 07 be
       -0.11755497 -0.08319097 -0.19649144 -0.13202327
0003f0 6e 1a bf bd aa b7 ee bd f7 f8 bb bd 02 7d 12 be
       -0.09331213 -0.11656125 -0.09178346 -0.14305499

fc3.weight f4 [1, 300]
000000 f0 e2 5a 3b 71 68 14 3c 5c b1 93 3c da b0 40 3b
       0.0033399425 0.009058104 0.018028907 0.0029402287
000010 00 cb 7a 39 91 d1 30 3c 0c c9 e0 3c 5f 1f 30 bc
       0.00023917481 0.010792152 0.027439617 -0.010749667
000020 85 de 6a 3c e7 aa db 3c cb 07 70 3c 68 8c 4d 3b
       0.014335279 0.026814891 0.0146502955 0.0031364206
000030 f1 1a 69 3c ae ef 35 3b 58 25 a6 3b 2d 12 f0 bc
       0.014227615 0.0027761268 0.0050703697 -0.029305542
000040 95 64 14 bc 8c e6 9a 3c d3 35 c5 bc 45 7e c0 3b
       -0.009057184 0.018908761 -0.024073517 0.0058744275
000050 a8 3f e6 3c 9c 36 30 3c 1f 9c 6a bc 41 85 aa bb
       0.028106526 0.010755207 -0.014319449 -0.0052038734
000060 e5 79 c3 3c 51 e4 5d 3b 78 ad d2 bc 24 ff 8d 3b
       0.023861835 0.003385801 -0.025717482 0.0043333936
000070 8c 7c e7 3c ea be 27 3b f0 8a b4 bc c8 77 93 3b
       0.02825763 0.0025595971 -0.022038907 0.004500363
000080 c9 69 81 ba 77 1a be bc 46 8d ac 3c a4 9a 1c bb
       -0.0009873445 -0.023205979 0.021063458 -0.0023895884
000090 ae b8 34 bc c4 a5 81 bc 0e d2 af 3b dc 7c 33 bc
       -0.011030359 -0.015826114 0.0053656166 -0.010955062
0000a0 2f d5 a4 3c 62 99 16 3b d9 97 66 bc db 09 a2 bb
       0.020121185 0.0022979607 -0.014074289 -0.0049450225
0000b0 72 6c eb bc 45 00 d2 bc 2a 1a 77 bb 96 3d 96 bc
       -0.028738234 -0.025634894 -0.0037704804 -0.018339913
0000c0 20 15 09 ba 62 54 37 3c 4b 6d d4 3c 08 4c ba bc
       -0.0005229283 0.011189552 0.025931021 -0.022741333
0000d0 ce 56 80 3b 84 15 db ba 9a 38 f9 3b 59 f5 e6 3b
       0.003916598 -0.0016714786 0.0076056244 0.0070482907
0000e0 e8 ae 1b 3c 29 65 11 bc 35 0a be 3b b5 bf af bc
       0.00950215 -0.008874216 0.0057995566 -0.021453718
0000f0 e5 7b e3 3c 79 40 8b bb 0c 77 2d bb 19 1d 00 3c
       0.027769038 -0.004249629 -0.0026468663 0.007819437
000100 f8 88 75 bc 61 0b 06 bd c7 2c 3e 3c 87 7d 8a ba
       -0.014986269 -0.032725696 0.011607355 -0.0010565975
000110 90 d2 cf 3c be 79 ec bb 57 eb 60 bb 0b 99 9d bc
       0.025368959 -0.0072166612 -0.003431996 -0.019238016
000120 55 2a 6b 3c 54 90 82 3c 65 cf 86 3c c1 73 86 bc
       0.014353354 0.015937962 0.016456315 -0.016412618
000130 64 a3 0c 3d 0f 90 94 3b 8d ba ac bb c2 12 a6 3c
       0.03433551 0.0045337747 -0.005271262 0.020272616
000140 0d 25 4a 3c 5c 90 c0 3c 96 2c 48 3c fa 42 1d bb
       0.012337935 0.023506336 0.012217661 -0.002399622
000150 6e f0 b5 3b 2f 0c da 3c 5f fe a9 3c 05 70 12 3d
       0.005552343 0.026617138 0.020751176 0.03575136
000160 76 56 a4 bc 32 a6 91 3c 1a 4c c1 3c ae 0b dd ba
       -0.020060759 0.017779443 0.023595858 -0.0016864443
000170 83 b6 b9 3c ff 36 f3 bb 10 4e a7 3c 0d c4 c4 bb
       0.022670036 -0.0074223275 0.020422965 -0.0060048164
000180 02 0f b8 bc 57 8f a4 bc 2a 94 e8 3c d0 06 cd 3c
       -0.022468094 -0.020087881 0.028390963 0.025027663
000190 3f ca db 3c 89 86 6e bb 63 dd 88 3b d4 ef e5 3c
       0.026829837 -0.0036396107 0.004176782 0.02806846
0001a0 cd c5 cb bc d1 5c cc bc 4f d6 97 3c 8b a7 53 3b
       -0.024874592 -0.024946602 0.018534807 0.0032295908
0001b0 55 a5 81 bb d4 bb a5 bc 58 24 f2 bc fe 9e 0c 3c
       -0.0039564767 -0.020231165 -0.029558346 0.008582829
0001c0 9b 1c 0c 39 a9 ce b2 3c 12 e4 8e 3c 58 59 c1 bc
       0.00013362097 0.021827059 0.017442737 -0.023602173
0001d0 cc c6 80 3c 55 9c a1 bc ae 08 88 bc 3b 0c ee bb
       0.015719794 -0.019727865 -0.016605701 -0.0072646416
0001e0 0e 71 ba bc 42 f8 7a 3b 6c 36 ff 3a bc c7 a8 bc
       -0.022758987 0.0038294946 0.0019471175 -0.020603053
0001f0 df 2e 54 bb e5 4b f1 bc 93 22 18 3c a3 92 02 3d
       -0.003237657 -0.029455135 0.009285587 0.031878125
000200 ab d1 97 3c 13 00 6c bb 08 75 1b 3c 72 86 25 bc
       0.018532595 -0.0036010786 0.009488352 -0.010102855
000210 0c 0d ab 3a 46 0f 55 bc 5a aa 3a 3c bb 1b 6c bc
       0.0013050153 -0.01300413 0.011393154 -0.014410908
000220 6e 52 c2 3c f6 be 65 3a 83 29 72 bc 6e 70 f5 bc
       0.023720946 0.0008764112 -0.014780405 -0.029960837
000230 37 a0 c4 37 22 cb 2d bc d8 77 25 bc a8 fa 54 3c
       2.3439627e-05 -0.010607513 -0.010099374 0.012999214
000240 4a 29 4b 3c 0a 58 a4 bc 89 38 dd bb 27 ad 84 bc
       0.012399981 -0.020061512 -0.0067511243 -0.016195847
000250 06 68 56 3b 96 48 2a bb 08 7c a3 bc 5d e4 a6 3c
       0.0032715811 -0.0025983206 -0.019956604 0.020372564
000260 4b 1c be bc 01 ae 69 bc 70 a5 90 bb ce b0 11 bc
       -0.02320685 -0.014262677 -0.004414253 -0.008892251
000270 71 ac b9 3a 38 c3 a9 3c 21 ce 9a 3b 5f 6b 48 bc
       0.0014165771 0.02072297 0.0047242795 -0.0122326305
000280 95 fc 4d 3c 00 7e 82 bc 6e 3d 06 bc 8f 11 83 bc
       0.012572427 -0.015929222 -0.008193357 -0.015999584
000290 90 54 c5 bc 7d 2f 2a 39 73 49 6e 3b b0 5b a5 bc
       -0.024088174 0.00016230154 0.0036359697 -0.020185322
0002a0 b7 42 ec 3c 92 90 8e bc 02 fe 50 bc 05 f7 80 ba
       0.028840406 -0.01740292 -0.012755873 -0.0009839243
0002b0 12 1e 0e 3d 12 aa 16 3c 6c f6 c2 3c 57 e0 c3 3c
       0.034696646 0.009195821 0.023799144 0.023910685
0002c0 f9 2b 69 bc 5e 1a a6 3b 35 f9 c5 3c f7 55 1a bb
       -0.014231675 0.005069061 0.024166683 -0.0023549774
0002d0 bd 1c c0 3c 03 2c 12 bc 71 a5 a2 3b b4 fb a2 bb
       0.023451203 -0.008921626 0.00496357 -0.004973853
0002e0 7e 51 f7 3a c8 d6 c5 3c 37 15 0f bc eb 92 ef bb
       0.0018868891 0.024150267 -0.008733085 -0.007311215
0002f0 92 95 b5 3c c9 46 eb bc 38 f5 84 bc 79 b6 bc 3a
       0.022166047 -0.028720276 -0.01623021 0.0014397643
000300 fe 54 a1 3c 94 8e c3 bc 57 2f 8e bc c9 86 0b bc
       0.019693848 -0.023871697 -0.017356558 -0.008516022
000310 00 f4 04 3b cd dc a3 3c b9 b3 76 3c 57 1a b7 bb
       0.0020287037 0.020002747 0.015057498 -0.0055878568
000320 7b aa 07 3d 1d 3d 67 bc 70 9a eb bb 05 3e a1 3c
       0.033121567 -0.014113692 -0.0071900412 0.019682894
000330 3a d2 1d bc 04 9e 40 bc ce 61 6e bc bc f1 8b bc
       -0.009632641 -0.011756424 -0.014549686 -0.017083041
000340 72 90 58 3c ec 2f 8c bc 75 f7 19 3c 54 af ba 3c
       0.013218032 -0.017112695 0.009397377 0.022788681
000350 d3 dd 99 bc 4a 3c ba bc c0 31 84 ba dd de 7c 3c
       -0.018782532 -0.022733826 -0.0010085627 0.015433994
000360 9f 0e 7a 3c 37 ee 88 3b 40 ea a0 ba f3 4c 49 3c
       0.015262275 0.004178788 -0.0012276843 0.0122864125
000370 05 f5 37 3c 12 31 81 bb 02 68 e5 3b 17 ed c3 ba
       0.011227851 -0.003942617 0.007000924 -0.0014947978
000380 e8 4a ad 3c 8a 26 ca bc 10 d1 5f 3c c5 64 2c bb
       0.021153882 -0.02467658 0.013660684 -0.002630518
000390 91 e2 55 ba 13 69 99 3c d9 51 09 bc 5a 06 87 3b
       -0.0008159066 0.018726861 -0.00838133 0.00412063
0003a0 ca b4 3c bc c6 49 45 3c d2 08 bd 3c db 41 58 3b
       -0.011517713 0.012041515 0.023075495 0.0032998237
0003b0 dd dd 3c bc 98 63 35 3d 34 6d a8 ba 38 c0 b7 3a
       -0.011527506 0.044284433 -0.0012849928 0.0014019078
0003c0 b2 ba b2 3c 6a 4c 92 bb 69 9f 37 ba 74 a5 b0 3c
       0.021817539 -0.0044646757 -0.000700465 0.02156327
0003d0 cb 1a 72 bc 3d 1e b7 3b 63 b5 ee 3c ac 19 2d bc
       -0.014776896 0.0055883215 0.029139226 -0.010565203
0003e0 a2 06 0d 3c ff 12 04 bc 45 2f 07 3d 23 26 c1 bc
       0.008607538 -0.00806117 0.033004064 -0.023577755
0003f0 7c c0 9e 3b 1d 7e b3 3c c7 37 f6 39 21 88 6a bc
       0.0048447233 0.021910721 0.00046962334 -0.014314682

bn1.weight f4 [400]
000000 da 8c 27 3f 62 23 34 3f 65 88 57 3e 19 22 73 3e
       0.654493 0.7036649 0.21048124 0.23743476
000010 84 d7 9b 3d f3 74 e1 3d 62 ba 4f 3e 0b 82 44 3e
       0.07609466 0.110086344 0.20285943 0.19190232
000020 dc 95 95 3e a2 95 66 3f b2 bf a8 3e 53 14 2d 3e
       0.29215896 0.9007207 0.32958752 0.16902284
000030 aa 1b 9a 3e 75 94 f6 3d a4 3d 93 bb 48 66 41 3e
       0.3009923 0.12040035 -0.004493432 0.18886673
000040 8c 93 a0 b9 4f f2 c7 3e 46 21 97 bd 02 f3 13 bb
       -0.0003062751 0.39052054 -0.07379393 -0.0022575264
000050 04 77 44 3f 60 f4 1a 3f 9d 65 5b 3e 85 c1 0b 3e
       0.76744103 0.60529137 0.21425481 0.1364804
000060 9e ed 38 3e 8c e2 e5 3d b6 3a 07 3e af aa bf 3a
       0.18059394 0.11224851 0.1320599 0.0014623011
000070 7d 2d 9f 3e e3 c8 c3 3e db 9c 62 3e a8 a4 f6 3e
       0.31089392 0.38239202 0.22130148 0.48172498
000080 f8 bc bf 3d 16 1e b7 3d 58 4e 0f 3f 39 3a 6b 3e
       0.09362215 0.08941285 0.5597892 0.22971429
000090 6e 4d 33 3e 6d db 1f 3f 4b c8 90 3e 21 fc 8c 3f
       0.17510006 0.6244419 0.2827781 1.1014444
0000a0 d1 3b 69 3a 93 41 3e 3d 2b 28 b9 bd cc d9 a1 3e
       0.0008897158 0.046449255 -0.090408646 0.31611478
0000b0 11 65 29 3e ab 3c 0f 3e 38 6a a4 bd b1 c2 53 3b
       0.1654246 0.13987987 -0.08028072 0.003231209
0000c0 f5 bb 1b 3e 96 96 08 3e 6a e2 b7 3e ee ec e6 3a
       0.15208419 0.13338694 0.35914928 0.0017618218
0000d0 05 0f ae 3e e3 ed 92 3f 87 36 27 bc b4 26 1d 3e
       0.33995834 1.1478847 -0.010205871 0.15346795
0000e0 1f 5e 1a 3e 86 27 0b 3e fd 12 1f 3e 67 7a 78 3e
       0.15074967 0.13589296 0.15534587 0.24265443
0000f0 b5 27 9f 3a ef 0a 10 3e 99 2d 8b 3d 0a 67 63 39
       0.0012142571 0.14066671 0.067958064 0.00021686792
000100 56 45 e8 3d b6 0d 57 3e ff dc 83 3e 30 5e 26 3e
       0.1134135 0.21001324 0.25754544 0.16246867
000110 6a 5f 95 3e 77 e6 2e 3e a9 58 25 3e 44 1c 65 3e
       0.29174358 0.17080103 0.16147102 0.22374064
000120 fc f2 b7 39 1b 9e bd 3e 03 9b 52 3e c8 4e 27 3e
       0.00035085517 0.37034687 0.20566945 0.16338646
000130 5f 82 3c bb de e9 07 3e 28 c6 97 3d b3 fc 8c 3e
       -0.002876423 0.13272807 0.07410842 0.27536544
000140 7a b0 7f 3e 07 56 51 3f 83 7a 97 3e 19 e1 a0 3e
       0.24969664 0.8177189 0.29585657 0.31421736
000150 e7 c0 49 3e 66 b2 0a 3e f4 fd 0a 3e 9c 95 03 3e
       0.19702493 0.13544616 0.13573438 0.1285004
000160 f8 35 95 3f 7a a4 00 3e 04 32 80 3e 03 1e 14 3c
       1.1657095 0.12562743 0.2503816 0.0090403585
000170 d2 e4 7a 3e 95 99 35 3e 31 04 22 3e 5f d3 13 3d
       0.2450135 0.17734368 0.15821911 0.03609025
000180 66 34 ff bc 5f 46 a7 3e 84 00 0c 3e a5 79 8b 3b
       -0.031152915 0.32670876 0.13672072 0.0042564445
000190 9e 18 5b 3e c1 93 37 3e ea 84 1e 3e da b2 e5 3e
       0.2139611 0.17927457 0.1548039 0.44863015
0001a0 5f 70 e4 3d 8d a4 95 3d 1a 2e 02 3e 54 6f b7 3d
       0.111542456 0.07306776 0.12712899 0.08956781
0001b0 5d 81 2e 3e 5e d8 3d 3e 3a 1a 3a 3f 9c 0d fe 3d
       0.17041536 0.18539569 0.7269627 0.124049395
0001c0 a5 df 39 3f 9e 46 ff 3e 43 5d e9 3e cf f6 31 3e
       0.7260688 0.49858564 0.45578966 0.17379306
0001d0 c0 bb 0c 3f ec cd 6e 39 3e e7 07 3e 82 10 b4 3e
       0.54973984 0.0002277416 0.13271806 0.35168844
0001e0 9e d0 65 3e 54 14 f3 3a 71 1b 1a 3e 5d a6 df 3e
       0.22442862 0.0018545487 0.1504953 0.43681613
0001f0 d4 27 73 3e f7 a0 07 bd 00 c4 a6 3d c8 f0 06 3a
       0.23745662 -0.033112492 0.08142853 0.00051475735
000200 96 0e 66 3d 7c c2 bb 3e 61 b2 c7 3d c9 ac ff 3d
       0.056166254 0.36671817 0.0975082 0.12484128
000210 45 c7 00 3f f3 3e 97 3d 81 d6 d9 3e 74 d5 0a 3d
       0.5030406 0.073850535 0.42546466 0.03389497
000220 60 69 0d 3e 1e a3 45 3e e4 67 d6 3d 58 16 34 3e
       0.13809729 0.19300506 0.10469034 0.17586648
000230 75 8f df 3e 73 46 a0 3e b9 eb 18 3f 85 c0 eb 3d
       0.43664137 0.31303748 0.59734684 0.115113296
000240 74 e6 e9 3e 4b 71 51 3f af 93 4b 3f c0 b1 68 3e
       0.45683634 0.81813496 0.7952222 0.22724056
000250 25 22 9e 3c 70 42 ae 3e d0 f6 e1 3d 12 97 09 3e
       0.01930339 0.34035063 0.11033404 0.13436535
000260 39 71 23 3f 8d 59 2d 3f f2 54 eb 3e ae 37 90 3e
       0.6384464 0.6771477 0.45963246 0.2816748
000270 02 c0 a9 3e 27 ff 50 bb ce 0f 64 3e 65 b6 47 3e
       0.33154303 -0.0031890364 0.22271654 0.19503172
000280 18 b9 94 3e c4 13 58 3e 35 c2 56 3e 4b 4f b7 3e
       0.29047465 0.2110129 0.20972522 0.35802683
000290 1e 9d 77 3e f0 65 95 3e c7 f3 16 3f 70 63 b3 3a
       0.24181029 0.29179335 0.58965725 0.0013686251
0002a0 4d 58 12 3e cd 82 b9 3e bd 02 10 3e 38 5c d9 3b
       0.14291497 0.36232606 0.14063545 0.006633308
0002b0 f9 b9 ce 3d 44 fc a2 3e 03 bc 72 3e d6 b2 52 3e
       0.10094065 0.31833088 0.23704533 0.20576033
0002c0 2d b9 2d be 75 81 4f 3e c2 5e 3f 3d ae 91 2e 3d
       -0.1696517 0.20264228 0.046721227 0.0426194
0002d0 73 6c de 3d 54 5b ef b9 87 e3 b9 3d 68 d6 1a 3e
       0.10860529 -0.00045653677 0.090766005 0.15120852
0002e0 ef 78 fc ba 4a b6 b7 3d 9b b0 c0 3d 57 d5 fa ba
       -0.0019262115 0.08970316 0.09408685 -0.0019137067
0002f0 ea 36 05 3f 7b 70 1c 3f 59 f4 8b 3e 9a 7b 47 3e
       0.5203692 0.6110913 0.2733486 0.19480744
000300 09 3a ea 3d a9 10 04 3e b9 4d 83 3e 8b 68 07 3f
       0.114368506 0.1289698 0.25645235 0.52893895
000310 4a b1 1e 3e 75 92 51 3e 72 e9 eb 3e 6d ae a1 3e
       0.15497318 0.20466025 0.46076542 0.3157839
000320 92 dd c5 3d 0e 8a 25 3e 2f ee d0 3e 70 21 a7 3c
       0.09661402 0.16165945 0.4080672 0.020401686
000330 c2 be 12 3e b4 ee 0d 3e f9 9f 43 3a 51 8b 98 3e
       0.14330581 0.1386059 0.00074624975 0.2979379
000340 c1 05 a8 3e 76 9d a8 3e 2e 09 da 3d fb 50 d7 3d
       0.3281689 0.32932633 0.10646282 0.10513493
000350 bf 1a 7f 3e 23 64 85 ba 9a b2 cb 3d 9b ad 88 ba
       0.24912547 -0.0010176938 0.09946175 -0.0010427715
000360 6a 13 e7 3b 0f 11 30 3e f5 3d 45 b9 98 1a a0 3e
       0.007051875 0.17194007 -0.00018810465 0.3127029
000370 a0 37 40 3e b2 ed e3 3e b7 68 33 3b d1 5f 95 3f
       0.18771219 0.44517285 0.0027375647 1.1669866
000380 a0 57 27 3d 2b 43 b7 3b 1e 85 68 3e c5 b8 89 3e
       0.04085505 0.005592724 0.2270703 0.2689878
000390 12 85 f9 3d 9b 97 2c 3e 48 07 3f 3d f1 db eb 3c
       0.12183584 0.16854708 0.046637803 0.0287914
0003a0 45 55 73 3b 1d a4 53 3e ac 09 1d 3e 23 ab 82 3d
       0.0037129682 0.20668073 0.15335721 0.06380298
0003b0 68 e0 5a 3e 3f 98 18 bb 7b 7f 8d 3e 23 43 d6 3e
       0.21374667 -0.0023284105 0.27636322 0.41848096
0003c0 d9 a8 d1 b9 bc c4 e4 3e de fd 35 3e 61 3e be 3e
       -0.00039989388 0.44681346 0.17772624 0.37156966
0003d0 fa 09 95 3e 68 54 ec 3d df 71 60 3d ab 5b 22 3e
       0.29109174 0.11539537 0.054796096 0.15855281
0003e0 5d 72 31 3b 53 2e 07 3e 61 2d d8 3d 86 0a 53 3b
       0.0027076222 0.13201265 0.1055553 0.0032202317
0003f0 e2 0f c2 3c 0c 95 52 3e 5d 84 7e 3d 44 5e 15 3f
       0.023689214 0.2056467 0.06213795 0.5834696

bn1.bias f4 [400]
000000 19 bd 8d 3e 27 a7 a9 3e 54 5a ee 3d f6 d7 f7 3d
       0.27683333 0.3313534 0.116383225 0.12101738
000010 2d 14 0b 3c 00 98 e0 3c e7 57 01 3e cb 47 d0 3d
       0.008488697 0.02741623 0.12631188 0.101699434
000020 e2 54 fe 3d 22 56 1d 3e f5 bc 4a 3e a7 7e 76 3d
       0.12418534 0.15364888 0.19798644 0.06017938
000030 99 19 2a 3e 11 d3 38 3b dc 4a 00 ba d3 4c 38 3d
       0.16611327 0.0028201977 -0.00048939674 0.04499514
000040 82 fe b8 38 f9 38 60 3d 82 3f 5b 3e bc c7 60 ba
       8.8212095e-05 0.054741833 0.21410945 -0.00085746846
000050 d3 b5 e2 3d 40 b9 84 3d a3 df 0c 3d 4a ab 86 3d
       0.110698365 0.06480646 0.034392964 0.065756395
000060 2c db 03 3e 1a 8d d9 3c d5 ac 4d ba 63 99 c9 3c
       0.12876576 0.02655654 -0.00078458834 0.024609273
000070 80 dc 53 3e 4e d1 12 3e 5a 3a 9c 3c c7 4e e3 3d
       0.20689583 0.14337656 0.019070793 0.1109901
000080 6d 4e 48 3d b9 d5 80 be 71 94 60 3e 97 c4 97 3d
       0.048902918 -0.25163057 0.21931626 0.074105434
000090 fb 27 80 3d 03 7a 2a bd 6a 84 bf 3d 8b 1a 89 3e
       0.06257626 -0.041620266 0.09351428 0.26778063
0000a0 b8 d3 0c bb d5 24 d2 38 73 60 87 bc da d0 52 3e
       -0.00214885 0.00010020441 -0.016525483 0.20587483
0000b0 d8 f7 93 3d 7b cc 48 3d 11 57 05 bb ee 49 e0 ba
       0.07225007 0.049023133 -0.0020346085 -0.0017111877
0000c0 a4 06 4c 3d 1c 71 84 3c d6 ba 01 3d 13 70 f3 ba
       0.04981102 0.016167216 0.03167232 -0.001857283
0000d0 02 dd 52 3e f2 fd 8a 3e 4e bd c3 3a 69 cf 11 3d
       0.2059212 0.2714687 0.0014933737 0.035598192
0000e0 9f dc 85 3d 9f ac 58 3d 3d e9 c1 3b 44 4c 30 3d
       0.06536221 0.052899 0.0059176967 0.043041483
0000f0 64 a4 51 3a 94 64 e4 3c ec f2 f5 bc 72 7a fd 39
       0.00079972134 0.02787999 -0.03002306 0.0004834715
000100 38 6e 34 3d a0 b5 25 3d d1 b7 08 3e 06 8b 92 3e
       0.044050425 0.040456414 0.1335137 0.2862169
000110 f0 f2 2b 3e 5d ea 91 3d d0 5e a8 3c 09 3b 74 3d
       0.16791892 0.071247794 0.020553023 0.059626613
000120 af 83 35 bb 39 6e b4 3d 6a 32 1d 3d a8 3d 7c 3d
       -0.0027696898 0.08810086 0.038378157 0.061582237
000130 e1 73 da b6 16 80 cf 3c b4 b7 95 bc aa 9e f3 3d
       -6.5103964e-06 0.02532963 -0.018276073 0.11895497
000140 9e 4c 6e 3d 8a c1 82 3e dc d8 00 3e 8e 64 c8 3d
       0.058178537 0.25538284 0.12582725 0.09784804
000150 ba 31 ee 3c 89 9b dc 3c 6e 0b 83 3d 9b 83 0b 3d
       0.029076446 0.026929634 0.063986644 0.034061056
000160 b2 13 87 3e 55 f7 ce 3b 16 e4 2b 3d d7 f4 85 3b
       0.26382214 0.0063161054 0.041965567 0.004088025
000170 b5 20 90 3d 84 b4 04 3e 05 2c 06 3d 01 3a ce bc
       0.07037488 0.12959486 0.032756824 -0.025174143
000180 54 1c 92 be a6 fc ab 3d d9 21 1c 3d 9b 95 89 3a
       -0.28537238 0.08397798 0.038118217 0.0010496856
000190 6d 96 e3 3d 9e 5b 25 3e 95 d3 43 3e 9f 02 67 3e
       0.11112676 0.1614823 0.19123681 0.22559594
0001a0 bb 4a 21 bd e1 ff 4d be 25 7d 2d 3d dd e5 91 3c
       -0.03937791 -0.20117141 0.042355675 0.017809803
0001b0 6c 9b 0c 3d b1 69 16 3e 3e b5 8f 3e 09 a3 fc 3c
       0.03432791 0.14688756 0.28067964 0.03083946
0001c0 a0 70 84 3e 23 55 6f 3e 6c 93 37 3e fc f4 1e 3d
       0.25867176 0.23372321 0.1792733 0.038807854
0001d0 e3 9c 16 3e d8 5e 5a bb 92 92 a0 bd 04 39 25 3e
       0.14708285 -0.0033320691 -0.07840456 0.16135031
0001e0 5d f5 71 3d b3 87 64 b9 01 6f f6 3d eb c4 0b 3e
       0.059071887 -0.00021794326 0.12032891 0.13649337
0001f0 57 5d 52 3d 70 87 28 be 41 b9 9f bb d5 cd 04 3b
       0.051358547 -0.16457915 -0.004874379 0.0020264287
000200 50 83 c9 3c 53 90 18 3e 42 d9 e5 3c 75 93 a8 3c
       0.024598747 0.14898805 0.028057698 0.020578125
000210 99 81 5c 3e e3 86 73 3c 6c c4 f1 3d 09 3e 21 3c
       0.21533813 0.0148637025 0.118050426 0.0098414505
000220 32 d4 27 bc b3 45 15 3e 6b 1f f0 3c 01 8d 8e 3c
       -0.010243462 0.1457737 0.029311856 0.01740122
000230 9b ee c1 3d 3e c3 e4 3d b0 11 3d 3e d4 50 27 3d
       0.094693385 0.11170052 0.18463778 0.040848568
000240 8e 1f 53 3e 10 25 30 3d 74 51 b6 3e c3 b0 9d 3d
       0.20617506 0.043004096 0.3560902 0.0769973
000250 bc 80 0b be 98 99 20 3d 86 bb ba 39 a3 6b c1 3c
       -0.13623327 0.03920898 0.000356164 0.023610895
000260 8c ce b9 3d 73 1e c5 3d 2b d7 bc 3d c7 75 df 3d
       0.09072599 0.09624948 0.092207275 0.10911136
000270 9e 0a ea 3d 87 3a ab 3a 83 a7 4a 3d f6 61 7e 3c
       0.11427806 0.0013063707 0.049476158 0.015526285
000280 0b ca 35 3e 17 5d cf 3d 08 29 34 3d 95 43 25 3e
       0.17752855 0.10125177 0.043984443 0.16139062
000290 42 a2 00 3e df d4 d6 3d 30 79 38 3e 72 ea 75 39
       0.12561896 0.10489821 0.1801498 0.00023452358
0002a0 e2 a1 1a 3d d6 29 69 3c 39 de 46 3d 47 54 d4 ba
       0.03775204 0.014231166 0.04855177 -0.0016199433
0002b0 d9 43 c3 3c 0c 1a c3 3d 4a b5 f3 3d 04 8f 93 3d
       0.023836063 0.095264524 0.118998125 0.072050124
0002c0 3c 26 84 bc 20 71 ae 3c 5e df 85 3b 6c c5 83 bb
       -0.016131513 0.021294177 0.0040854653 -0.0040213373
0002d0 32 52 06 3b 2e 8b 68 3a a6 46 d7 ba 04 2c c5 3d
       0.002049577 0.0008870837 -0.0016424253 0.09627536
0002e0 23 62 7f b9 2c d5 5f 3a 9a 3c 87 3c 2b 02 60 3a
       -0.00024355254 0.000853854 0.01650839 0.0008545245
0002f0 56 08 28 3e 63 ee 02 3e 26 9f 73 3d 3a 38 37 3d
       0.1640943 0.1278625 0.059477948 0.044731356
000300 55 72 e4 3c c4 fb 4a 3d f2 38 03 3e e7 1f bb 3d
       0.027886549 0.04955651 0.12814692 0.09136944
000310 10 68 17 3d eb 09 4d 3d 75 d6 f6 3d fb 64 be 3d
       0.036964476 0.050058287 0.12052623 0.09296604
000320 c8 38 12 3d 67 82 18 3d 06 03 85 3e 6e bd 32 be
       0.035698682 0.037233736 0.2597887 -0.17455074
000330 57 c9 04 3d 73 70 06 3d 55 3f 70 ba 95 fd 1e 3e
       0.032418575 0.032822084 -0.00091647106 0.15526421
000340 83 aa 0d 3e d6 04 6c 3c c9 14 d8 3d 84 ba da bc
       0.13834576 0.01440545 0.105508395 -0.026700266
000350 14 95 72 3d b2 47 52 3a 49 81 b3 3c 36 e3 b2 39
       0.059224203 0.00080215477 0.021912234 0.0003412009
000360 f3 ad 64 ba b3 f2 26 3e f9 0c 88 3c 93 56 c9 3d
       -0.000872343 0.1630352 0.016607748 0.09830966
000370 e4 2d 45 3d 11 89 7b 3e 6c bb 13 3a df 77 5a 3e
       0.048139468 0.24564005 0.0005635533 0.2133479
000380 67 a8 0e bc 9f 7c d2 3a 65 84 0f 3e be 89 27 3e
       -0.008707142 0.0016058868 0.14015348 0.16361138
000390 52 8f 21 3d bb 77 e3 3d 62 3f 29 3e 36 7e 16 3e
       0.03944332 0.11106821 0.16528085 0.14696583
0003a0 6d bf b6 3a d1 64 34 3d 2e cf 76 3c d8 6e af 3c
       0.0013942547 0.04404146 0.015064044 0.02141516
0003b0 11 ca ed 3c 10 3e 17 ba b6 dc 84 3d e2 9b 45 3e
       0.029027017 -0.0005769441 0.0648741 0.19297746
0003c0 15 31 00 ba d6 87 c4 3d c2 1d 48 3d a7 c1 d4 3d
       -0.00048901263 0.09596221 0.048856504 0.10388499
0003d0 32 aa 6d 3e 4d fb 9a 3d 1e 43 49 3b 79 26 9f 3d
       0.23209456 0.07567463 0.003071017 0.0777101
0003e0 29 9d 2b 39 cb be 91 3d 58 55 56 ba 02 23 cf ba
       0.00016366378 0.07116469 -0.00081761694 -0.001580328
0003f0 b4 f4 60 3b f4 cf 15 3d 75 95 80 3c 78 9c f3 3d
       0.0034325542 0.036575273 0.015696267 0.118950784
