model_dir/checkpoint_actor_local_1.pth (torch_old, 531545 bytes, 10 tensors)

fc1.weight f4 [400, 24]
0	0xbc9b1571	-0.018931122
1	0x3a4cb7f3	0.0007809393
2	0xbbcbb867	-0.006217051
3	0xbd27256b	-0.04080717
4	0xbda6adc8	-0.08138615
5	0x3d3e7dd4	0.046506718
6	0x3c8f442c	0.017488562
7	0x3cb246b7	0.021762235
8	0x3d465692	0.048422404
9	0xbd5590d1	-0.05214006
10	0xbd00b046	-0.031418107
11	0x3a8a0166	0.0010528981
12	0xbc0451e8	-0.008076169
13	0x3ccadefa	0.024764527
14	0x3cd7cca8	0.026342705
15	0x3cef4a56	0.02921025
16	0x3b2801d0	0.0025635846
17	0xbd10b385	-0.035327453
18	0xbd18febc	-0.03735231
19	0xbbd55403	-0.006510259
20	0x3df07469	0.117409535
21	0xbdb4f533	-0.088358305
22	0x3d2a661d	0.04160129
23	0x3cd99335	0.026559452
24	0x3ce3b014	0.027793922
25	0x3d9daff1	0.07699574
26	0xbd11d118	-0.035599798
27	0xbc8c2336	-0.017106634
28	0x3d929264	0.07156828
29	0xbda14bf3	-0.07875814
30	0xbd2c0c9d	-0.042004216
31	0xbcb2df6f	-0.021835057
32	0xbc84c127	-0.016205383
33	0x3d89ce08	0.067287505
34	0x3ceeda5b	0.029156854
35	0xbd6d2e2a	-0.057905354
36	0xbbfafa23	-0.007659213
37	0xbc9be85e	-0.0190317
38	0xbbf5e15e	-0.0075036725
39	0xbd8300fc	-0.06396672
40	0x3d6feccc	0.058575436
41	0x3cd8f0c8	0.026482001
42	0xbbb5ff5f	-0.0055541242
43	0xbc908ff9	-0.017646777
44	0x3d60047e	0.054691784
45	0xbe25b664	-0.16182858
46	0xbc58f03e	-0.013240872
47	0xba6d4581	-0.00090511894
48	0x3d2c706a	0.042099394
49	0xbd8ff6a4	-0.07029465
50	0x3bad992d	0.005297801
51	0xbcbfcbf1	-0.023412677
52	0x3bd5c8bb	0.006524173
53	0xbd88d56f	-0.06681334
54	0x3c20493b	0.0097830845
55	0xbc4e9f6e	-0.012611253
56	0x3d801779	0.06254477
57	0xbd684382	-0.056705005
58	0xbc81a45a	-0.01582544
59	0xbd1e2c4a	-0.038616456
60	0x3d48a5c1	0.0489862
61	0xbd0efbac	-0.03490798
62	0xbcc361f1	-0.023850413
63	0xba0d7073	-0.00053954794
64	0x3d774079	0.06036422
65	0xbd18c2f4	-0.037295297
66	0xbb0da837	-0.0021615156
67	0x3d937152	0.071993485
68	0x3da91fd3	0.08258023
69	0xbd9dee32	-0.07711448
70	0x3d6e16a6	0.058127068
71	0x3cfb23c5	0.030656705
72	0xbc75384d	-0.014967036
73	0x3afad74a	0.0019137647
74	0x3cabbc3d	0.020963782
75	0x3d865090	0.06558335
76	0x3cd2e981	0.025746109
77	0x3c79b1bc	0.015240129
78	0xbcb8f0f2	-0.02257583
79	0x3da32292	0.07965578
80	0x3cc5105a	0.024055649
81	0xbc9f1e0c	-0.019423507
82	0xbc886d83	-0.016653782
83	0x3d6b4f46	0.057448648
84	0x3b5bc5dc	0.0033534681
85	0xbdd8cee2	-0.10586335
86	0x3c82aede	0.015952524
87	0x3d6d8759	0.057990406
88	0xbcddd5cc	-0.027079485
89	0x3c168682	0.009187343
90	0xbcef856e	-0.029238429
91	0x3cfc4dc7	0.030798806
92	0xbdc0801d	-0.09399436
93	0xbe2182f2	-0.15772608
94	0x3c9306f1	0.017947646
95	0x3b9866bd	0.004650919
96	0x3d259380	0.04042387
97	0xbd2f7cca	-0.042843617
98	0xb8d1d3cf	-0.00010005349
99	0xbcedc0a2	-0.029022519
100	0x3d01c102	0.031678207
101	0xbd327c82	-0.04357577
102	0xbc1d7fcf	-0.0096129915
103	0x3cfa4fbe	0.030555602
104	0xbc1c029c	-0.0095221065
105	0xbba4edb3	-0.005033219
106	0x3d3d8a9e	0.046274774
107	0xbcf80054	-0.030273594
108	0x3c9c3a3b	0.019070735
109	0xbc21ea63	-0.009882542
110	0xbc0a6a47	-0.00844819
111	0xbd881d0d	-0.06646166
112	0xbd202ec0	-0.039107084
113	0xbd9846df	-0.074353926
114	0xbcebb1be	-0.028771278
115	0x3d729121	0.059220437
116	0x3dfd67f1	0.12373341
117	0x3d501047	0.050796773
118	0xbc2639ef	-0.010145648
119	0x3d5f334d	0.054492284
120	0xbc84a785	-0.01619316
121	0x3c434ea0	0.011920601
122	0x3d1a00b1	0.037598316
123	0x3cbb9f32	0.022903059
124	0x3dda173f	0.10648965
125	0x3dba6fd7	0.09103363
126	0xbd01c007	-0.031677272
127	0x3cdd6a3d	0.027028197
128	0x3c351b1f	0.011053829
129	0x3d4a495e	0.049386375
130	0x3d60526d	0.054766107
131	0x3bbe67e0	0.0058107227
132	0x3cb3553d	0.02189123
133	0x3cc4b280	0.024010897
134	0xbcb6004f	-0.022216944
135	0xbd9c4021	-0.07629419
136	0xbd3c2ff7	-0.04594418
137	0x3da6d869	0.08146746
138	0x3b16b285	0.002299459
139	0xbd3ca8b5	-0.04605933
140	0x3ccdc3b4	0.025117733
141	0x3c3e7908	0.011625536
142	0x3c310e8c	0.010806691
143	0x3cafff3e	0.021484014
144	0x3c63f625	0.013913666
145	0x3d085a2b	0.033289116
146	0x39a86fc4	0.0003212673
147	0xbc46633a	-0.012108618
148	0x3c1509d6	0.009096583
149	0x3c527c52	0.012847023
150	0x3a8b263c	0.0010616253
151	0x3ca183fc	0.019716255
152	0xbcca69bc	-0.024708621
153	0x3d493c5c	0.04912983
154	0x3c31bb13	0.010847825
155	0x3d0d3e22	0.034483083
156	0xbcbf9913	-0.023388421
157	0xbdc02e07	-0.09383779
158	0xbc7127f1	-0.014718995
159	0x3cd76fe3	0.026298469
160	0xbd60e1ca	-0.05490283
161	0x3c5ea33b	0.013588722
162	0x3c7442c6	0.014908498
163	0x3cf63231	0.03005323
164	0x3bea7ff7	0.007156368
165	0xbe4adac5	-0.19810016
166	0xbc3f54c4	-0.011677925
167	0xbcc4beb1	-0.02401671
168	0xbcdbd425	-0.026834557
169	0x3d157196	0.036485277
170	0x3b77353f	0.0037720946
171	0xbd1b40d6	-0.03790363
172	0x3cb44108	0.022003666
173	0x3b637e00	0.0034712553
174	0xbb3aae5d	-0.0028485276
175	0xbce8846c	-0.028383456
176	0x3d087a61	0.033319835
177	0x3c8b112e	0.016975965
178	0xbb486d06	-0.003058256
179	0xbd8744d2	-0.06604923
180	0xbcc25062	-0.02371997
181	0xbd856049	-0.065125056
182	0x3c7138cb	0.014723013
183	0x3bc88b72	0.006120139
184	0xbd464c4e	-0.048412614
185	0x3ce8a2eb	0.028397998
186	0x3d10106f	0.035171922
187	0x3cfb4d1d	0.030676419
188	0xbc1ef19d	-0.00970116
189	0xbe3a595d	-0.18198152
190	0xbcd55ba3	-0.026044672
191	0x3d8217c9	0.06352193
192	0xbcd0e673	-0.025500512
193	0x3d51b917	0.051201906
194	0x3c4f5dcb	0.012656639
195	0x3d408ec5	0.047011156
196	0x3b90100f	0.0043964456
197	0xbcde9921	-0.027172627
198	0xba6bb8c2	-0.00089920696
199	0xbb40c9b3	-0.0029417097
200	0x3bc18ca9	0.0059066606
201	0xbc1be818	-0.009515785
202	0x3d85c82a	0.06532319
203	0x3d8ec8a3	0.06971862
204	0x3d9b2739	0.075758405
205	0x3d1e561d	0.038656343
206	0xbcb9cd82	-0.022681002
207	0x3d53a980	0.05167532
208	0x3bd2399d	0.0064155594
209	0x3caedffe	0.021347042
210	0x3ad8c969	0.0016539517
211	0xbbc4af43	-0.006002338
212	0x3e07f67e	0.13277623
213	0xbd316034	-0.043304637
214	0x3d4226f6	0.047400437
215	0xbc8ab48f	-0.0169318
216	0xbd3e5828	-0.04647079
217	0xbda3f84f	-0.080063455
218	0xbbe52b11	-0.0069936593
219	0xbb9bcafc	-0.004754422
220	0x3d1bb80f	0.03801733
221	0xbd593188	-0.053025752
222	0x3c92b724	0.017909594
223	0x3d67a85d	0.056557048
224	0x3c833df1	0.016020747
225	0xbdef135f	-0.116736166
226	0x3bec1dc4	0.007205697
227	0x3d9894a3	0.07450225
228	0x3b58320e	0.003298882
229	0xbd791fcd	-0.060821343
230	0x3bd9a29e	0.0066417
231	0x3dbf14f9	0.09330172
232	0xbcf7af2e	-0.0302349
233	0xbda70baf	-0.08156525
234	0xbbc875f1	-0.0061175753
235	0x3dc80aab	0.0976766
236	0xbc11495f	-0.008867591
237	0xbd85bd34	-0.06530228
238	0x3abadd72	0.001425667
239	0x3d860aa3	0.065449975
240	0x3cfdfdae	0.031004753
241	0xbd80f583	-0.06296828
242	0xbcdc8828	-0.026920393
243	0x3dab9011	0.08377088
244	0xbdd831f4	-0.10556403
245	0xbc511690	-0.012761727
246	0x3cbda0c6	0.023147952
247	0x3ccab21f	0.024743138
248	0x3d341144	0.04396178
249	0x3ce55942	0.027996663
250	0xbc9880fc	-0.018616192
251	0x3d643612	0.055715628
252	0xbd962caf	-0.073327415
253	0xbcb88fd7	-0.022529526
254	0x3c4502d1	0.012024597
255	0x3db662f9	0.08905596

fc1.bias f4 [400]
0	0xbdcc8ca3	-0.09987762
1	0xbd466604	-0.048437133
2	0x3da5d591	0.08097375
3	0xbd7ac022	-0.06121839
4	0x3e2be752	0.1678746
5	0xbe1f65c2	-0.15566161
6	0xbe2073cf	-0.15669177
7	0x3e231fd9	0.15930118
8	0x3dfe8cca	0.12429197
9	0x3d852367	0.06500893
10	0x3df8eee3	0.12154939
11	0x3d7b41af	0.061341938
12	0xbe17705b	-0.14788954
13	0x3d8002c5	0.06250528
14	0xbd7bb84b	-0.061455052
15	0xbe5ffe61	-0.21874382
16	0xbe645f38	-0.22301948
17	0xbd95d927	-0.07316809
18	0xbdaf95db	-0.085735045
19	0xbd255cc4	-0.04037167
20	0xbdee82a8	-0.116460145
21	0xbe5a878d	-0.21340771
22	0xbda57a8a	-0.08080013
23	0x3e000d4a	0.1250507
24	0xbda956d2	-0.08268513
25	0xbdc1a626	-0.094555184
26	0xbe3e6fcf	-0.18597339
27	0xbe137c07	-0.14402781
28	0xbe579326	-0.21052226
29	0xbe1197ef	-0.14218114
30	0x3de5b7c6	0.112166926
31	0xbe667103	-0.22504048
32	0x3db04872	0.08607568
33	0xbddda758	-0.10822934
34	0xbd289379	-0.041156266
35	0x3de440a7	0.11145144
36	0x3cffa3ee	0.031206097
37	0x3dc76a7c	0.09737107
38	0xbc79966e	-0.015233619
39	0xbbb8ab1a	-0.0056356313
40	0xbe5cff3a	-0.21581736
41	0x3e261181	0.16217615
42	0xbc9ebd5a	-0.0193774
43	0xbd908835	-0.070572294
44	0xbdabe520	-0.083933115
45	0xbd6d2ffc	-0.05790709
46	0x3d8dc0d1	0.069215424
47	0xbdeb953d	-0.11503074
48	0x3e10ca39	0.14139642
49	0xbb0413b8	-0.0020153355
50	0xbe80dcba	-0.251684
51	0x3d316305	0.043307323
52	0x3df295b1	0.118449576
53	0x3d983571	0.07432068
54	0xbdd7c71c	-0.10536024
55	0xbe21fedb	-0.15819876
56	0x3e2a99cd	0.16660233
57	0xbe125e28	-0.1429373
58	0xbd60ca37	-0.054880347
59	0xbe1fc389	-0.15601934
60	0x3d673a27	0.056451943
61	0x3e0908e3	0.13382296
62	0x3e312a10	0.17301202
63	0xbdbc1dc9	-0.091853686
64	0x3e2d24ab	0.16908519
65	0xbde59702	-0.11210443
66	0xba90a695	-0.0011035973
67	0x3e31a2c0	0.1734724
68	0x3d2bfd06	0.04198935
69	0xbe5d76fd	-0.21627422
70	0xbe73a78c	-0.23794383
71	0xbd15871e	-0.03650581
72	0xbdb69db8	-0.08916801
73	0x3d350e44	0.044203058
74	0x3ddfe04b	0.10931452
75	0xbe05b180	-0.13055992
76	0x3db33ffa	0.08752437
77	0x3ddc4ab6	0.107564375
78	0x3de81838	0.11332744
79	0xbe254c5c	-0.1614241
80	0x3c78811a	0.015167499
81	0xbdf6d298	-0.12051886
82	0x3e6115b3	0.21980934
83	0xbe1db0cf	-0.15399478
84	0x3e23945e	0.15974566
85	0x3ce8d592	0.02842215
86	0x3e371161	0.17877723
87	0x3de9fe77	0.114254884
88	0x3c096f51	0.008388356
89	0xbdd123d2	-0.1021191
90	0x3c9c3d01	0.019072058
91	0xbe083f90	-0.13305497
92	0x3e07eb38	0.13273323
93	0x3c3c9c23	0.011511835
94	0x3b9a9c25	0.004718321
95	0xbb04ba52	-0.0020252657
96	0x3e1cb735	0.15304263
97	0xbe38c1b0	-0.18042636
98	0xbd81ba7e	-0.06334399
99	0x3c304524	0.010758672
100	0xbd667708	-0.05626586
101	0x3e0936f2	0.13399866
102	0xbe33d28d	-0.17560787
103	0xbe0ff414	-0.14057952
104	0xbde07da5	-0.10961465
105	0x3c0f4c5e	0.008746235
106	0x3d37051b	0.044682603
107	0xbe190c20	-0.14946032
108	0xbcee5a90	-0.029095918
109	0xbe015d3e	-0.12633225
110	0x3cf0954d	0.029368067
111	0xbe3bb1b7	-0.18329512
112	0xbe386603	-0.18007664
113	0xbe00c6e9	-0.12575878
114	0x3dbbf917	0.091783695
115	0x3dc066af	0.09394585
116	0x3dadf893	0.084946774
117	0xbe17c8fd	-0.14822765
118	0xbdd8080d	-0.105484106
119	0xbdf358d3	-0.11882176
120	0xbd606f05	-0.054793376
121	0xbdf2d1d0	-0.11856425
122	0xbe056ad1	-0.13029028
123	0x3e23e872	0.1600664
124	0xbe4a7468	-0.19770968
125	0x3d6a16df	0.057150718
126	0xbd9a7633	-0.07542076
127	0xbd70547d	-0.058674324
128	0x3dcfb01f	0.10141014
129	0xbddc7489	-0.10764415
130	0xbe5cea2a	-0.21573702
131	0xbe3dbe18	-0.18529546
132	0xbe2f4939	-0.17117776
133	0x3d8bf1ba	0.06833215
134	0xbdf03998	-0.11729735
135	0xbe361f93	-0.17785482
136	0x3cee32c6	0.029076945
137	0xbd809ec1	-0.0628028
138	0x3d2f6f49	0.04283074
139	0x3dfd955e	0.12382005
140	0xbca22e1f	-0.019797383
141	0xbd085b03	-0.03328992
142	0xbd1eefcc	-0.038802907
143	0x3e252e10	0.16130853
144	0xbce68307	-0.02813865
145	0x3bf65e18	0.007518541
146	0x3d951c3b	0.07280775
147	0x3d29169b	0.041281324
148	0xbd85187e	-0.06498812
149	0x3d572880	0.05252886
150	0xbe27a8b7	-0.16372953
151	0xbd82520a	-0.06363304
152	0xbce3f656	-0.027827423
153	0x3d4cf02b	0.05003373
154	0xbdc58138	-0.09643787
155	0x3ce277c7	0.027645005
156	0xbce91c2d	-0.028455818
157	0x3d6a8827	0.05725875
158	0x3d26ae4f	0.040693577
159	0x3d56639a	0.05234108
160	0x3bbcf02e	0.0057659363
161	0xbe320fa2	-0.17388776
162	0xbe27c163	-0.16382365
163	0xbdaaf512	-0.08347525
164	0x3e2fc512	0.1716502
165	0x3d69a18d	0.057038832
166	0xbd380c1b	-0.04493342
167	0xbd8bd228	-0.068271935
168	0xbd06d303	-0.03291608
169	0xbe4a9270	-0.19782424
170	0x3c0681ae	0.008209629
171	0x3ba897b1	0.005145036
172	0xbe4f8853	-0.20266847
173	0x3d3b3b1c	0.045710668
174	0x3de194de	0.11014722
175	0x3ce568ce	0.028004076
176	0x3de9c994	0.11415401
177	0xbdd9e7bd	-0.10639904
178	0x3da0267c	0.0781984
179	0xbd9c5bc6	-0.07634692
180	0x3db0e06e	0.086365566
181	0xbe418171	-0.18897034
182	0x3df5239e	0.11969684
183	0xbe1aac59	-0.15104808
184	0xbd886604	-0.06660083
185	0x3dd9c3e1	0.10633064
186	0xbd97bc35	-0.074089445
187	0x3e253f8f	0.16137527
188	0xbd55a56d	-0.052159715
189	0x3d0e33e7	0.034717467
190	0xbe17b009	-0.14813246
191	0x3e17be56	0.14818701
192	0x3db948c4	0.09047082
193	0xbe41f366	-0.18940505
194	0xbaac21bc	-0.0013132612
195	0x3e09cce3	0.13457064
196	0x3d14a7c6	0.036292814
197	0xbccfe3e5	-0.025377223
198	0xbe06e3e4	-0.13172871
199	0x3dd55876	0.10417263
200	0x3e098a36	0.1343163
201	0x3e064993	0.13114004
202	0xbb9d57c0	-0.0048017204
203	0x3dae43a1	0.08508993
204	0xba3c2547	-0.00071771856
205	0xbd6ba36f	-0.05752891
206	0xbd48b01d	-0.04899608
207	0x3e259f34	0.16174012
208	0x3dcb84ab	0.09937414
209	0x3dc34443	0.09534504
210	0xbe693d92	-0.22777393
211	0x3d875033	0.06607094
212	0xbdc07ebc	-0.09399173
213	0xbdd8a08a	-0.105774954
214	0x3dfde95a	0.12398024
215	0x3db18769	0.086684056
216	0x3df4a87c	0.11946198
217	0x3dcea280	0.10089588
218	0xbe02fa0e	-0.12790701
219	0xbd0f0b7d	-0.034923065
220	0x3cf67833	0.030086612
221	0x3de55385	0.11197571
222	0xbd1c3ddd	-0.038144935
223	0xbcc38c92	-0.02387074
224	0x3d1869e7	0.03721037
225	0x3e07eba4	0.13273484
226	0xbe0a157d	-0.1348476
227	0xbe5638a6	-0.20920047
228	0x3db6a26c	0.08917698
229	0xbe6b0ed0	-0.2295487
230	0x3e301c82	0.17198375
231	0xbdc1e071	-0.09466637
232	0x3dd232a7	0.102635674
233	0x3d7d0dcb	0.061780732
234	0xbdf1ca90	-0.11806214
235	0xbe0b2f87	-0.13592349
236	0xbd81c09a	-0.06335564
237	0x3c45ac21	0.0120649645
238	0x3ca6a1ee	0.020340886
239	0xbd946536	-0.07245867
240	0xbdacb00e	-0.08432017
241	0x3ddcfcc1	0.107903965
242	0x3d466738	0.04843828
243	0xbdfcc150	-0.12341559
244	0x3e3b8c05	0.18315132
245	0x3d64cca2	0.055859216
246	0xbe0df5d4	-0.13863307
247	0xbc52a8b0	-0.012857601
248	0x3ade50dd	0.0016961355
249	0xbd64c827	-0.055854943
250	0xbdd8c54b	-0.10584506
251	0xbd9b21da	-0.07574816
252	0x3d9aa3b5	0.07550756
253	0xbe2b16fd	-0.16707988
254	0xbde7acb7	-0.113122396
255	0xbe14bd98	-0.1452545

fc2.weight f4 [300, 400]
0	0x3c2f3294	0.010693211
1	0x3cd59100	0.026070118
2	0xbdb6578a	-0.089034155
3	0x3cca2f31	0.024680706
4	0xbe2a0302	-0.1660271
5	0x3d8ae0a5	0.06781129
6	0xbd6acc02	-0.057323463
7	0x3d510dcf	0.05103856
8	0x3c97e12d	0.01853999
9	0xbdb21755	-0.086958565
10	0x3db69d33	0.08916702
11	0x3c242804	0.010019306
12	0x3bf876eb	0.0075825355
13	0x3c5d9411	0.013524071
14	0xbd743747	-0.05962303
15	0xbc81650c	-0.015795253
16	0x3c76e8b2	0.015070127
17	0x3d86abe5	0.06575755
18	0x3d70fafb	0.058833104
19	0xbc79b700	-0.0152413845
20	0x3dbb30eb	0.0914019
21	0xbd29045c	-0.041263923
22	0x3d39ebdc	0.04539095
23	0x3ba53f6b	0.0050429604
24	0x3ccf1567	0.02527876
25	0xbc589ffb	-0.013221736
26	0xbdad40bc	-0.08459613
27	0x3d0bd4d1	0.034138504
28	0xbca09cd2	-0.019606028
29	0xbbf190a9	-0.007371981
30	0xbc2e025d	-0.010620681
31	0x3bf49b12	0.007464775
32	0x3c9fdb56	0.019513767
33	0x3d222ca4	0.039593354
34	0xbab2a3a6	-0.0013629093
35	0xbd7388e7	-0.059456732
36	0xbca4ca7d	-0.020116085
37	0xbd86e207	-0.0658608
38	0x3d40d8a9	0.047081623
39	0x3d8a49ac	0.06752333
40	0xbd47d9a0	-0.048791528
41	0xbd3e27c6	-0.04642465
42	0xbd549de5	-0.051908392
43	0x3bf13fbd	0.0073623345
44	0x3ca27563	0.019831365
45	0xbd303991	-0.04302365
46	0xbda95f76	-0.08270161
47	0x3d89a2ec	0.06720528
48	0x3d41f445	0.047352094
49	0x3c127c55	0.008940776
50	0x3d7f855b	0.062383037
51	0x3a60482c	0.00085556763
52	0xbceb213a	-0.028702367
53	0x3d9eaee6	0.07748203
54	0x3d0b6e80	0.034040928
55	0x3ccae967	0.024769498
56	0x3e11c4bc	0.14235204
57	0xbe018caf	-0.12651323
58	0xbdb06bc0	-0.08614302
59	0xbd1009a7	-0.035165455
60	0x3d8642b8	0.06555694
61	0x3c960b98	0.018316075
62	0xbd105cd4	-0.035244778
63	0xbe04cb9c	-0.12968296
64	0xbdee6537	-0.11640399
65	0xbd42be63	-0.04754485
66	0xbd7382a0	-0.059450746
67	0x3d8bc9cd	0.068256
68	0xbd8ff3f1	-0.0702895
69	0xbde9826f	-0.11401831
70	0xbc504bd7	-0.012713394
71	0x3da739a4	0.08165291
72	0xbcd2cdef	-0.025732962
73	0xbcb728a6	-0.02235825
74	0xbd268b06	-0.040659927
75	0x3d03f40f	0.032215174
76	0x3b44b866	0.0030017137
77	0xbb23aaef	-0.002497371
78	0x3d398f48	0.04530266
79	0x3d9522b2	0.07282008
80	0xbd1a40ec	-0.03765957
81	0x3d60a80f	0.054847773
82	0x3d4ec84c	0.050483987
83	0xbd4feb02	-0.05076123
84	0xbac29df5	-0.00148481
85	0x3ca83600	0.020533562
86	0x3d6a5a88	0.057215244
87	0xbc384284	-0.011246327
88	0xbcfc3961	-0.03078908
89	0xbd0eec41	-0.034893278
90	0x3cb5cea8	0.022193268
91	0xbd4b86b1	-0.049689
92	0xbb2a825e	-0.0026017646
93	0xba7eb321	-0.00097160233
94	0x3ca86e9b	0.020560553
95	0x3d20de9f	0.039274808
96	0x3d1d719b	0.03843842
97	0x3c5ae2fd	0.013359782
98	0x3d2782ad	0.040896107
99	0xbcbea21c	-0.02327066
100	0xbc3e459d	-0.011613277
101	0x3cde7014	0.027153052
102	0x3d63ea7a	0.055643536
103	0x3d96be6e	0.0736054
104	0xbc63cc62	-0.013903709
105	0xbcd375f3	-0.025813079
106	0x3d20086d	0.039070535
107	0x3d942a9f	0.07234692
108	0x3d5d0789	0.053962264
109	0x3c11b635	0.008893539
110	0x3cb76a42	0.022389535
111	0xbc8bcca7	-0.01706536
112	0xbdd628d6	-0.104570076
113	0x3cbd63f2	0.023118947
114	0xbcc67eb5	-0.02423034
115	0xbd637419	-0.05553064
116	0xbd843279	-0.064549394
117	0x3d4471ff	0.047960278
118	0x3d89188a	0.066941336
119	0xbdbd3e0b	-0.092403494
120	0xbdfb5c07	-0.12273412
121	0x3db606cd	0.08888016
122	0xbd8d7a6f	-0.06908118
123	0xbd47cf1f	-0.04878151
124	0xbcb122f8	-0.02162312
125	0x3c9c3986	0.019070398
126	0x3db6d282	0.0892687
127	0x3c47bc19	0.012190842
128	0x3bd64c51	0.0065398593
129	0x3c95bc7a	0.01827835
130	0x3d9aca52	0.07558121
131	0x3e01a183	0.12659268
132	0x3db7af94	0.08969036
133	0x3b1bc8f2	0.0023770896
134	0xbd30a866	-0.043129347
135	0xbc8893f0	-0.016672105
136	0x3c6e94bb	0.014561827
137	0xbd22b78d	-0.03972583
138	0x3c6f0349	0.014588186
139	0xbc77e856	-0.015131077
140	0x3d161633	0.036642265
141	0xbc51cdea	-0.012805441
142	0xbe13683e	-0.14395234
143	0x3d00ee2f	0.03147715
144	0xb9dc34ec	-0.000420011
145	0x3ca8137a	0.0205171
146	0x3d49b48d	0.049244452
147	0xbd221379	-0.03956935
148	0xbc75baa9	-0.0149981165
149	0x3dc80151	0.09765876
150	0x3c3e7388	0.0116242245
151	0x3d49bfdb	0.049255233
152	0xbdabfe35	-0.083980955
153	0x3c818977	0.015812619
154	0xbc86e26c	-0.016465388
155	0xbb1544d6	-0.0022776625
156	0xbda59338	-0.080847204
157	0x3daa62aa	0.083196
158	0x3d207f3f	0.03918385
159	0x3d3ca2ea	0.046053804
160	0xbd821468	-0.063515484
161	0xbdc66660	-0.09687495
162	0x3d279194	0.04091032
163	0x3db29bf4	0.08721152
164	0xbcc48349	-0.023988383
165	0x3cbf6234	0.023362257
166	0xbdb4ee84	-0.08834556
167	0x3d92b7ac	0.07163939
168	0xbce67b47	-0.028134955
169	0xbc04fb3c	-0.00811654
170	0x3c2df2f3	0.010617006
171	0xbc2e1a5a	-0.0106264
172	0xbe1c61ee	-0.15271732
173	0x3d7e6a7f	0.06211328
174	0x3c0c306b	0.008556466
175	0x3d1e9f3a	0.03872607
176	0xbd63c435	-0.05560704
177	0x3dd6960a	0.104778364
178	0x3d34f399	0.044177625
179	0xbd97c359	-0.074103065
180	0xbdfe31a5	-0.12411813
181	0xbd4e5351	-0.050372425
182	0x3c5c3512	0.013440387
183	0xbd1e6d98	-0.038678735
184	0x3d6b980f	0.05751806
185	0xbc16fc60	-0.009215444
186	0x3cb0fe12	0.021605525
187	0x3d5ae888	0.053444415
188	0x3cc03d49	0.023466723
189	0x3d4ab1cc	0.049485967
190	0xbc08ae1a	-0.00834229
191	0xbcb68811	-0.022281678
192	0xbc4e03a2	-0.012574108
193	0xbb280e72	-0.0025643376
194	0xbd080438	-0.03320715
195	0xbd945ef2	-0.07244672
196	0xbd148023	-0.036255013
197	0xbd15d5b1	-0.036580745
198	0x3d8ae9af	0.06782853
199	0x39753f4e	0.00023388604
200	0x3d14ec74	0.03635831
201	0xbd16942c	-0.0367624
202	0xbcd3bdea	-0.025847394
203	0x3ce1f0fb	0.027580729
204	0xbcf161f6	-0.029465657
205	0x3d8e5b60	0.06951022
206	0xbd08fdca	-0.033445157
207	0x3d1ba674	0.03800054
208	0x3ce4703d	0.02788555
209	0xbc6f689f	-0.014612346
210	0xbcfaa430	-0.030595869
211	0x3dbcad0f	0.09212696
212	0xbd530fb3	-0.051528644
213	0x3d0427ec	0.032264635
214	0x3c12dde2	0.008964034
215	0x3d4b2a6e	0.04960101
216	0x3d174a9b	0.036936384
217	0xbd0e9e93	-0.034819197
218	0x3c86b8a8	0.016445473
219	0xbd1e1454	-0.038593605
220	0x3cd00b34	0.025395967
221	0xbc6a508d	-0.014301431
222	0xbd045f1f	-0.032317277
223	0x3bd89c6b	0.0066104433
224	0xbaab52cb	-0.0013070939
225	0x3c9f56d9	0.019450592
226	0x3d12a8b8	0.035805434
227	0x3dc6198a	0.0967284
228	0x3c3be412	0.01146795
229	0xbdbf5318	-0.09342021
230	0x3da17c06	0.07884984
231	0xbcd5daca	-0.026105303
232	0x3cec03ed	0.028810466
233	0x3cab8b79	0.02094053
234	0xbdaa85f0	-0.08326328
235	0xbc3d080e	-0.011537565
236	0xbd20bc71	-0.03924221
237	0x3dad6f6d	0.084685184
238	0xbd87e3f3	-0.06635275
239	0xbd984919	-0.07435817
240	0xbd96ec5a	-0.07369299
241	0xbac1ba5e	-0.0014780273
242	0xbd4c6235	-0.049898345
243	0xbcc4cf87	-0.024024738
244	0x3d4bbe21	0.049741868
245	0xbcbe8b39	-0.023259746
246	0xbb038573	-0.0020068556
247	0xbced3037	-0.028953655
248	0x3dba39ed	0.0909308
249	0xbcf39233	-0.0297328
250	0x3d89feed	0.06738076
251	0x3d34b16f	0.044114526
252	0xbd31ae37	-0.043379035
253	0x3ca9434f	0.020661978
254	0x3c9ffaa3	0.019528693
255	0x3d2efd4e	0.04272204

fc2.bias f4 [300]
0	0x3c61d5a4	0.013783846
1	0x3d81e3e0	0.06342292
2	0x3ca97ef0	0.020690411
3	0x3d1658e6	0.036705874
4	0x3c8eec7e	0.017446753
5	0x3da79703	0.081831
6	0x3d32a1b7	0.043611255
7	0x3c92b174	0.017906882
8	0x3c39a481	0.011330725
9	0x3d9329e6	0.07185726
10	0x3d9a29d4	0.07527509
11	0x3c8dfcdf	0.017332492
12	0x3d363050	0.04447967
13	0x3ce455cf	0.027872948
14	0x3cec4bef	0.028844802
15	0x3d2dfaf7	0.042475667
16	0x3c99cd49	0.018774645
17	0x3d4c5c8b	0.049892943
18	0x3d25b96a	0.040460028
19	0x3db233e7	0.08701306
20	0xbb8cc110	-0.004295476
21	0xbcc4d8ee	-0.024029221
22	0x3d152bb4	0.03641863
23	0x3d9379f1	0.07200993
24	0x3d731b2d	0.05935209
25	0x3df89644	0.12138036
26	0x3cb31477	0.021860344
27	0x3cd9a427	0.026567532
28	0x3d4bfdb0	0.049802482
29	0x3c9c7ca8	0.01910241
30	0x3c3d8844	0.011568133
31	0x3d551c0d	0.052028704
32	0x3c223153	0.009899455
33	0x3d75efed	0.060043264
34	0x3d407632	0.04698772
35	0x3c950a09	0.018193262
36	0x3ce16661	0.027514638
37	0x3ddf2f63	0.1089771
38	0x3d42a7f7	0.047523465
39	0x3d19e35b	0.03757034
40	0x3d0ee86d	0.034889627
41	0xbca291be	-0.019844886
42	0x3d67cb0e	0.056590132
43	0x3b01a3a8	0.0019781385
44	0x3d1f8672	0.038946576
45	0x3dd963eb	0.10614761
46	0x3d3788a0	0.04480803
47	0x3db53c33	0.08849373
48	0x3c9f62c7	0.01945628
49	0x3dbc84e7	0.092050366
50	0xbcb1d4b8	-0.021707878
51	0x3d89b567	0.06724053
52	0x3db77cab	0.089593254
53	0x3d0485ea	0.032354273
54	0x3da6ea31	0.08150137
55	0x3db5a80c	0.08869943
56	0xbab93feb	-0.0014133429
57	0x3d2bacd7	0.04191288
58	0x3d300683	0.04297496
59	0x3ce71044	0.028205998
60	0x3d1c635d	0.038180698
61	0x3ccf3ed3	0.025298512
62	0x3e00852d	0.12550803
63	0x3cc91c37	0.024549587
64	0x3d389dcb	0.045072358
65	0x3d458873	0.04822583
66	0x3d08bb1b	0.033381563
67	0x3b854c53	0.0040679364
68	0x3c1b6a0e	0.009485735
69	0x3d2c5a8d	0.042078543
70	0x3bed4c2b	0.007241746
71	0x3cf0f499	0.029413508
72	0x3d583039	0.052780364
73	0x3db96d0a	0.09054001
74	0x3d245ccd	0.040127564
75	0xbbb57b4b	-0.0055383793
76	0x3d94dbce	0.07268487
77	0x3c791d8f	0.015204801
78	0x3d66ed6f	0.056378778
79	0x3db324d5	0.087472595
80	0x3b34b1a7	0.002757171
81	0x3d77d72e	0.060507946
82	0x3d56fafb	0.052485447
83	0x3cd503d2	0.026002798
84	0x3c38e18a	0.011284241
85	0x3df5286c	0.119706005
86	0x3d94571d	0.07243178
87	0xb9b270c8	-0.00034034834
88	0x3c98c04a	0.018646378
89	0x3d84f741	0.064924724
90	0x3d3de1bd	0.04635786
91	0xbca2fea8	-0.01989682
92	0x3d91768d	0.0710269
93	0x3d993eef	0.07482707
94	0x3da1276c	0.07868847
95	0x3d1f3e75	0.038877923
96	0xbcb46c4a	-0.022024292
97	0x3db818a0	0.08989072
98	0x3c89c900	0.016819477
99	0x3a8367ee	0.001002548
100	0x3ca2046f	0.019777505
101	0x3df3669e	0.11884807
102	0x3d3b8e95	0.045790274
103	0x3c5cfc4a	0.013487885
104	0x3c4909a3	0.012270364
105	0xba5c8118	-0.00084115705
106	0x3d2f9b5e	0.04287278
107	0xbd11ad93	-0.035565924
108	0xbbb2824a	-0.0054476606
109	0x3c4e4aff	0.012591123
110	0xbbd56c35	-0.0065131434
111	0x3ce86696	0.02836923
112	0xba9aef82	-0.0011820646
113	0x3a158fb7	0.0005705314
114	0x3de3b959	0.11119337
115	0x3c158aee	0.009127362
116	0x3c6a4c27	0.014300383
117	0x3dc480f3	0.095949076
118	0x3d5659b6	0.05233165
119	0x3cebc8a8	0.028782204
120	0xbd694707	-0.056952503
121	0x3d59e63e	0.05319809
122	0x3d3115fc	0.043233857
123	0x3d7cd9c8	0.06173113
124	0x3d46e14f	0.048554715
125	0x3d5f42cf	0.054507073
126	0x3d4066eb	0.04697315
127	0x3d21e6a7	0.039526608
128	0x3dc601a6	0.09668283
129	0x3d2e6496	0.042576395
130	0x3aa0471c	0.0012228223
131	0x3d980958	0.07423657
132	0x3deaf9ef	0.11473452
133	0x3cc8a28c	0.02449157
134	0x3bd531bd	0.0065061734
135	0x3d5acc91	0.053417746
136	0x3ce94eb3	0.02847991
137	0x3d1b7cb1	0.037960712
138	0x3d9b80c7	0.07592922
139	0x3c73e2eb	0.014885644
140	0x3bb83d89	0.00562257
141	0x3d8442c9	0.06458051
142	0x3cd3a1d8	0.025834009
143	0xbae273c7	-0.0017276936
144	0x3d6de7a3	0.058082234
145	0x3d54f5ed	0.051992346
146	0x3bf2c3f4	0.0074086133
147	0x3d571959	0.052514408
148	0x3e0d6cef	0.13811086
149	0x3d96f325	0.07370595
150	0x3d7c3af2	0.061579652
151	0x3d8e7a32	0.06956901
152	0x3d94aead	0.07259879
153	0x3db4917d	0.08816812
154	0x3dffa45c	0.12482521
155	0xbba4fba1	-0.0050348793
156	0x3db76b7a	0.089560464
157	0x3c8872e5	0.016656348
158	0x3da16d25	0.07882146
159	0x3ceab044	0.028648503
160	0x3d0a5be6	0.033779047
161	0x3d5b1148	0.053483278
162	0x3ddcc2cc	0.10779342
163	0x3d468d91	0.048474852
164	0x3cbba9a6	0.022908043
165	0x3cd02747	0.025409354
166	0x3d8c2294	0.06842533
167	0x3deebe8e	0.11657439
168	0x3cf85c53	0.030317461
169	0x3ca6fccd	0.020384217
170	0x3d9192ea	0.071081
171	0x3ca31eae	0.01991209
172	0x3da9a600	0.08283615
173	0xbcd158e1	-0.025555076
174	0xba58c607	-0.00082692545
175	0x3d1e3fc1	0.03863502
176	0x3c007153	0.007839519
177	0x3d305b5d	0.04305588
178	0x3d3901ea	0.04516784
179	0x3d4fdfd5	0.050750572
180	0x3d4a970d	0.04946046
181	0x3d0aa66f	0.03385013
182	0x3d63ae08	0.05558589
183	0x3e0f52ef	0.1399648
184	0x3c2d116a	0.010563234
185	0x3c806a8f	0.015675811
186	0x3dc57db4	0.096431166
187	0x3da902f8	0.08252519
188	0x3d3c49ed	0.04596894
189	0x3cc0805c	0.023498707
190	0x3dc491b9	0.09598107
191	0x3c49305d	0.012279597
192	0x3d8107af	0.06300294
193	0xbc06c265	-0.008225058
194	0x3d5445fe	0.051824562
195	0x3da0323f	0.07822084
196	0x3ca93ae6	0.020657968
197	0x3ce5efa1	0.028068366
198	0x3d3cb7a7	0.046073582
199	0x3da0c1a1	0.07849432
200	0x3c399e26	0.011329209
201	0x3b25a934	0.0025277855
202	0x3cb60f88	0.022224203
203	0xbb672c24	-0.0035274113
204	0x3db3169f	0.08744549
205	0x3db617d4	0.088912636
206	0x3c86cb8c	0.01645448
207	0xbc84a2bf	-0.016190885
208	0x3d6030e2	0.05473412
209	0x3d028730	0.031867206
210	0x3d713d80	0.05889654
211	0xbc8f0d72	-0.017462466
212	0x3d644fd8	0.055740207
213	0x3dca8999	0.09889526
214	0x3d3bae26	0.045820378
215	0x3da370b6	0.07980482
216	0x3db02f11	0.08602727
217	0x3bce6b96	0.0062994463
218	0x3dad2874	0.084549814
219	0xbd01d33a	-0.031695582
220	0x3dd3db47	0.10344558
221	0x3d2665e6	0.04062452
222	0x3db93d59	0.09044904
223	0x3d3f7daa	0.046750702
224	0x3bb04a42	0.005379946
225	0x3cd37a6f	0.025815217
226	0x3d6a37c8	0.057182103
227	0x3dda6adf	0.10664915
228	0x3c200f77	0.009769312
229	0x3c48746f	0.012234791
230	0x3d76937d	0.06019925
231	0x3d0102af	0.0314967
232	0x3d7357e4	0.05940999
233	0x3e18fdf3	0.14940624
234	0x3d995f99	0.07488937
235	0x3ba1146e	0.0049157655
236	0x3cabbccd	0.02096405
237	0x3d06f5b7	0.032949176
238	0x3c2e5f40	0.010642827
239	0x3cfa00c0	0.030517936
240	0x3cabddc5	0.020979771
241	0xbb42b348	-0.002970891
242	0xbc0f527a	-0.008747691
243	0x3d0a49ba	0.033761717
244	0x3c0e10e9	0.008671024
245	0x3c670f01	0.014102698
246	0x3da289a8	0.07936412
247	0x3c93a0fd	0.018021101
248	0x3dbc1356	0.091833755
249	0x3d9423ea	0.072334126
250	0x3d96cb37	0.07362979
251	0x3d730807	0.059333827
252	0x3dc3ae5d	0.095547415
253	0x3d898405	0.06714634
254	0x3d3ddeb2	0.046354957
255	0x3d8b5c41	0.068047054

fc3.weight f4 [2, 300]
0	0xbde1837d	-0.110114075
1	0x3dfca98f	0.12337028
2	0x3e57bd12	0.21068218
3	0x3e200686	0.15627488
4	0xbd6a7b17	-0.057246294
5	0xbc3e7f2e	-0.011627002
6	0x3e1bb2bd	0.15204902
7	0x3ddb2311	0.10700048
8	0xbe6f439a	-0.23365632
9	0x3e824986	0.2544672
10	0xbb82e5a8	-0.0039946623
11	0x3e3e69b9	0.18595017
12	0x3dc9c8f9	0.098527856
13	0xbe30d8f6	-0.17270264
14	0xbd898dc5	-0.067164935
15	0x3de4f480	0.11179447
16	0x3d808447	0.0627523
17	0x3d8982f8	0.067144334
18	0xbde824fa	-0.11335178
19	0xbdbd53c8	-0.09244496
20	0xbd37025b	-0.04467998
21	0xbe319f13	-0.17345838
22	0xbe0c44df	-0.13698147
23	0x3e050005	0.12988289
24	0xbdfc3399	-0.12314529
25	0xbcd19d5e	-0.025587734
26	0x3e041594	0.12898856
27	0xbe152002	-0.14562991
28	0xbd8a0be9	-0.06740553
29	0xbe3f1985	-0.18662079
30	0xbdf2acd8	-0.118493736
31	0x3e08285b	0.13296644
32	0x3de5627c	0.11200425
33	0xbd171a90	-0.036890566
34	0xbde47535	-0.11155168
35	0xbe11bed1	-0.14232947
36	0xbdcb58c6	-0.099290416
37	0xbded8ec4	-0.11599496
38	0xbd083174	-0.033250287
39	0x3e099e27	0.13439237
40	0x3df76bca	0.12081106
41	0x3dfc1553	0.12308755
42	0x3da508bc	0.080583066
43	0xbdf480c5	-0.11938623
44	0xbe061bbe	-0.1309652
45	0xbe3f5f27	-0.18688641
46	0xbe2b61ae	-0.1673648
47	0x3dd4b36e	0.10385786
48	0xbd69d53e	-0.05708813
49	0x3dbaf6d3	0.09129109
50	0xbda0758d	-0.07834921
51	0x3e1c911c	0.1528973
52	0xbdf99e3c	-0.12188384
53	0x3e0dd0bf	0.13849162
54	0xbd93f700	-0.07224846
55	0x3e2b2a68	0.16715395
56	0x3cc2faa0	0.023801148
57	0xbd34243f	-0.04397988
58	0xbdcd067e	-0.10011004
59	0xbe2b6dbb	-0.16741078
60	0x3d8e5b87	0.06951051
61	0xbe7f517b	-0.24933426
62	0xbd89d533	-0.06730118
63	0x3d436275	0.047701318
64	0x3ded3321	0.11582018
65	0xbde7439d	-0.11292193
66	0x3e222a0d	0.15836354
67	0xbe297042	-0.16546729
68	0x3dce2abf	0.10066747
69	0xbdab040b	-0.083503805
70	0xbe1efae7	-0.15525399
71	0xbde439a6	-0.11143808
72	0xbe2cc718	-0.16872823
73	0x3d1448c7	0.03620222
74	0xbe3b33f7	-0.18281542
75	0x3c133fb3	0.008987355
76	0x3df28814	0.11842361
77	0xbe28ca05	-0.16483314
78	0xbdb2954b	-0.087198816
79	0x3de6d37a	0.11270805
80	0xbd60f1ce	-0.054918103
81	0xbd464003	-0.04840089
82	0x3e3323c0	0.17494106
83	0x3dfa9646	0.12235694
84	0xbe23b26a	-0.15986028
85	0xbe256420	-0.16151476
86	0xbd5b3c28	-0.053524166
87	0x3e2053ae	0.15656921
88	0x3e05ca69	0.13065495
89	0x3daedde1	0.08538414
90	0x3e22f205	0.15912636
91	0x3df7b833	0.1209568
92	0x3d282d22	0.041058667
93	0x3e03c139	0.12866677
94	0xbc49b532	-0.012311267
95	0xbdde2ef7	-0.108488016
96	0xbd29fbfe	-0.041500084
97	0xbdefc50d	-0.11707506
98	0xbdaf5058	-0.08560246
99	0x3e1bd3d2	0.15217522
100	0x3dbbabb5	0.0916361
101	0x3da42058	0.080139816
102	0x3d81e009	0.063415594
103	0xbe57a871	-0.21060349
104	0x3df3bb82	0.11900999
105	0x3d89a166	0.067202374
106	0xbe3097f6	-0.17245468
107	0xbd79efa8	-0.06101957
108	0xbd9c7140	-0.07638788
109	0xbc3a723f	-0.011379777
110	0x3e06d26f	0.13166212
111	0x3de6d52d	0.11271129
112	0xbdf4ebd0	-0.1195904
113	0x3e2ecc1b	0.17070048
114	0xbdd79753	-0.1052691
115	0x3ddf6e5b	0.109097205
116	0x3e5c13d6	0.21491942
117	0x3e1d6390	0.15370011
118	0xbe0231a8	-0.12714255
119	0xbdc3cf41	-0.09561015
120	0xbd666ae1	-0.05625427
121	0xbda8b159	-0.082369514
122	0xbd96fb3e	-0.073721394
123	0x3e258ca7	0.16166936
124	0xbe056c3b	-0.13029568
125	0x3dd0fad5	0.102040924
126	0xbe198c6e	-0.14994976
127	0x3d9fef79	0.07809348
128	0x3c1b76ec	0.009488802
129	0x3dbf5e68	0.093441784
130	0x3db2030b	0.08691987
131	0xbe1410f6	-0.14459595
132	0x3c7fadf0	0.015605435
133	0x3e02e07c	0.12780946
134	0xbd20199a	-0.039086916
135	0x3d5f948b	0.05458502
136	0xbe25a008	-0.16174328
137	0xbdca8f37	-0.09890597
138	0xbcc0d849	-0.023540633
139	0x3e0fcbec	0.14042634
140	0x3dae891d	0.08522246
141	0x3d66a83f	0.056312796
142	0xbd960153	-0.07324471
143	0x3e1c6739	0.15273751
144	0xbe189393	-0.14900045
145	0xbe8eef6d	-0.27917042
146	0xbe17744e	-0.1479046
147	0xbe0f6aa4	-0.14005524
148	0x3c16c71a	0.009202743
149	0xbdf01104	-0.117219955
150	0xbe523303	-0.20527272
151	0xbbffc18c	-0.007805055
152	0x3dd33b30	0.103140235
153	0x3e374d04	0.17900473
154	0xbde502d9	-0.11182184
155	0xbded1715	-0.11576668
156	0xbdc7e7e5	-0.09761027
157	0x3e1fe521	0.1561475
158	0x3e1712e6	0.14753303
159	0x3e05a2b6	0.1305035
160	0xbe42203d	-0.1895761
161	0xbd90430b	-0.070440374
162	0x3d4ed6ec	0.050497934
163	0xbdd2834b	-0.102789484
164	0x3dbc3d81	0.091914184
165	0xbdc11324	-0.09427479
166	0xbe1fc081	-0.15600778
167	0x3e1a9512	0.15095928
168	0x3d9a3a98	0.07530707
169	0x3d9da43a	0.07697339
170	0x3ca75656	0.02042691
171	0x3df793f1	0.120887645
172	0xbe0b2530	-0.13588405
173	0x3e0c73b1	0.13716008
174	0xbd5d0a8f	-0.053965148
175	0xbe321626	-0.17391261
176	0x3ccf1bd3	0.025281822
177	0x3df69b3b	0.120413266
178	0xbe072cdb	-0.13200705
179	0x3e234670	0.15944839
180	0x3e1fdcb2	0.15611532
181	0x3e03828f	0.12842773
182	0x3e133535	0.14375766
183	0x3d9896ca	0.07450636
184	0x3e014437	0.12623678
185	0x3dda0e35	0.10647241
186	0xbdf60776	-0.12013142
187	0x3e166ee5	0.1469074
188	0xbdc99f6d	-0.09844861
189	0x3e1c5cae	0.1526973
190	0xbcb01387	-0.021493686
191	0xbce92ab1	-0.02846274
192	0x3ddd820e	0.108158216
193	0x3e2b2615	0.16713746
194	0xbde1e129	-0.11029274
195	0x3d1730a3	0.036911618
196	0x3d78ebe2	0.06077183
197	0xbe137159	-0.14398707
198	0x3dbe3781	0.0928793
199	0x3e1a9977	0.15097605
200	0xbcf3c1a6	-0.029755425
201	0xbd156920	-0.03647721
202	0xbd053552	-0.032521553
203	0xbce40895	-0.027836123
204	0x3ca7021d	0.02038675
205	0x3cb2ae6e	0.02181169
206	0xbd780a69	-0.060556803
207	0xbdef924d	-0.116978265
208	0xbdf72b6a	-0.120688275
209	0xbd90cc89	-0.07070262
210	0xbe057a54	-0.13034946
211	0xbe0e0b3b	-0.13871472
212	0x3cbe5ff7	0.023239119
213	0x3e27766f	0.16353773
214	0xbe143dc0	-0.14476681
215	0x3d0aa6f6	0.033850633
216	0x3da88871	0.08229149
217	0xbde61381	-0.11234189
218	0xbc8bd97a	-0.017071474
219	0x3d468c79	0.04847381
220	0xbdc42081	-0.09576512
221	0xbe3bc39b	-0.18336336
222	0xbda18aaa	-0.07887776
223	0xbb7b99ee	-0.003839131
224	0x3e228461	0.15870811
225	0x3e0fa9e7	0.14029656
226	0xbdb4f3ef	-0.08835589
227	0xbcbabd54	-0.022795357
228	0xbe08978a	-0.13339058
229	0x3e2ea2a1	0.17054226
230	0x3e1be745	0.15224941
231	0xbe1fb0df	-0.15594815
232	0x3dd7214e	0.10504399
233	0x3db9b4a5	0.09067658
234	0x3dde8a39	0.10866208
235	0x3d4715be	0.04860472
236	0xbce17055	-0.027519384
237	0x3d661da0	0.056180596
238	0xbd8caee2	-0.06869294
239	0xbdd4cea3	-0.10390975
240	0xbd8f6a12	-0.07002653
241	0x3d6d95a0	0.05800402
242	0xbdd627aa	-0.10456784
243	0xbe02b3a6	-0.12763843
244	0xbdd6d658	-0.104901016
245	0xb7a1fa70	-1.9309315e-05
246	0xbe1d26ac	-0.15346783
247	0x3e20726c	0.15668648
248	0x3d63d145	0.055619497
249	0x3cb4df4b	0.02207913
250	0x3e2df9b4	0.16989785
251	0xbe162b40	-0.14664936
252	0xbe1b3bc5	-0.15159519
253	0x3e08d0f5	0.13360961
254	0x3e08afd3	0.13348322
255	0xbdc17078	-0.0944528

fc3.bias f4 [2]
0	0x3d6140e9	0.054993544
1	0xbda2f1aa	-0.0795625

bn.weight f4 [400]
0	0x3eeb2c3a	0.4593218
1	0x3e891071	0.26770356
2	0x3f598b50	0.849782
3	0x3f612d70	0.8795996
4	0x3f59de47	0.85104793
5	0x3ee5150b	0.44742617
6	0x3f4e92cc	0.80692744
7	0x3f7b90c3	0.98267764
8	0x3eb24569	0.3481858
9	0x3e20e4e5	0.15712316
10	0x3f273679	0.65317494
11	0x3ec22aef	0.3792338
12	0x3f16963c	0.5882299
13	0x3e009ada	0.12559071
14	0x3f3444f9	0.70417744
15	0x3ed18ac5	0.40926185
16	0x3f868d68	1.0511904
17	0x3f35fd7f	0.7108993
18	0x3f8315c3	1.0241016
19	0x3ed2878e	0.41119045
20	0x3f70bdaf	0.94039434
21	0x3e4112f7	0.18854891
22	0x3f651ff3	0.89501876
23	0x3f4c1ef7	0.7973475
24	0x3e060834	0.13089067
25	0x3f66568f	0.8997583
26	0x3e2ccd1d	0.1687512
27	0x3ebbd640	0.36686897
28	0x3e5834de	0.21113917
29	0x3e979a27	0.29609796
30	0x3ee9e9bf	0.45686147
31	0x3f7d7c75	0.9901803
32	0x3f16c21a	0.58889925
33	0x3f8121de	1.008846
34	0x3f3a3ff6	0.72753847
35	0x3f4cd80d	0.8001717
36	0x3ec33e61	0.3813353
37	0x3e6c6b0b	0.23087709
38	0x3e221bae	0.15830871
39	0x3e0c8393	0.13722067
40	0x3f82c6bb	1.0216898
41	0x3f1e244a	0.6177412
42	0x3e877665	0.26457515
43	0x3f57cded	0.8429859
44	0x3f5258f6	0.82166994
45	0x3ea1f280	0.31630325
46	0x3f8e7d4f	1.1131991
47	0x3f2c9076	0.6740793
48	0x3e96594e	0.2936501
49	0x3ef3f5ad	0.47648373
50	0x3eb3c42c	0.35110605
51	0x3ec55ab2	0.38545758
52	0x3ecda033	0.40161285
53	0x3f7794b1	0.9671126
54	0x3f7d77c2	0.9901086
55	0x3f3fd6eb	0.74937314
56	0x3f1f947e	0.62335956
57	0x3ed02885	0.40655914
58	0x3ea646a6	0.32475775
59	0x3f24d443	0.64386386
60	0x3f6f72fa	0.93534815
61	0x3f7834b5	0.96955425
62	0x3e5e6e9d	0.21721883
63	0x3f4d1fed	0.8012684
64	0x3e635640	0.2220087
65	0x3e5560a8	0.20837653
66	0x3ec0cdc4	0.37656987
67	0x3e2cc499	0.16871871
68	0x3f4d8623	0.802828
69	0x3f7ec67c	0.99521613
70	0x3e55c0f1	0.20874383
71	0x3f107a7d	0.564369
72	0x3f207013	0.6267101
73	0x3eaf8c9e	0.3428697
74	0x3f57e71c	0.8433702
75	0x3f820eb7	1.0160741
76	0x3f005275	0.5012582
77	0x3f72be40	0.9482155
78	0x3ecb117c	0.39661777
79	0x3f09af58	0.5378318
80	0x3eb02e6e	0.34410423
81	0x3f2f01e9	0.6836229
82	0x3f22974f	0.6351213
83	0x3f121e52	0.57077515
84	0x3e9bc164	0.30420983
85	0x3eebaaee	0.46028847
86	0x3f5acae9	0.85465866
87	0x3f42f81f	0.7615985
88	0x3f24f0b0	0.6442976
89	0x3eda5ca2	0.42648798
90	0x3f78b054	0.97144055
91	0x3ef51c69	0.47873238
92	0x3f4ce676	0.80039155
93	0x3f7811df	0.9690227
94	0x3e88ba53	0.26704654
95	0x3efff077	0.49988148
96	0x3e439f9d	0.19103856
97	0x3ea5b8b5	0.32367483
98	0x3f8b73e8	1.0894747
99	0x3e118451	0.14210631
100	0x3ee9deac	0.45677698
101	0x3f02a27f	0.510292
102	0x3f6d7da1	0.9276982
103	0x3ebca8d3	0.36847553
104	0x3eee82de	0.4658422
105	0x3ef309d6	0.47468442
106	0x3ea7e86d	0.32794514
107	0x3f6da00c	0.9282234
108	0x3f670db9	0.90255314
109	0x3f60a06b	0.8774478
110	0x3f59a98b	0.8502433
111	0x3e984467	0.29739687
112	0x3ec2cc70	0.38046598
113	0x3f0f08b0	0.5587263
114	0x3e6a9ad1	0.2291062
115	0x3f65b8ac	0.8973491
116	0x3e9fac11	0.31185964
117	0x3f570032	0.83984673
118	0x3e6bcbe5	0.23026998
119	0x3f625c03	0.8842165
120	0x3f86ac8d	1.0521408
121	0x3f45657e	0.7710799
122	0x3e781d22	0.24229863
123	0x3f8ca02b	1.0986379
124	0x3eb64d2a	0.35605747
125	0x3f801adc	1.0008197
126	0x3eea1575	0.45719495
127	0x3f7b3c3a	0.98138773
128	0x3f3948dc	0.723768
129	0x3eae28db	0.34015545
130	0x3e2ad7d9	0.16683902
131	0x3e636935	0.22208102
132	0x3f25a8d7	0.64710754
133	0x3eff1f21	0.49828437
134	0x3ee5306e	0.4476351
135	0x3f4ce859	0.80042034
136	0x3edded49	0.43345097
137	0x3f012d6e	0.50459945
138	0x3f11396e	0.56728256
139	0x3f2507a8	0.6446481
140	0x3f7432d7	0.95390075
141	0x3ebe6098	0.3718307
142	0x3f0e1c9b	0.555124
143	0x3d287141	0.041123632
144	0x3e664d76	0.22490487
145	0x3f3f28ac	0.74671435
146	0x3ee506b3	0.44731674
147	0x3ec66d82	0.38755423
148	0x3ed4c7f8	0.41558814
149	0x3f80b082	1.0053866
150	0x3ec362ce	0.3816132
151	0x3eb8efe0	0.3612051
152	0x3f3f5ad6	0.7474798
153	0x3ecb469b	0.39702305
154	0x3f26b850	0.6512499
155	0x3eeacbe8	0.45858693
156	0x3f1e2982	0.61782086
157	0x3e28f19a	0.16498414
158	0x3ee712ac	0.45131433
159	0x3f814a3b	1.0100778
160	0x3f846108	1.0342112
161	0x3f751379	0.9573284
162	0x3e9ce586	0.30643862
163	0x3f84a4b7	1.0362767
164	0x3ef8a67b	0.48564515
165	0x3f57ec1d	0.84344655
166	0x3ea025c8	0.31278825
167	0x3f0f86a8	0.56064844
168	0x3ea2deee	0.31810707
169	0x3f5a95d9	0.853849
170	0x3f7719a8	0.96523523
171	0x3ee457e9	0.4459832
172	0x3f852b26	1.0403793
173	0x3e74f60e	0.23921987
174	0x3e8fe93e	0.28107637
175	0x3f3e05ec	0.74227786
176	0x3eb456c4	0.35222447
177	0x3f839fe2	1.0283167
178	0x3e27ceb2	0.16387442
179	0x3f279a5a	0.65469897
180	0x3f232723	0.6373159
181	0x3e7efaa2	0.24900296
182	0x3ef8dafb	0.4860457
183	0x3f509537	0.81477684
184	0x3ed0ce9b	0.40782627
185	0x3dc0572b	0.09391626
186	0x3f2e181e	0.6800555
187	0x3f532be7	0.82488865
188	0x3f86022d	1.0469414
189	0x3e4dedd4	0.20110255
190	0x3f817cd8	1.0116224
191	0x3f784ce6	0.9699234
192	0x3eac2afc	0.33626544
193	0x3f622a8a	0.8834616
194	0x3eacb290	0.33729982
195	0x3e120daf	0.14263032
196	0x3f35bbdb	0.7098977
197	0x3ed5b3f3	0.41738853
198	0x3e943a79	0.2895086
199	0xbd029e62	-0.031889327
200	0x3e85f763	0.26165304
201	0x3f4f29c4	0.80923104
202	0x3f528829	0.82239014
203	0x3f22b15f	0.63551897
204	0x3f025b4a	0.50920546
205	0x3ec17243	0.37782487
206	0x3e870cdb	0.26376995
207	0x3f848a00	1.0354614
208	0x3e3f1d37	0.18663488
209	0x3e4721a9	0.19446434
210	0x3f59bb09	0.8505102
211	0x3ef9b021	0.48767188
212	0x3f87dfad	1.0615135
213	0x3f86c85a	1.0529892
214	0x3e8246fe	0.25444788
215	0x3f6b0d0b	0.91816777
216	0x3e56a991	0.20963122
217	0x3ea80a6c	0.3282045
218	0x3f0d9576	0.55306184
219	0x3f78ebae	0.9723462
220	0x3e2469bb	0.16055958
221	0x3f56f758	0.83971167
222	0x3f3f8df5	0.74825984
223	0x3e6a1ad4	0.22861797
224	0x3ea580b1	0.32324746
225	0x3e8341c4	0.25636113
226	0x3f035730	0.5130491
227	0x3e91df25	0.28490558
228	0x3ef4ab35	0.4778687
229	0x3e8cb8a0	0.27484608
230	0x3e788bdb	0.242721
231	0x3f42bbff	0.7606811
232	0x3f39a28f	0.7251367
233	0x3f715100	0.9426422
234	0x3f37cb0e	0.7179421
235	0x3f511c84	0.81684136
236	0x3e5976d7	0.2123674
237	0x3f4a5c82	0.79047406
238	0x3f7460e6	0.95460355
239	0x3f38810c	0.7207191
240	0x3e8deb94	0.27718794
241	0x3ed91f65	0.42406765
242	0x3f39def5	0.7260583
243	0x3f604262	0.8760129
244	0x3f8df3e8	1.1090059
245	0x3ec2fa2e	0.38081497
246	0xbdddc3d8	-0.1082837
247	0x3f79446a	0.97370017
248	0x3f5b50d4	0.8567021
249	0x3eb40766	0.35161895
250	0x3f37a09d	0.7172945
251	0x3dedfeea	0.116208866
252	0x3e25556d	0.16145869
253	0x3f09d012	0.53833115
254	0x3f603e8a	0.8759543
255	0x3f4103b3	0.7539627

bn.bias f4 [400]
0	0xbc9e2739	-0.019305812
1	0xbd86d930	-0.06584394
2	0x3d766ec0	0.060164213
3	0xbd0940b9	-0.03350899
4	0x3c8f988a	0.017528791
5	0xbca2604b	-0.019821307
6	0x3d53bcc7	0.051693704
7	0xbca510c2	-0.020149592
8	0x3da70f82	0.08157255
9	0xbd344add	-0.044016708
10	0xbd24b4a3	-0.04021133
11	0xbcc81de5	-0.024428317
12	0xbccfdeaf	-0.025374738
13	0x3d9384e6	0.07203083
14	0x3d7991aa	0.06092993
15	0x3d3c8f4d	0.0460351
16	0xbd9c683e	-0.0763707
17	0xbcf89806	-0.030345928
18	0xbc80d1fa	-0.015725125
19	0xbc6ae2f8	-0.01433634
20	0xbc44a291	-0.0120016495
21	0xbdc0e36b	-0.094183765
22	0x3a54405c	0.00080967485
23	0xbd2e151b	-0.042500596
24	0xbd73c8f0	-0.0595178
25	0xbba58a64	-0.005051898
26	0xbb9cade0	-0.0047814697
27	0x3ceac773	0.028659558
28	0x3cbe97a7	0.023265673
29	0xbdc8f495	-0.09812275
30	0x3c622758	0.013803326
31	0xbccdc493	-0.025118148
32	0xbc872c5c	-0.016500644
33	0xbd0fcf3b	-0.03510974
34	0x3c5e64ff	0.013573884
35	0x3d590973	0.052987527
36	0xbd99e06d	-0.07513509
37	0xbe02eae2	-0.12784913
38	0xbd290ac9	-0.04127005
39	0xbcc5774d	-0.024104739
40	0xbd8bab6b	-0.06819805
41	0xbd001717	-0.03127202
42	0x3cbeef3e	0.023307439
43	0xbd0af47e	-0.033924572
44	0x3d9c01c6	0.07617526
45	0xbc7ca8f1	-0.015421138
46	0xbd2397af	-0.03993958
47	0x3d0c3fa1	0.03424037
48	0xbd7d342d	-0.061817337
49	0xbbd79694	-0.0065792296
50	0x3cfbd12e	0.030739393
51	0xbc41e047	-0.011833257
52	0x3d50d487	0.050983932
53	0xbd481d46	-0.048856042
54	0xbafbef95	-0.0019221181
55	0xbcd1d32a	-0.025613386
56	0x3bd32a0c	0.0064442214
57	0xbd02f007	-0.03196719
58	0x3d153f29	0.036437187
59	0xbd409e4e	-0.04702597
60	0xbc6840a3	-0.014175567
61	0xbd266e1a	-0.040632345
62	0x3d8acd6b	0.067774616
63	0xbd1b1b71	-0.037867967
64	0x3d2963b8	0.041354865
65	0x3d2873f3	0.041126203
66	0xbc738ae2	-0.014864655
67	0xbd408616	-0.047002874
68	0x3c8b77fa	0.017024983
69	0x3c25087d	0.010072825
70	0xbe2962e4	-0.1654163
71	0x3bdcf9a5	0.006743627
72	0xbd3d02c6	-0.046145223
73	0x3d1cd4ee	0.038289003
74	0xbad63961	-0.0016344005
75	0xbd803779	-0.062605806
76	0xbd8d8e2d	-0.069118835
77	0xbd093f3b	-0.033507567
78	0x3d2a4b52	0.041575737
79	0xbd8cebcf	-0.068809144
80	0xbcb8ca47	-0.02255739
81	0x3cb89bda	0.022535253
82	0x3ceb2b03	0.028707033
83	0xbd2f7fde	-0.042846553
84	0x3957587e	0.00020536964
85	0x3b2a6848	0.0026002098
86	0x3bfc8bd9	0.007707101
87	0xbb4848c4	-0.003056095
88	0x3d111efa	0.035429932
89	0x3cbaef15	0.022819081
90	0xbc601125	-0.013675963
91	0xbca67378	-0.020318732
92	0x3c620bc6	0.013796752
93	0x3cd2cdaf	0.025732843
94	0xbca436f4	-0.020045735
95	0x3ce1bc83	0.02755571
96	0x3d238309	0.039919887
97	0xbd4f40e0	-0.05059898
98	0xbd41ce1a	-0.047315694
99	0xbb2a53a7	-0.0025989802
100	0x3b5cef05	0.0033711803
101	0x3c131c72	0.00897895
102	0xbd50144e	-0.050800614
103	0xbb0eca23	-0.0021787963
104	0xbcf25f2c	-0.029586397
105	0xbd235bb8	-0.03988239
106	0x3ca6d429	0.020364838
107	0xbc40cff6	-0.011768332
108	0xbd787709	-0.060660396
109	0xbce694fc	-0.028147213
110	0xbd49e34c	-0.049289033
111	0x3d711aad	0.05886333
112	0xbd4fb2ce	-0.05070763
113	0xbbd9243e	-0.006626635
114	0xbd679af0	-0.056544244
115	0x3ce799f9	0.028271662
116	0xbca3d676	-0.019999724
117	0xbc262325	-0.010140215
118	0xbd3144ba	-0.043278433
119	0xbbcffadb	-0.006347043
120	0x3d3e4431	0.04645175
121	0xbc62007a	-0.013794059
122	0xbc92681f	-0.017871914
123	0x3b05aba5	0.0020396498
124	0x3d148272	0.036257215
125	0x3cae5ec1	0.021285417
126	0xbd9052f2	-0.070470706
127	0x3c17d0fe	0.009266136
128	0xbccebfa2	-0.025237862
129	0xbd787990	-0.060662806
130	0x3d552018	0.05203256
131	0xbc2505fe	-0.010072229
132	0x3b79c2ff	0.0038110611
133	0xbdaa81b7	-0.083255224
134	0xbc8f523b	-0.017495265
135	0x3d4078d3	0.046990227
136	0xbbd8c560	-0.006615326
137	0xbd6c6d1c	-0.057721242
138	0x3cf67943	0.030087119
139	0xbc5c89f3	-0.013460624
140	0xbc87cf36	-0.016578298
141	0x3d042860	0.032265067
142	0xbc34d3d8	-0.011036836
143	0xbcd7dc2d	-0.026350105
144	0xbcf61116	-0.030037444
145	0xbc435ebc	-0.011924442
146	0x3c66f99c	0.014097597
147	0xbd8663c6	-0.06561999
148	0xbdc4e40f	-0.09613811
149	0x3ceb2874	0.028705813
150	0xbdca0185	-0.09863571
151	0x3cf5dac1	0.030011537
152	0x3c888c16	0.01666836
153	0xbc75914f	-0.014988258
154	0x3c06f29a	0.008236552
155	0xbc50e684	-0.012750272
156	0xbada7aeb	-0.0016668712
157	0x3a662207	0.0008778874
158	0x3d9d3916	0.07676904
159	0xbccc57a8	-0.024944142
160	0x3c987a71	0.018613072
161	0x3d7a64e1	0.061131362
162	0xbcc1b549	-0.023646014
163	0xbd45af2e	-0.048262767
164	0x3d1ebea0	0.038756013
165	0xbc5451a0	-0.012958914
166	0xbd4bb983	-0.049737465
167	0xbd4dc68f	-0.05023819
168	0x3c6296d1	0.013829903
169	0x3d20233b	0.0390961
170	0xbcf10497	-0.029421134
171	0xbbd017c3	-0.006350489
172	0xbbced1cf	-0.006311632
173	0x3caffec8	0.021483794
174	0x3c6aed73	0.014338839
175	0x3d15ffae	0.03662079
176	0xbca45385	-0.020059356
177	0x3b3097bd	0.0026945912
178	0xbad16e92	-0.0015978387
179	0x3d100054	0.035156563
180	0xbc83f384	-0.016107328
181	0xbd62266b	-0.05521242
182	0x3cfccaac	0.03085836
183	0xbd90f60b	-0.07078179
184	0x3c390cea	0.011294583
185	0x3c8424ce	0.016130831
186	0xbc69fa66	-0.014280891
187	0x3d1403ef	0.036136564
188	0x3d1d5bb0	0.03841752
189	0x3d0657f1	0.03279871
190	0x3c95a28d	0.018265987
191	0x3c3ef419	0.011654877
192	0x3d02cdf4	0.031934693
193	0xbbbc3772	-0.0057439143
194	0x3c6cf856	0.014463505
195	0x3ce78030	0.028259367
196	0x3cd6d713	0.026225602
197	0xbd716dd9	-0.05894265
198	0x3d237e64	0.039915457
199	0xbe02850b	-0.12746064
200	0xbd20ef73	-0.039290857
201	0x3b26cbd2	0.0025451076
202	0x3c91c588	0.017794386
203	0x3d6616dd	0.056174148
204	0x3cbb981f	0.022899685
205	0xbd8d391a	-0.06895657
206	0x3d371a78	0.044702977
207	0x3ca0e4fc	0.019640438
208	0x38ac8947	8.227169e-05
209	0x3dce7897	0.100815944
210	0x3da581db	0.080814086
211	0xbd269e49	-0.040678296
212	0xbd6a1dc4	-0.057157293
213	0xbd1d9d41	-0.038480047
214	0x3caa7e45	0.020812163
215	0xbd004afa	-0.031321503
216	0xbc5cff89	-0.013488659
217	0x3d47552f	0.04866522
218	0xbd2b8c0a	-0.0418816
219	0x3cb4f9b6	0.022091728
220	0x3d997329	0.07492668
221	0xbc3e87cd	-0.011629057
222	0x3d0f5753	0.03499539
223	0x3ccdc9c5	0.025120625
224	0x3d5ad1c0	0.05342269
225	0x3d1e681f	0.038673516
226	0xbc90e1c3	-0.017685777
227	0xbd276b7b	-0.040873986
228	0xbd95393c	-0.07286307
229	0x3d3381c5	0.04382493
230	0x3cdcaf47	0.026939048
231	0xbd1531cd	-0.036424447
232	0xba61bc6a	-0.0008611145
233	0x3da71c09	0.08159644
234	0x3ce8fe5c	0.0284416
235	0xbc1e863d	-0.00967556
236	0xbe0ccc7a	-0.13749877
237	0xbca9cab9	-0.020726549
238	0xbd0114a2	-0.031513818
239	0x3c90948c	0.017648958
240	0xbbc35254	-0.005960742
241	0xbc26b3a0	-0.010174662
242	0x3c15ea95	0.009150167
243	0x3d240c26	0.04005065
244	0xbd0c065d	-0.034185756
245	0xbd96cf4f	-0.0736376
246	0x3dfd69d4	0.12373701
247	0x3c26e037	0.010185293
248	0xbd497cc0	-0.049191236
249	0xbda8653c	-0.08222434
250	0xbb8053bb	-0.0039162314
251	0xbd0fbfb3	-0.035094928
252	0x3cf4d397	0.02988605
253	0xbd786adf	-0.060648795
254	0xbd144293	-0.036196303
255	0xbd3a8faa	-0.045547165
