model_dir/checkpoint_critic_local_1.pth (torch_old, 575149 bytes, 9 tensors)

fcs1.weight f4 [400, 52]
0.0031348828 -0.20040926 0.042181678 0.09661513 0.24857667 -0.52845246 -0.016659692 0.09130367
-0.018813862 -0.1073649 0.04769207 0.060827944 0.23677595 -0.45736727 0.03326502 0.062334236
-0.05245153 -0.0787832 0.011927249 -0.05856296 0.27290025 -0.6773386 0.02015569 -0.059984405
0.16635159 -0.07347655 0.0184389 -0.08649429 -0.23622829 -0.5830965 -0.031805288 -0.029385738
0.1569612 -0.17662834 -0.003877046 -0.039412897 -0.24616398 -0.5105614 0.024384419 -0.03495293
0.13832256 -0.114414036 0.0071530165 -0.11230202 -0.25390822 -0.72963744 0.0017568514 -0.1348093
0.07350506 0.8405825 1.8684281 0.6644131 0.15728116 0.00053992006 -0.073759876 0.46934408
-0.07282636 0.14608787 -0.04305542 0.44202796 0.17437531 0.17582655 -0.13567483 0.3488084
-0.11698042 -0.121158704 -0.17543294 0.31354788 0.061948106 0.37889677 0.12557474 0.23562291
-0.21227919 -0.03803053 0.066483095 0.19706611 0.21521781 0.28198433 -0.028035486 -0.21280389
0.08003572 0.08602749 -0.05552091 -0.14760964 0.23037659 0.4075829 -0.011641557 -0.06629511
0.0951308 -0.11725253 -0.0657123 -0.00091707305 0.16083886 0.38381603 -0.07504727 -0.2394642
0.18597533 -0.074298106 0.021340305 -0.28846174 0.6334904 1.5168241 0.3696848 -0.15326405
0.05361907 0.11145864 -0.11311246 -0.04502728 0.18596041 -0.11560386 -0.12289706 -0.016950095
0.0068214494 0.11540905 0.07393792 0.00046354663 0.19804063 -0.19868487 0.09210798 0.043096606
0.10968827 0.17901124 0.07541965 -0.024345322 0.18834162 -0.26923382 0.08670998 -0.007665166
-0.024041215 -0.29056445 0.024795879 -0.18210411 -0.14579324 -0.12060814 0.046473905 -0.15253466
0.11232057 -0.28090996 0.13171162 0.05551211 -0.20513837 -0.24610771 0.15829612 0.12099767
0.107091084 -0.27066037 0.053135883 -0.025380198 -0.19228587 -0.28196916 0.041064862 -0.009060099
0.4733668 0.05780337 0.3597929 0.5478487 0.021695234 0.68096274 -0.090416595 0.19159621
-0.39855954 -0.15372641 -0.06468051 0.19091369 0.027212193 0.6578667 0.18825434 -0.15703025
-0.22210227 -0.13032699 0.11952463 -0.14056213 0.14489412 0.4799625 0.071001925 -0.6706576
0.046587706 -0.03836571 0.09417582 -0.67267585 -0.046942037 0.5430281 -0.0020669936 0.14420402
0.31754208 -0.18548076 0.0063959975 0.06776986 -0.06063271 0.5901674 0.057904087 0.24143982
0.15560453 -0.12684977 0.05391629 0.25813812 -0.050779 0.6048706 0.0065235654 -0.039007626
-0.09420948 -0.056994293 0.010556554 0.016046608 -0.6633429 -0.07585079 0.38764334 0.3987862
-0.13531625 0.14721651 0.042349942 -0.08866731 0.2139281 0.08613504 0.057197846 -0.060774025
0.02268999 0.22338864 0.16289414 -0.20895764 0.10975431 0.07854718 0.170869 -0.17180568
0.05366866 0.11475782 -0.02259554 -0.025780896 -0.0036168827 0.18215723 0.050548416 -0.07977051
-0.08645749 -0.07410951 0.039875343 0.24666922 -0.23126368 0.13957357 -0.03640443 0.20868856
-0.006790495 -0.0092903655 0.095798284 -0.02080436 -0.13731448 0.0833759 0.07917027 -0.012228888
0.09616035 0.04883576 0.09545094 0.0912079 0.033122063 0.14039394 0.08202101 0.076290905
00000000: 9b72 4d3b 1638 4dbe b2c6 2c3d 27de c53d
00000010: e28a 7e3e a948 07bf e879 88bc 6bfd ba3d
00000020: 871f 9abc 21e2 dbbd c358 433d b926 793d
00000030: 6575 723e 0b2c eabe e740 083d 2f52 7f3d
00000040: 6ad7 56bd 1659 a1bd 826a 433c b7df 6fbd
00000050: 95b9 8b3e 1066 2dbf 8c1d a53c 35b2 75bd
00000060: 1258 2a3e e07a 96bd 2d0d 973c eb23 b1bd
00000070: d4e5 71be d045 15bf 4346 02bd 5cba f0bc
00000080: 70ba 203e 0fde 34be 0a16 7ebb 6b6f 21bd
00000090: 6912 7cbe 27b4 02bf d5c1 c73c ce2a 0fbd
000000a0: 6ea4 0d3e e851 eabd da63 ea3b 9afe e5bd
000000b0: 4200 82be 85c9 3abf 2746 e63a 730b 0abe
000000c0: d289 963d 6a30 573f a728 ef3f fa16 2a3f
000000d0: 500e 213e 6c89 0d3a 6b0f 97bd de4d f03e
000000e0: fd25 95bd 0f98 153e e15a 30bd 7d51 e23e
000000f0: 718f 323e e00b 343e 58ee 0abe 0497 b23e
00000100: 6e93 efbd 0e22 f8bd b1a4 33be 5989 a03e
00000110: 4cbd 7d3d c2fe c13e aa96 003e 2247 713e
00000120: b75f 59be e7c5 1bbd 4a28 883d b3cb 493e
00000130: 0f62 5c3e 4060 903e adaa e5bc 43e9 59be
00000140: c4e9 a33d 2e2f b03d e569 63bd fb26 17be
00000150: d7e7 6b3e b5ae d03e 3bbc 3ebc bbc5 87bd
00000160: f0d3 c23d 1822 f0bd 2c94 86bd bb67 70ba
00000170: f1b2 243e 8983 c43e 62b2 99bd 1a36 75be
00000180: 5170 3e3e 9b29 98bd ddd1 ae3c 42b1 93be
00000190: 6d2c 223f 4b27 c23f 5347 bd3e 40f1 1cbe
000001a0: ac9f 5b3d 6d44 e43d 81a7 e7bd 866e 38bd
000001b0: 686c 3e3e b7c1 ecbd 74b1 fbbd edda 8abc
000001c0: 7786 df3b 945b ec3d c46c 973d 2d08 f339
000001d0: 2acb 4a3e 0c74 4bbe 1ca3 bc3d 1186 303d
000001e0: 3ea4 e03d b94e 373e 9e75 9a3d d76f c7bc
000001f0: a0dc 403e 04d9 89be 0195 b13d 132c fbbb
00000200: 15f2 c4bc ddc4 94be ba20 cb3c 8079 3abe
00000210: d34a 15be 6701 f7bd 6c5b 3e3d 0c32 1cbe
00000220: 5408 e63d 6ed3 8fbe 69df 063e ab60 633d
00000230: cb0f 52be a903 7cbe 6118 223e a0cd f73d
00000240: 9252 db3d ff93 8abe 03a5 593d 22ea cfbc
00000250: 96e6 44be 435e 90be a133 283d cf70 14bc
00000260: 225d f23e 3ac3 6c3d c636 b83e d03f 0c3f
00000270: 34ba b13c 9353 2e3f 562c b9bd cc31 443e
00000280: ff0f ccbe 756a 1dbe 3777 84bd e17e 433e
00000290: 1bec de3c f469 283f bfc5 403e 8acc 20be
000002a0: c76e 63be 7074 05be 54c9 f43d 85ef 0fbe
000002b0: 205f 143e a5bd f53e 7569 913d 37b0 2bbf
000002c0: c0d2 3e3d 5d25 1dbd 41df c03d 7c34 2cbf
000002d0: 4b46 40bd e403 0b3f 6676 07bb 38aa 133e
000002e0: e094 a23e abee 3dbe 8495 d13b edca 8a3d
000002f0: 015a 78bd 3615 173f d62c 6d3d 003c 773e
00000300: cb56 1f3e e8e4 01be 54d7 5c3d ae2a 843e
00000310: a4fd 4fbd cdd8 1a3f a2c3 d53b 76c6 1fbd
00000320: e6f0 c0bd d972 69bd 66f5 2c3c 2d74 833c
00000330: d7d0 29bf a957 9bbd 3079 c63e b42d cc3e
00000340: 5890 0abe edbf 163e 2277 2d3d 3597 b5bd
00000350: f80f 5b3e 9167 b03d 4a48 6a3d 2fee 78bd
00000360: 5ce0 b93c febf 643e b9cd 263e fef8 55be
00000370: dec6 e03d 58dd a03d 48f8 2e3e d4ed 2fbe
00000380: abd3 5b3d 2606 eb3d 481a b9bc 7532 d3bc
00000390: 3909 6dbb 6d87 3a3e db0b 4f3d b95e a3bd
000003a0: a010 b1bd bac6 97bd 5454 233d db96 7c3e
000003b0: 63d0 6cbe 60ec 0e3e d01c 15bd 74b2 553e
000003c0: cd82 debb 9e36 18bc e431 c43d e86d aabc
000003d0: 2b9c 0cbe fcc0 aa3d 0624 a23d ad5b 48bc
000003e0: b8ef c43d 0208 483d c87b c33d 35cb ba3d
000003f0: 00ab 073d 6ec3 0f3e a2fa a73d 683e 9c3d

fcs1.bias f4 [400]
-0.13816169 -0.0929353 -0.10046009 -0.028757742 -0.12059271 -0.076223 -0.2310155 -0.40174887
-0.63752025 -0.14501952 -0.38251647 -0.055307295 -0.023311343 -0.010017321 -0.1589137 -0.082556084
-0.13427965 -0.13954392 0.11256885 -0.1366839 -0.44070297 -0.10397132 -0.1084225 -0.050939657
-0.44616786 -0.3744092 0.09495688 0.1195045 -0.34209213 -0.3531667 -0.019325836 0.13142724
-0.14753333 -0.25339 -0.18451837 0.048863463 0.056218404 0.05096443 0.0066980748 -0.2310646
0.13495442 -0.24899286 -0.26090953 -0.026830705 -0.020894049 0.08470598 -0.0038718488 0.20925863
-0.13455044 -0.06557034 -0.06174684 0.19739424 -0.024655497 -0.106452845 0.037147727 0.036237694
0.06402334 -0.19230765 -0.14611188 -0.11052743 -0.32252738 0.07883847 0.02986142 0.061654907
-0.17821153 -0.015713332 0.08880177 -0.040550146 -0.24539526 -0.15020567 -0.3091159 -0.18814647
-0.08734583 -0.0038161618 0.006761109 0.11423546 -0.24024333 -0.08320176 -0.1520785 0.14039946
-0.047855884 -0.40469474 0.027168175 -0.42840478 -0.22209257 -0.26371858 0.039143402 -0.0631175
-0.18807171 0.19549768 0.0014071317 -0.120027795 -0.01987255 -0.09145162 -0.050570946 0.049608808
-0.22856519 -0.3031872 0.08480202 -0.153959 0.098867044 -0.25281653 -0.13334219 -0.22988391
-0.009966102 -0.13752122 0.006877119 -0.1664276 -0.061521243 -0.19933783 -0.32989645 -0.09203189
-0.3226082 -0.3016612 0.011238298 0.1180143 0.049298495 0.02476744 -0.22966059 -0.14678575
-0.28414193 -0.056757342 -0.42533275 -0.19946511 -0.47644496 -0.23542784 -0.20225108 -0.0339261
-0.17165218 -0.10688365 -0.25691572 -0.07557631 -0.066557325 -0.09655829 -0.30773526 0.0013624418
0.022392508 -0.1891588 -0.23097636 -0.11562946 -0.07635946 -0.21702276 -0.3366079 -0.24238238
-0.068449 0.064104415 -0.2754052 -0.3680565 -0.17358638 -0.31368133 -0.21615069 -0.090618104
-0.43824318 0.020800166 -0.32333326 0.05211836 -0.24983816 0.06499878 -0.3167523 0.3492454
-0.22304264 -0.12655953 -0.26509237 -0.22453217 -0.15696293 -0.13601209 -0.13099992 0.062435642
-0.12324444 -0.39917755 -0.35465103 -0.032376006 -0.10896537 0.1777013 -0.18081516 -0.26371273
-0.05027462 -0.12503833 -0.13050139 -0.028064683 0.09601064 -0.25430274 0.12799889 -0.33017424
0.05707893 -0.114107445 -0.22249722 0.0826439 -0.059187833 0.07001689 -0.23910582 0.08643989
0.012485003 -0.3362913 -0.11193166 -0.15202606 -0.10309264 -0.124377355 -0.016962644 -0.23354952
-0.061422743 -0.19663295 -0.2896245 -0.05757565 -0.3096574 -0.09256995 0.08884885 -0.28884134
-0.077471524 0.038721617 -0.48607555 -0.13125846 -0.30174592 -0.16888586 -0.18671596 -0.2782528
-0.19665383 0.016462667 -0.1602677 -0.3638166 -0.09783233 -0.701981 -0.16456443 -0.15456818
0.02883482 -0.28621715 -0.18599938 -0.18291186 -0.28852862 -0.033971474 -0.12502663 -0.2830493
-0.38149607 0.1308871 -0.13217908 0.060049813 -0.17789789 -0.07579129 -0.19254093 -0.30823037
-0.20132115 -0.07054919 0.10147779 -0.07355589 -0.15100385 0.06895279 -0.16152093 -0.23763613
-0.12955293 -0.021337349 -0.34627715 0.039349675 -0.05264861 -0.13917017 -0.027447788 0.14874859
00000000: 427a 0dbe dd54 bebd 05be cdbd 5b95 ebbc
00000010: 50f9 f6bd ce1a 9cbd 548f 6cbe 07b2 cdbe
00000020: 8734 23bf ff7f 14be 33d9 c3be e789 62bd
00000030: 6ef7 bebc b11f 24bc 46ba 22be 2a13 a9bd
00000040: 9b80 09be 9ae4 0ebe 7f8a e63d ddf6 0bbe
00000050: d2a3 e1be eaee d4bd 9e0c debd 1aa6 50bd
00000060: 1d70 e4be 90b2 bfbe c178 c23d c6be f43d
00000070: b326 afbe 44d2 b4be 3751 9ebc dd94 063e
00000080: fa12 17be 56bc 81be 62f2 3cbe 0e25 483d
00000090: 4545 663d 14c0 503d 867b db3b 339c 6cbe
000000a0: 7e31 0a3e fcf7 7ebe ef95 85be 11cc dbbc
000000b0: ff29 abbc 547a ad3d d8be 7dbb e547 563e
000000c0: 97c7 09be be49 86bd 41ea 7cbd b721 4a3e
000000d0: 53fa c9bc f303 dabd 3728 183d fa6d 143d
000000e0: ab1e 833d 4cec 44be 5a9e 15be 355c e2bd
000000f0: 4f22 a5be 1076 a13d f09f f43c db89 7c3d
00000100: 157d 36be 3fb9 80bc b4dd b53d e917 26bd
00000110: e548 7bbe 84cf 19be 7044 9ebe 78a9 40be
00000120: 5fe2 b2bd 9218 7abb 4b8c dd3b 48f4 e93d
00000130: 5902 76be af65 aabd 77ba 1bbe e0c4 0f3e
00000140: 8804 44bd 2634 cfbe cb8f de3c df57 dbbe
00000150: 3c6c 63be 1f06 87be d554 203d bf43 81bd
00000160: df95 40be 8b30 483e 816f b83a 22d1 f5bd
00000170: c2cb a2bc fd4a bbbd 7b23 4fbd 9b32 4b3d
00000180: fe0c 6abe 5a3b 9bbe aeac ad3d 6ea7 1dbe
00000190: ce7a ca3d 2b71 81be db8a 08be b066 6bbe
000001a0: dd48 23bc 5dd2 0cbe 7559 e13b ff6b 2abe
000001b0: b3fd 7bbd 371f 4cbe 30e8 a8be 377b bcbd
000001c0: e72c a5be 5673 9abe d720 383c 7bb1 f13d
000001d0: 38ed 493d 16e5 ca3c 252c 6bbe 014f 16be
000001e0: 0d7b 91be 637a 68bd 37c5 d9be 9540 4cbe
000001f0: 98f0 f3be ff13 71be e81a 4fbe 18f6 0abd
00000200: 97c5 2fbe d1e5 dabd 758a 83be c1c7 9abd
00000210: 354f 88bd 5ac0 c5bd 7a8f 9dbe f693 b23a
00000220: 7e70 b73c d8b2 41be 1185 6cbe 23cf ecbd
00000230: 5962 9cbd 373b 5ebe df57 acbe 1633 78be
00000240: fd2e 8cbd 2d49 833d e901 8dbe e771 bcbe
00000250: a1c0 31be d79a a0be 9b56 5dbe fc95 b9bd
00000260: 6961 e0be 1c65 aa3c f08b a5be 107a 553d
00000270: 93d5 7fbe 151e 853d 5c2d a2be 4bd0 b23e
00000280: 4a65 64be d298 01be 30ba 87be c3eb 65be
00000290: e4ba 20be c146 0bbe d824 06be 84bc 7f3d
000002a0: 9567 fcbd 0061 ccbe d294 b5be b49c 04bd
000002b0: 3c29 dfbd 54f7 353e 9c27 39be 5b05 87be
000002c0: c3ec 4dbd 0c0a 00be 28a2 05be e8e7 e5bc
000002d0: 3aa1 c43d f833 82be 2412 033e 990c a9be
000002e0: 99cb 693d 2ab1 e9bd 50d6 63be 3441 a93d
000002f0: f16e 72bd 0465 8f3d 28d8 74be 6607 b13d
00000300: e68d 4c3c 602e acbe 6d3c e5bd b8ac 1bbe
00000310: 3c22 d3bd 8eb9 febd 3ef5 8abc 9b27 6fbe
00000320: 6a96 7bbd 265a 49be aa49 94be 72d4 6bbd
00000330: 6a8b 9ebe 5095 bdbd 63f6 b53d 03e3 93be
00000340: 64a9 9ebd 8f9a 1e3d e5de f8be 9e68 06be
00000350: 717e 9abe 6af0 2cbe 7832 3fbe 2777 8ebe
00000360: 9f5f 49be b7dc 863c 371d 24be 2b46 babe
00000370: 515c c8bd 07b5 33bf 9483 28be 1f47 1ebe
00000380: 0037 ec3c 0e8b 92be 9f76 3ebe 3f4d 3bbe
00000390: 06ba 93be ac25 0bbd fb06 00be d6eb 90be
000003a0: 7453 c3be 4507 063e f459 07be cbf6 753d
000003b0: dd2a 36be 7738 9bbd 7329 45be 5fd0 9dbe
000003c0: 2227 4ebe 187c 90bd 96d3 cf3d 78a4 96bd
000003d0: c1a0 1abe 1f37 8d3d be65 25be e356 73be
000003e0: 86a9 04be aacb aebc 3d4b b1be 202d 213d
000003f0: 12a6 57bd a082 0ebe 2fda e0bc 8d51 183e

fc2.weight f4 [300, 400]
-0.06392082 -0.21646693 -0.109644674 -0.07395062 -0.0033971732 0.21166538 -0.10581832 0.23226355
-0.007300327 -0.101110816 -0.26584747 0.014539348 -0.035868227 -0.0050763693 -0.67554414 -0.009553754
-0.21301349 -0.07249475 -0.22441375 -0.015499479 0.060963582 -0.05632937 -0.08169847 -0.024497228
-0.13157873 0.10089133 -0.16039109 -0.23674366 0.06914946 -0.0048358347 -0.07616677 0.013625459
-0.089692555 0.2637828 -0.07575589 -0.075136654 0.097044334 -0.040300537 0.10302024 -0.03191837
0.16014755 -0.050548546 0.7817194 0.052287556 0.003408457 -0.3845116 0.17591096 -0.07920194
-0.25342813 0.094821826 -0.031052576 -0.14263377 -0.25660464 0.16890137 -0.008883189 0.0952388
0.008580406 0.061820153 0.0878239 0.020046601 0.03842737 -0.0125325415 0.2657935 0.020891385
0.03574636 0.01921818 0.2385165 -0.23675016 -0.02752087 -0.2927167 -0.15372849 0.025277285
0.009808471 0.1190164 -0.124603085 -0.0032012186 -0.075323515 0.002483871 0.18196231 0.0649514
-0.112505205 -0.078069985 0.02197537 -0.28935912 0.029906832 -0.2319835 -0.20632194 0.053539604
0.07744232 0.054619085 -0.0038115936 -0.15164243 0.13203159 -0.26825267 -0.031297576 -0.012499013
0.16563255 -0.27777195 -0.05450066 -0.1922768 -0.14341302 -0.22063297 -0.09214063 0.01899847
0.009485109 0.026727011 0.09810873 0.0354117 -0.045120202 0.06380949 -0.3449283 -0.10115896
0.027986696 -0.15649188 0.08224587 -0.1218125 0.03426865 -0.016084416 0.017630246 0.09498725
-0.046410616 -0.021312417 0.023525268 0.06860439 -0.2527937 0.19198558 0.059006277 -0.07914394
0.017701477 -0.084663816 0.020220513 -0.0034126888 -0.049343165 0.15984328 -0.031071248 0.063424155
0.06905787 0.012599737 -0.0142073445 0.06638251 0.009380608 0.010758372 -0.35920218 -0.120150045
-0.18895014 0.23262094 -0.29591846 0.014767652 0.23848444 -0.14016873 -0.13331161 0.061670918
0.0930473 -0.07520178 -0.3801535 -0.20373309 0.196033 0.00013397724 -0.43696514 0.13072334
0.016595993 -0.11545333 -0.07850972 -0.22464435 -0.014798267 0.08882094 0.0012499285 -0.049968336
0.012640199 0.0056603434 -0.22837849 0.016260866 0.028075349 0.0035298087 0.079560205 -0.038451873
0.005106911 0.13088147 0.09700476 0.015381926 0.1835296 0.008345986 -0.09243579 -0.040768176
0.019307278 0.024699192 0.08970385 -0.003972737 -0.27445754 -0.17915608 0.05316903 -0.014876746
0.07559404 -0.09080669 -0.077618375 -0.17359753 -0.22482292 0.11157195 -0.06548361 0.069024526
-0.31477383 -0.03389524 0.18010081 -0.009013383 0.07983824 -0.107849784 0.00038028107 -0.03899158
-0.008526901 0.37307522 0.13393186 0.25655198 0.2234827 0.025380408 -0.14886263 0.02402364
-0.09459428 0.09533674 -0.043203022 0.043936722 0.056983847 -0.16835466 0.18194976 -0.031378552
0.0018622396 -0.028521514 -0.18066162 -0.2215695 -0.051990706 -0.015125181 -0.09414926 -0.36433747
-0.1335482 -0.23434569 -0.21199659 0.101616815 -0.1537978 -0.18049794 -0.121213704 0.08601178
0.04380591 -0.33117336 -0.10968363 0.059695993 0.084257215 -0.21641913 -0.23755726 0.13827883
0.2213506 0.056026213 -0.033105716 -0.16346182 0.024117423 -0.3249223 0.010796683 -0.12909573
00000000: ebe8 82bd 82a9 5dbe 638d e0bd 6c73 97bd
00000010: 1ca3 5ebb cfbe 583e 46b7 d8bd 7fd6 6d3e
00000020: 9537 efbb 3013 cfbd 291d 88be 7236 6e3c
00000030: 90ea 12bd ac57 a6bb 76f0 2cbf 5987 1cbc
00000040: 3520 5abe 2178 94bd b8cc 65be 87f1 7dbc
00000050: f3b4 793d a0b9 66bd 8751 a7bd 69ae c8bc
00000060: 93bc 06be 1da0 ce3d 903d 24be ee6c 72be
00000070: 3b9e 8d3d ec75 9ebb 53fd 9bbd 513d 5f3c
00000080: bbb0 b7bd 8a0e 873e e725 9bbd 3fe1 99bd
00000090: 2ebf c63d 2d12 25bd 47fc d23d d6bc 02bd
000000a0: b8fd 233e fe0b 4fbd c31e 483f 7a2b 563d
000000b0: 6b60 5f3b b4de c4be 0122 343e a034 a2bd
000000c0: 55c1 81be f231 c23d f961 febc 960e 12be
000000d0: af61 83be 7bf4 2c3e cc8a 11bc 8f0c c33d
000000e0: d594 0c3c 2137 7d3d 04dd b33d c538 a43c
000000f0: 0566 1d3d 4a55 4dbc 1616 883e 6924 ab3c
00000100: c66a 123d 726f 9d3c ab3d 743e a26e 72be
00000110: 7373 e1bc f7de 95be 006b 1dbe 4f12 cf3c
00000120: b6b3 203c dfbe f33d e72f ffbd 89cb 51bb
00000130: 3743 9abd 71c8 223b 5454 3a3e 3d05 853d
00000140: 2169 e6bd 28e3 9fbd b105 b43c e126 94be
00000150: 2cff f43c 158d 6dbe 0f46 53be 584c 5b3d
00000160: 149a 9e3d 43b8 5f3d eecb 79bb 2748 1bbe
00000170: 4a33 073e 6a58 89be e331 00bd a9c8 4cbc
00000180: 949b 293e 2038 8ebe 163c 5fbd 36e4 44be
00000190: ddda 12be 9ced 61be 3ab4 bcbd aea2 9b3c
000001a0: 6e67 1b3c 9bf2 da3c 3bed c83d dc0b 113d
000001b0: f6cf 38bd 8dae 823d 719a b0be 6e2c cfbd
000001c0: 5b44 e53c 683f 20be 8670 a83d d578 f9bd
000001d0: 495d 0c3d 77c3 83bc 4e6d 903c ad88 c23d
000001e0: 0f19 3ebd 6197 aebc 10b8 c03c 7580 8c3d
000001f0: 2d6e 81be de97 443e 91b0 713d 3816 a2bd
00000200: b002 913c 3964 adbd 7da5 a53c 6ba7 5fbb
00000210: 0f1c 4abd f5ad 233e 2189 febc 86e4 813d
00000220: 366e 8d3d 216f 4e3c ecc5 68bc 8ef3 873d
00000230: 1fb1 193c e243 303c 59e9 b7be 3a11 f6bd
00000240: 257c 41be 2f34 6e3e a082 97be 06f4 713c
00000250: 4435 743e 6488 0fbe d782 08be a59a 7c3d
00000260: 958f be3d 6403 9abd 7ba3 c2be 689f 50be
00000270: e0bc 483e 3e7c 0c39 e5b9 dfbe 57dc 053e
00000280: 52f4 873c cc72 ecbd b4c9 a0bd 2b09 66be
00000290: 6e74 72bc c1e7 b53d a4d4 a33a 99ab 4cbd
000002a0: d618 4f3c 677a b93b 0ddc 69be 8235 853c
000002b0: 46fe e53c 5d54 673b 76f0 a23d b67f 1dbd
000002c0: e057 a73b cb05 063e 6eaa c63d 7904 7c3c
000002d0: 2fef 3b3e 9abd 083c fa4e bdbd 88fc 26bd
000002e0: 4c2a 9e3c f655 ca3c a7b6 b73d bc2d 82bb
000002f0: b385 8cbe b174 37be c5c7 593d 98bd 73bc
00000300: 0cd1 9a3d dcf8 b9bd 62f6 9ebd 8dc3 31be
00000310: fb37 66be d67f e43d 451c 86bd bb5c 8d3d
00000320: 092a a1be bcd5 0abd 596c 383e deac 13bc
00000330: 3b82 a33d 59e0 dcbd 7660 c739 a3b5 1fbd
00000340: 6ab4 0bbc b703 bf3e 6f25 093e c85a 833e
00000350: a6d8 643e 93ea cf3c 726f 18be 3acd c43c
00000360: a5ba c1bd e93f c33d a7f5 30bd fef6 333d
00000370: e567 693d 2a65 2cbe 0a51 3a3e cc86 00bd
00000380: 6416 f43a f3a5 e9bc 5cff 38be 1de3 62be
00000390: 35f4 54bd 9bcf 77bc 54d1 c0bd 718a babe
000003a0: dcc0 08be 51f8 6fbe a215 59be 7a1c d03d
000003b0: 2c7d 1dbe 74d4 38be e43e f8bd f226 b03d
000003c0: d36d 333d 8e8f a9be d0a1 e0bd c983 743d
000003d0: 0c8f ac3d fa9c 5dbe 3642 73be f798 0d3e
000003e0: bba9 623e be7b 653d dc99 07bd 8962 27be
000003f0: e791 c53c 375c a6be 92e4 303c ac31 04be

fc2.bias f4 [300]
-0.18350187 -0.041677278 0.015697349 -0.13820764 -0.08154437 -0.10232438 -0.093328856 -0.11548789
-0.10565013 -0.18801278 -0.08259809 -0.10724055 -0.07508963 -0.13994238 -0.05045985 -0.12915197
-0.027086195 -0.13999766 0.0358997 -0.13417807 -0.018890316 -0.07307192 -0.06366651 -0.16979969
-0.028766835 -0.10451015 -0.0485641 -0.041442357 -0.03947808 -0.05144935 -0.112292476 -0.08726631
-0.100769706 -0.07384576 -0.061172254 -0.15841661 -0.08101351 -0.109713666 -0.14917094 -0.055991814
-0.08351153 -0.054124042 -0.10549489 -0.11531908 -0.09417635 -0.07146708 -0.080709495 -0.03472914
-0.23378189 -0.09597081 -0.12987252 -0.123627014 -0.12742181 -0.054732297 -0.028608209 -0.11091997
-0.17169805 -0.15593679 -0.06981997 -0.19030981 -0.10348361 -0.0581399 -0.15182933 -0.042216968
-0.090795204 -0.064722896 -0.03508456 -0.06208778 -0.08043961 -0.09837473 -0.09890562 -0.14805838
-0.048880387 -0.045642477 -0.04255611 -0.12716296 -0.24460427 -0.15487821 -0.117279716 -0.14781518
-0.051672757 -0.07605408 -0.1120445 -0.12334532 -0.21000996 -0.061551943 -0.05392744 -0.11812675
-0.07359461 -0.0107911825 -0.09612976 -0.037439544 -0.17574345 -0.091604404 -0.03194754 -0.09781883
-0.10594847 -0.09913628 -0.113797754 -0.090944424 -0.05522267 -0.033391304 -0.06088473 -0.09144842
-0.0799311 -0.083102 -0.107075945 -0.0844999 -0.09193085 -0.034359656 -0.17473623 -0.21582362
-0.11149709 -0.13483182 -0.06487824 -0.13556267 -0.039816316 -0.120915756 -0.0645792 -0.055148482
-0.043315794 -0.15846765 -0.09368967 -0.11410548 -0.062477846 -0.102579914 -0.16081534 -0.13113189
-0.13543358 -0.021115579 -0.109519914 -0.02544864 -0.099242605 -0.09076267 -0.24490131 -0.077213496
-0.056143057 -0.057164084 -0.021836154 -0.1449173 -0.08305357 -0.11569248 -0.010720132 -0.12996927
-0.044315998 -0.13222274 -0.07360118 -0.08321181 -0.052380122 -0.048164338 -0.06349095 -0.092334345
-0.083517775 -0.11334288 -0.091414936 -0.102534205 -0.12681083 -0.25005147 -0.10000313 -0.08891173
-0.06894344 -0.08079808 -0.0879635 -0.15922172 -0.112349674 -0.11426167 0.0123387 -0.026966168
-0.10613145 -0.14826262 -0.12786977 -0.063404195 -0.095952205 -0.07490232 -0.089806445 -0.025338642
-0.04563418 -0.08810357 -0.058898076 -0.10612059 -0.09876278 -0.121106476 -0.086556114 -0.092291184
-0.016931621 -0.031946868 -0.11775962 -0.048292227 -0.081380375 -0.04591061 -0.09540256 -0.05326129
-0.11286486 -0.15081607 -0.07868126 -0.01678147 -0.1074805 -0.11774839 -0.11435871 -0.07853272
-0.08283687 -0.072748736 -0.046514776 -0.06848986 -0.031748317 -0.08946855 -0.22706653 -0.09480357
-0.034392424 -0.17997108 -0.105197355 -0.13325752 -0.048415888 -0.039328236 -0.12717165 -0.14490764
-0.08082354 -0.03485719 -0.07096451 -0.09710398 -0.09768098 -0.068972826 -0.042939402 -0.14659329
-0.07853154 -0.04550363 -0.079956874 -0.09638178 -0.08687817 -0.12118091 -0.09199578 -0.08969584
-0.05227153 -0.2800794 -0.10953765 -0.09284565 -0.0725793 -0.1100742 -0.09416367 -0.07259471
-0.12371043 -0.09534249 -0.044720165 -0.14956757 -0.09133722 -0.03579845 -0.2078357 -0.051852774
-0.131611 -0.08173309 -0.10170256 -0.13568255 -0.005011683 -0.1371469 -0.061168794 -0.0957199
00000000: eae7 3bbe cbb5 2abd ba97 803c 4e86 0dbe
00000010: bc00 a7bd 728f d1bd 3323 bfbd ea84 ecbd
00000020: 185f d8bd 6c86 40be 3029 a9bd efa0 dbbd
00000030: 98c8 99bd 0e4d 0fbe fdae 4ebd 6a40 04be
00000040: dee3 ddbc 8c5b 0fbe 900b 133d fa65 09be
00000050: ddbf 9abc bba6 95bd 9663 82bd f8df 2dbe
00000060: 6da8 ebbc 6b09 d6bd 26eb 46bd 76bf 29bd
00000070: c4b3 21bd 8ebc 52bd 99f9 e5bd aeb8 b2bd
00000080: 5960 cebd 723c 97bd c28f 7abd f737 22be
00000090: 69ea a5bd 8fb1 e0bd 44c0 18be ac57 65bd
000000a0: 1808 abbd 2cb1 5dbd b40d d8bd 692c ecbd
000000b0: 88df c0bd 555d 92bd 054b a5bd 2540 0ebd
000000c0: 8564 6fbe 588c c4bd 4dfd 04be 2930 fdbd
000000d0: dd7a 02be f92e 60bd c35b eabc 022a e3bd
000000e0: 9dd1 2fbe e5ad 1fbe c6fd 8ebd 93e0 42be
000000f0: 37ef d3bd 1b24 6ebd 2679 1bbe b3eb 2cbd
00000100: d6f2 b9bd 708d 84bd d4b4 0fbd c24f 7ebd
00000110: 86bd a4bd b178 c9bd 088f cabd 9e9c 17be
00000120: cd36 48bd 9bf3 3abd 514f 2ebd 0237 02be
00000130: 8b79 7abe 6598 1ebe 5930 f0bd dd5c 17be
00000140: d0a6 53bd 3ec2 9bbd 9677 e5bd 799c fcbd
00000150: da0c 57be e41d 7cbd 05e3 5cbd 70ec f1bd
00000160: c5b8 96bd 80cd 30bc aedf c4bd 355a 19bd
00000170: 17f6 33be 179b bbbd 6cdb 02bd 3d55 c8bd
00000180: 83fb d8bd f607 cbbd cc0e e9bd 1241 babd
00000190: 2b31 62bd 52c5 08bd 4462 79bd 4f49 bbbd
000001a0: ebb2 a3bd 6231 aabd a24a dbbd 490e adbd
000001b0: 3e46 bcbd b6bc 0cbd 0eee 32be de00 5dbe
000001c0: 9658 e4bd 5a11 0abe e2de 84bd f1d0 0abe
000001d0: 6f16 23bd aea2 f7bd 1a42 84bd 60e3 61bd
000001e0: e76b 31bd 5845 22be 5fe0 bfbd 22b0 e9bd
000001f0: c5e8 7fbd 6b15 d2bd c7ac 24be 7047 06be
00000200: 1aaf 0abe 94fa acbc fa4b e0bd ab79 d0bc
00000210: b53f cbbd c7e1 b9bd 69c7 7abe 1c22 9ebd
00000220: 43f6 65bd e324 6abd bce1 b2bc 3365 14be
00000230: fd17 aabd 2ef0 ecbd 7ea3 2fbc aa16 05be
00000240: b184 35bd 6665 07be 37bc 96bd f46a aabd
00000250: 8a8c 56bd f847 45bd 8b07 82bd ca19 bdbd
00000260: 5e0b abbd 5020 e8bd c137 bbbd 74fd d1bd
00000270: b3da 01be bf06 80be 71ce ccbd 5a17 b6bd
00000280: 3832 8dbd 7779 a5bd 3526 b4bd 050b 23be
00000290: 9617 e6bd 0602 eabd 4228 4a3c 27e8 dcbc
000002a0: 725b d9bd 28d2 17be 4bf0 02be 0fda 81bd
000002b0: 9782 c4bd 6366 99bd 71ec b7bd fc92 cfbc
000002c0: e8ea 3abd a56f b4bd 1c3f 71bd c055 d9bd
000002d0: 2444 cabd ac06 f8bd 5544 b1bd 2903 bdbd
000002e0: 2fb4 8abc b8da 02bd f52b f1bd 12ce 45bd
000002f0: c1aa a6bd c40c 3cbd 6b62 c3bd 8328 5abd
00000300: b125 e7bd 876f 1abe a423 a1bd 4b79 89bc
00000310: bd1e dcbd 1126 f1bd e634 eabd c3d5 a0bd
00000320: 60a6 a9bd 4afd 94bd 4786 3ebd 6944 8cbd
00000330: 860a 02bd 4a3b b7bd 2184 68be 6028 c2bd
00000340: 12df 0cbd 574a 38be b671 d7bd a974 08be
00000350: bd4f 46bd a516 21bd 4939 02be ab62 14be
00000360: d086 a5bd 6ac6 0ebd d755 91bd 74de c6bd
00000370: f70c c8bd a041 8dbd 3ae1 2fbd 8d1c 16be
00000380: 25d5 a0bd 0462 3abd 6ec0 a3bd d063 c5bd
00000390: 2fed b1bd b22d f8bd 4968 bcbd 74b2 b7bd
000003a0: ac1a 56bd 9166 8fbe 4755 e0bd dc25 bebd
000003b0: 75a4 94bd 956e e1bd e2d8 c0bd 89ac 94bd
000003c0: e55b fdbd ec42 c3bd 7e2c 37bd 3e28 19be
000003d0: 020f bbbd 65a1 12bd e2d2 54be 9363 54bd
000003e0: 09c5 06be ae63 a7bd 6f49 d0bd 5ef0 0abe
000003f0: 0b39 a4bb 3d70 0cbe 218c 7abd cc08 c4bd

fc3.weight f4 [1, 300]
0.027084269 -0.001193075 0.01752807 0.019498507 -0.012161044 -0.019649837 -0.019253 -0.012165986
-0.0036138329 0.030438099 -0.0053515 0.008320791 0.0028358698 0.0016509541 -0.018450303 -0.02597601
0.012719468 0.0077518434 -0.01984967 0.037569568 0.012926149 -0.002053154 -0.002179542 0.021551698
0.01588802 -0.0022989959 -0.008461989 -0.010671074 -0.0039940723 0.006590929 0.007026961 -0.005101078
-0.0144770015 0.00021481123 -0.016051633 -0.002442475 -0.0034772346 -0.0076858234 -0.0018150583 -0.021219432
-3.7423624e-07 9.349686e-05 -0.0057000387 0.017133754 0.004729458 -0.008858323 -0.015160239 -0.0002569033
0.019357966 0.001884972 -0.022933876 0.00035987634 -0.017369736 0.009350785 0.01981054 -0.0003148299
-0.0156304 -0.0093616145 -0.01718447 0.014526723 -0.003711876 -0.00151199 -0.013870515 -0.007691086
-0.008309347 -0.0077084433 0.0073721255 -0.016575474 0.0028949964 0.0010336938 -0.005828739 0.028226681
0.0016405539 -0.007559465 -0.0021475048 0.0100873485 0.007961197 -0.017221242 0.0035941487 0.007086193
0.00074566895 -0.0060913553 -0.01419954 -0.018659117 -0.010727 -0.0042452393 0.010206337 0.029349968
-0.008530603 0.001153359 0.005914966 0.014719988 0.042421084 -0.0011908057 -0.016377157 0.008752723
-0.010048944 -0.0026492078 -0.024192594 -0.014813294 0.022537496 -0.01067719 0.02702376 0.0086331265
-0.020192651 -0.019827813 0.02567977 0.0019357721 -0.0052902773 -0.0006396686 -0.010103906 -0.013070141
-0.0029120015 0.0068540927 -0.002535002 -0.0060476046 -0.018156439 -0.0024226864 0.017598696 0.013635867
-0.025004411 -0.0013131064 -0.0025866723 -0.0128022395 0.014421695 0.022675585 0.0077752876 0.018125897
0.009344486 0.0019986073 0.005301721 -0.0016571004 -0.01269193 0.010821248 0.0040306617 -0.008791935
0.017969307 0.00014660532 0.0008634307 -0.004288304 -0.01699288 -0.0165915 0.009365045 -0.017501319
0.005594846 -0.010350411 0.0029493615 -0.002863819 0.014669327 0.003414153 0.020476306 -0.021893395
0.029924788 -0.028165728 0.0046014483 -0.0022484853 0.021759462 0.03296793 0.0059243785 -0.024894029
0.006637186 0.031318072 -0.021308212 -0.0108442195 -0.024172457 -0.0013138476 -0.0018825666 -0.00096249575
0.027982999 -0.01176836 0.012410616 0.007106816 -0.0005291551 -0.0059051313 0.005940243 0.0084367925
0.014001852 -0.014694042 -0.022461843 -0.019651975 -0.027310172 -0.0031539528 0.017826602 -0.028417168
0.028481927 -0.03492947 0.006151383 -0.0047941655 0.01031989 0.016809037 0.008739114 -0.0048842942
-0.0006354122 0.00045610924 0.013203673 -7.764119e-05 0.0038212144 -0.023429492 0.0026558845 -0.001489753
-0.013620418 -0.0044069407 0.006258324 0.0006612401 -0.010145467 -0.0035719245 0.020889279 -0.016818777
0.00085327704 -0.0013576511 0.0023809106 -0.024795122 0.022756306 0.0006717287 0.00876266 0.005840813
0.010210614 -0.0011215849 0.010546646 -0.0028170196 -0.027155183 -0.0001460431 0.016353691 -0.029441891
0.0037515687 -0.01906203 -0.020687759 -0.0016175349 0.016024437 -0.034681875 0.015409328 0.0038324832
-0.0018844119 0.0013389939 -0.002357517 0.018882824 -0.009435323 -0.010521198 0.015132288 -0.018803256
-0.0022282891 -0.00060091115 -0.025188778 -0.018750692 -0.0046639373 0.007325394 0.032135263 -0.0033850023
-0.032690175 -0.019280072 0.011401481 -0.025916072 0.012503985 -0.023504598 -0.011757161 -0.0005560559
00000000: d4df dd3c f460 9cba 0797 8f3c 55bb 9f3c
00000010: 1e3f 47bc b2f8 a0bc 78b8 9dbc d853 47bc
00000020: 0ed6 6cbb 5259 f93c a35b afbb ed53 083c
00000030: 00da 393b d464 d83a 1725 97bc a4cb d4bc
00000040: 5165 503c 2d03 fe3b c69b a2bc 8ce2 193d
00000050: 33c8 533c 358e 06bb a6d6 0ebb 308d b03c
00000060: 9827 823c c0aa 16bb 28a4 0abc bad5 2ebc
00000070: b5e0 82bb b8f8 d73b 6c42 e63b f226 a7bb
00000080: f230 6dbc f33e 6139 b77e 83bc ee11 20bb
00000090: 51e2 63bb 5cd9 fbbb 40e7 edba 60d4 adbc
000000a0: a3ea c8b4 bf13 c438 64c7 babb 165c 8c3c
000000b0: 92f9 9a3b 8022 11bc a762 78bc fab0 86b9
000000c0: 9994 9e3c 2a11 f73a d3df bbbc c9ad bc39
000000d0: fa4a 8ebc 0934 193c b749 a23c c10f a5b9
000000e0: 530b 80bc 7561 19bc 72c6 8cbc 7e01 6e3c
000000f0: f242 73bb f72d c6ba 2841 63bc 8105 fcbb
00000100: ed23 08bc 1c97 fcbb df91 f13b 4ac9 87bc
00000110: fbb9 3d3b 027d 873a 02ff bebb a43b e73c
00000120: db07 d73a 63b5 f7bb 27bd 0cbb 6845 253c
00000130: ae6f 023c 9013 8dbc cf8b 6b3b 4c33 e83b
00000140: ff78 433a fe99 c7bb 30a5 68bc 01db 98bc
00000150: 4dc0 2fbc a61b 8bbb 7b38 273c 586f f03c
00000160: f1c3 0bbc 4e2c 973a 55d2 c13b 1b2c 713c
00000170: bbc1 2d3d cf14 9cba 6329 86bc 9567 0f3c
00000180: 53a4 24bc 559e 2dbb 8c2f c6bc 75b3 72bc
00000190: 8ea0 b83c 61ef 2ebc ef60 dd3c f571 0d3c
000001a0: 0f6b a5bc f06d a2bc 625e d23c bcb9 fd3a
000001b0: 105a adbb 6faf 27ba da8a 25bc 2524 56bc
000001c0: 47d7 3ebb 4c98 e03b 4722 26bb fc2a c6bb
000001d0: d0bc 94bc efc5 1ebb 242b 903c f968 5f3c
000001e0: 0dd6 ccbc 8a1c acba 2985 29bb 7cc0 51bc
000001f0: f948 6c3c 26c2 b93c d7c7 fe3b c37c 943c
00000200: 9d19 193c 11fb 023b 0fba ad3b 1033 d9ba
00000210: d0f1 4fbc 9b4b 313c a413 843b 0c0c 10bc
00000220: 5e34 933c 11ba 1939 da57 623a e784 8cbb
00000230: a734 8bbc e6ea 87bc d96f 193c ed5e 8fbc
00000240: f854 b73b c594 29bc 134a 413b e9ae 3bbb
00000250: 9e57 703c fbbf 5f3b edbd a73c c759 b3bc
00000260: d424 f53c d0bb e6bc bfc7 963b 535b 13bb
00000270: e640 b23c 6109 073d 4a21 c23b 90ee cbbc
00000280: c07c d93b 6147 003d 8f8e aebc f4ab 31bc
00000290: 5105 c6bc 6935 acba 74c0 f6ba ff4f 7cba
000002a0: 9a3c e53c 14d0 40bc e555 4b3c 4be0 e83b
000002b0: ffb6 0aba d57f c1bb 5fa6 c23b 793a 0a3c
000002c0: 0668 653c 47bf 70bc e601 b8bc 2efd a0bc
000002d0: 95b9 dfbc 8cb2 4ebb 1809 923c 1fcb e8bc
000002e0: ee52 e93c 3412 0fbd 8a91 c93b 6018 9dbb
000002f0: c214 293c 1bb3 893c 802e 0f3c 6e0c a0bb
00000300: ca91 26ba f221 ef39 3854 583c 4cd3 a2b8
00000310: 576d 7a3b 35ef bfbc 590e 2e3b d143 c3ba
00000320: 2c28 5fbc 1968 90bb a012 cd3b 1257 2d3a
00000330: 2c39 26bc f316 6abb fe1f ab3c 88c7 89bc
00000340: 74ae 5f3a 36f3 b1ba 0d09 1c3b 241f cbbc
00000350: 6f6b ba3c f316 303a 4391 0f3c 4a64 bf3b
00000360: 6b4a 273c 2502 93ba d7cb 2c3c bf9d 38bb
00000370: 8c74 debc 2523 19b9 2df8 853c 1f30 f1bc
00000380: e1dc 753b f927 9cbc 6079 a9bc 7703 d4ba
00000390: ae45 833c 950e 0ebd 6877 7c3c 662a 7b3b
000003a0: 5ffe f6ba 2e81 af3a 9280 1abb 27b0 9a3c
000003b0: 9d96 1abc 1a61 2cbc 6bed 773c 4909 9abc
000003c0: 7d08 12bb 7786 1dba b258 cebc 0d9b 99bc
000003d0: f1d3 98bb dc09 f03b 44a0 033d ead6 5dbb
000003e0: 22e6 05bd 3ef1 9dbc 47cd 3a3c f14d d4bc
000003f0: 84dd 4c3c b78c c0bc 1ba1 40bc 48c4 11ba

bn1.weight f4 [400]
0.514406 0.26113322 0.0014511931 0.14119537 -0.0012944049 0.18443495 0.08245446 0.2568663
0.5220865 0.14605895 0.23023538 0.0065172915 0.2241543 -0.12909119 0.08945042 0.16255575
0.17532593 0.19194713 -0.00052217697 -0.007373604 0.45758805 0.9879969 0.06529658 0.000220042
0.314822 0.22217351 0.29582033 -0.011998666 0.6417899 0.312527 0.12578072 0.09200581
0.22333892 -0.062117252 0.5667544 0.49877095 0.0333548 0.09165298 0.18444602 0.23293962
0.00232033 0.14665923 -0.0731422 0.17914414 0.004903606 0.12619571 -0.014268271 -0.0008840882
0.24549489 0.8729442 0.079385884 0.12975766 0.17949705 0.13345158 0.004533381 0.06307665
0.20584609 0.069402665 0.070853695 0.17261921 -0.29065084 0.07519034 0.14840458 0.00037281384
0.106116496 0.06689425 0.12433933 -0.020409113 0.22560582 0.35322466 0.42609563 0.42738652
-0.0039459094 0.8919167 0.05666439 -0.0018035887 0.26295364 0.22732383 0.16925913 1.0512104
0.1220405 0.7022037 0.1962349 0.27636766 0.29602277 0.16517207 0.14637984 0.00085537584
0.25638735 0.6496525 0.2243496 0.0020079936 0.40465233 0.0204353 -0.0036350058 -0.020416934
-0.10041498 0.25047442 0.21429239 0.053214174 0.10295666 0.10423517 0.16622035 0.18504664
-0.0010980844 -0.0006431518 0.27582353 0.18204556 0.060764574 0.32796335 0.5698617 0.066420965
0.21529348 0.22726414 0.75754005 0.2657813 0.022246564 -0.0066162795 0.08490259 0.09094751
0.102561325 -0.0028731006 0.25463343 0.18792753 0.28654915 -0.101366 0.0399343 0.067493305
0.16015121 0.31581894 0.07686016 0.23969457 0.18850905 0.20953418 0.27135515 0.18816212
0.4417575 0.50764585 0.23577675 0.117587 0.23911187 0.3249626 0.21886244 0.38558805
0.33708176 0.127642 0.28451696 0.024403118 -0.105185255 0.1106453 0.21431178 0.28926817
0.2158451 1.1473045 0.28701743 0.27475655 0.15826254 0.0011329864 0.40671185 0.27446783
0.39843333 0.35812002 0.39617893 0.3718145 0.16359511 0.24397115 0.18458301 -0.0019524894
0.0026263164 0.42012855 0.24018003 0.00051513105 0.0012989955 0.31638226 0.095354535 0.068298504
8.280308e-06 0.40008825 0.07148983 -0.0047604465 0.24927364 0.6006172 0.013706686 0.43403077
0.0058105025 -0.0051496276 0.1582044 -0.004051398 0.21553618 0.30343896 0.27621514 0.001534231
0.096032016 0.09548455 0.13309687 0.14544971 0.072004706 0.119140096 0.58792967 0.0847351
0.048924003 0.23860916 0.16839099 0.0056192703 0.09071458 0.0716831 -0.0022695963 0.41995075
0.97201693 0.38710067 0.2285383 0.47310433 0.14331974 0.09240262 0.25250232 0.029157365
-0.100386314 0.10543398 0.08003669 0.5455555 0.14661215 0.5618612 -0.06693479 0.8925993
0.13308106 0.30899465 0.326325 0.08175619 0.032280773 0.19787876 0.06036624 0.057580087
0.43079898 0.18817571 0.24318154 0.2659194 0.0872983 0.22637555 0.23845449 0.25335324
0.1188505 0.14463988 0.0006602066 1.0965463 0.2715192 0.0812022 0.1657278 0.289007
0.16929153 0.13431828 0.24947584 -0.115274385 0.30257505 0.28782308 0.0020365498 0.37768474
00000000: 1db0 033f 41b3 853e f635 be3a 8595 103e
00000010: 05a9 a9ba 84dc 3c3e e2dd a83d fb83 833e
00000020: 76a7 053f 7a90 153e d3c2 6b3e 018f d53b
00000030: b488 653e 7b30 04be c831 b73d 0475 263e
00000040: a488 333e ca8d 443e b4e2 08ba 469e f1bb
00000050: fb48 ea3e 5ded 7c3f 37ba 853d 13bb 6639
00000060: 5930 a13e 7481 633e c375 973e 0e96 44bc
00000070: 584c 243f 8a03 a03e a9cc 003e 8b6d bc3d
00000080: f5b2 643e a96e 7ebd d116 113f e85e ff3e
00000090: 0b9f 083d 8fb4 bb3d 6bdf 3c3e b987 6e3e
000000a0: ad10 183b d62d 163e 94cb 95bd 9071 373e
000000b0: 6eae a03b 7339 013e 77c5 69bc 28c2 67ba
000000c0: 0363 7b3e 4579 5f3f 1195 a23d 31df 043e
000000d0: 13ce 373e 88a7 083e c28c 943b 552e 813d
000000e0: 51c9 523e fc22 8e3d be1b 913d 17c3 303e
000000f0: 30d0 94be 65fd 993d 5ff7 173e 3a76 c339
00000100: 9b53 d93d daff 883d 9ea5 fe3d 0331 a7bc
00000110: 3605 673e ddd9 b43e 3529 da3e 68d2 da3e
00000120: b04c 81bb a754 643f eb18 683d 6566 ecba
00000130: dca1 863e 94c7 683e 4452 2d3e 108e 863f
00000140: 5ff0 f93d 9fc3 333f cdf1 483e 1080 8d3e
00000150: 4c90 973e de22 293e 99e4 153e 4d3b 603a
00000160: 3445 833e a04f 263f e7bb 653e 8b98 033b
00000170: 972e cf3e ee67 a73c 4739 6ebb 6a41 a7bc
00000180: 5ea6 cdbd 2f3e 803e 776f 5b3e 1bf7 593d
00000190: f1da d23d 4079 d53d ab35 2a3e de7c 3d3e
000001a0: 99ed 8fba 3099 28ba be38 8d3e 276a 3a3e
000001b0: 46e4 783d d0ea a73e 75e2 113f b707 883d
000001c0: e575 5c3e eeb7 683e 25ee 413f 7d14 883e
000001d0: 6d3e b63c 60cd d8bb 69e1 ad3d b042 ba3d
000001e0: ac0b d23d a14a 3cbb 505f 823e 1370 403e
000001f0: 92b6 923e fa98 cfbd 2692 233d ee39 8a3d
00000200: aefe 233e 05b3 a13e dc68 9d3d 7e72 753e
00000210: 8408 413e 2190 563e 10ef 8a3e 92ad 403e
00000220: 0a2e e23e 14f5 013f 766f 713e 74d1 f03d
00000230: bed9 743e 7f61 a63e 7a1d 603e cc6b c53e
00000240: fb95 ac3e 96b4 023e 35ac 913e 0ce9 c73c
00000250: 5e6b d7bd 019a e23d 8c74 5b3e f51a 943e
00000260: 7f06 5d3e e0da 923f f3f3 923e e4ac 8c3e
00000270: 930f 223e b780 943a 893c d03e 0c87 8c3e
00000280: 74ff cb3e 825b b73e f7d7 ca3e 785e be3e
00000290: 7a85 273e 93d3 793e 5403 3d3e acea ffba
000002a0: 471e 2c3b 171b d73e c1f1 753e dc09 073a
000002b0: 0e43 aa3a dbfc a13e 3d49 c33d 16e0 8b3d
000002c0: a7eb 0a37 5ed8 cc3e 4369 923d 85fd 9bbb
000002d0: 9741 7f3e 0cc2 193f 0292 603c 4839 de3e
000002e0: 0766 be3b 35be a8bb 5600 223e 97c1 84bb
000002f0: 84b5 5c3e 5a5c 9b3e 126c 8d3e 4018 c93a
00000300: 6fac c43d 678d c33d 8c4a 083e c5f0 143e
00000310: 3477 933d b9ff f33d 8f82 163f 9989 ad3d
00000320: 8964 483d f655 743e b06e 2c3e db21 b83b
00000330: 91c8 b93d 97ce 923d 82bd 14bb c903 d73e
00000340: 1ad6 783f 0f32 c63e f205 6a3e bb3a f23e
00000350: 69c2 123e 963d bd3d fc47 813e 6ddb ee3c
00000360: 5797 cdbd c5ed d73d 47ea a33d 86a9 0b3f
00000370: 7f21 163e 23d6 0f3f 1b15 89bd 6381 643f
00000380: 6746 083e 8c34 9e3e 1214 a73e ca6f a73d
00000390: d838 043d bba0 4a3e 9742 773d 19d9 6b3d
000003a0: af91 dc3e 22b1 403e 9504 793e 9626 883e
000003b0: 73c9 b23d fece 673e 6a2d 743e 84b7 813e
000003c0: e467 f33d 7a1c 143e b711 2d3a a15b 8c3f
000003d0: 9104 8b3e 574d a63d 8cb4 293e baf8 933e
000003e0: c25a 2d3e bb8a 093e 9876 7f3e fa14 ecbd
000003f0: 1eeb 9a3e 8c5d 933e a377 053b e55f c13e

bn1.bias f4 [400]
0.18302548 0.08869672 0.002753842 0.075547166 0.0013488571 0.023733784 0.01232602 0.12652344
0.29274008 0.089870654 0.10967327 0.0013242343 0.08031674 -0.016783457 0.045162205 0.054063868
0.06236608 0.02339214 0.17964101 -0.0011570378 0.23903333 0.16449174 0.009496266 -0.00019223956
0.12464324 0.057785247 0.0626318 0.13937464 0.24450807 0.12093885 0.026079332 0.051965598
0.08783184 -0.27730197 0.2634813 0.15457344 -0.046688113 0.009244669 0.065261535 0.09892486
-0.1358048 0.024458133 -0.01644992 0.07185831 0.002345752 0.06102221 -0.021471338 0.0027838699
0.15639484 -0.011792829 0.009912157 0.044666216 0.13992453 0.03360994 0.0009066254 0.00936198
0.046292208 0.008493117 0.011185007 0.048922442 -0.028338132 0.051764425 -0.00013988376 -0.0026741778
0.048397213 0.007793195 0.021659257 0.41155282 0.06683495 0.15840653 0.14510325 0.082697436
-4.55985e-05 0.01074895 0.01255587 -0.00015041574 0.027347485 0.09022107 0.035343297 0.16595791
0.023337651 0.26197487 0.054314945 0.19431031 0.05833422 0.042879276 0.07781752 -0.00094024366
0.13428664 0.08444041 0.06958299 -0.00018716982 0.1057293 0.013644806 0.0009477266 5.3354972e-05
-0.037764393 0.08195491 0.18077484 0.0036820113 0.017977083 0.3605438 0.04249377 0.06562762
-0.00013256398 -0.00043271703 0.21357308 0.038053058 0.019081997 0.10688191 0.26211208 0.015725149
0.11310136 0.16385928 0.16697575 0.07812714 -0.0029076058 -0.00049393653 0.017224574 0.016683502
0.028508786 -0.00058352045 0.1568206 0.08673866 0.15633953 -0.054483857 0.018151317 0.033780996
0.063211806 0.15572512 0.040150147 0.068406336 0.059733372 0.12601453 0.076640576 0.00081124617
0.1484625 0.16661704 0.06776285 -0.0024176494 0.042631812 0.09321767 0.12340495 0.12971365
0.1458079 0.010654913 0.16611561 0.0017572341 -0.2687201 0.032668922 0.06449407 0.080395095
0.06419309 0.20669247 0.15981019 0.11981092 0.07483408 0.0012627979 0.15696864 0.060494386
0.16411379 0.060842887 0.13479282 0.1670232 0.05097526 0.07257854 0.06937098 0.0013608275
-0.0024073697 0.09437221 0.062135145 -0.0007104985 -0.00052772777 0.08175454 0.005436581 0.0071943873
-0.0012004812 0.11653955 -0.007252752 0.0002608333 0.04898779 0.22935587 0.006877935 0.13984007
-2.0626076e-05 -0.002196084 0.02918045 0.0018757029 0.080288924 0.12450999 0.10187508 -0.00028947723
0.014593352 0.021209387 0.021124713 0.040892627 0.010561802 0.049131326 0.06472175 -0.003009465
0.011599761 0.08176161 0.050042782 0.0028026516 0.025023809 0.030040294 -0.00033623734 0.20293243
0.15371257 -0.17430124 0.06562051 0.08481771 -0.020345747 0.00820718 0.103280015 0.00041737378
-0.02357411 -0.08637753 0.007566489 0.123223 0.027590243 0.15071633 -0.07989014 0.23996995
0.06363556 0.12629643 0.12603326 0.029484129 0.0052593863 0.07682579 0.016469693 0.31136113
0.1452133 0.09641179 0.09323228 0.06038595 0.039644543 0.050603934 0.08540005 0.050432928
0.016857352 0.00450294 0.0019117492 0.18841995 0.093036845 0.03744412 0.05387502 0.08552179
0.014840994 0.07380989 0.070573814 0.0025974791 0.07878439 0.1070967 0.00029312947 0.074302875
00000000: 086b 3b3e a0a6 b53d cd79 343b 79b8 9a3d
00000010: 22cc b03a 5a6d c23c 13f3 493c 5c8f 013e
00000020: 07e2 953e 1b0e b83d 619c e03d ee91 ad3a
00000030: 1a7d a43d 767d 89bc 01fc 383d 1372 5d3d
00000040: 9373 7f3d e0a0 bf3c d0f3 373e bfa7 97ba
00000050: 27c5 743e 8670 283e 3a96 1b3c ea93 49b9
00000060: f444 ff3d 39b0 6c3d 1a45 803d 3ab8 0e3e
00000070: 5360 7a3e caae f73d 53a4 d53c e1d9 543d
00000080: 2ee1 b33d 86fa 8dbe 05e7 863e 8048 1e3e
00000090: 093c 3fbd f476 173c d7a7 853d 1e99 ca3d
000000a0: 6a10 0bbe 6c5c c83c fcc1 86bc 732a 933d
000000b0: 30bb 193b 6df2 793d a9e4 afbc 9671 363b
000000c0: f825 203e b636 41bc 9a66 223c ecf3 363d
000000d0: 6048 0f3e 94aa 093d 9aaa 6d3a fd62 193c
000000e0: e69c 3d3d b726 0b3c 5241 373c e662 483d
000000f0: 5f25 e8bc ef06 543d c3ad 12b9 4241 2fbb
00000100: 283c 463d 0f5e ff3b c16e b13c 0db7 d23e
00000110: c3e0 883d 5235 223e f295 143e 465d a93d
00000120: 0441 3fb8 5d1c 303c 23b7 4d3c ebb8 1db9
00000130: d507 e03c d3c5 b83d 22c4 103d dff0 293e
00000140: 9a2e bf3c 9221 863e 5979 5e3d 48f9 463e
00000150: ddef 6e3d 2ea2 2f3d cb5e 9f3d af7a 76ba
00000160: 7082 093e 18ef ac3d 8781 8e3d 0443 44b9
00000170: 9a88 d83d 778e 5f3c db70 783a 77c9 5f38
00000180: d6ae 1abd fad7 a73d 0a1d 393e e64d 713b
00000190: ad44 933c 3299 b83e f30d 2e3d c667 863d
000001a0: df00 0bb9 4cde e2b9 e7b2 5a3e 86dd 1b3d
000001b0: d951 9c3c e7e4 da3d 8e33 863e 07d2 803c
000001c0: b0a1 e73d baca 273e b1fb 2a3e 1f01 a03d
000001d0: 888d 3ebb 857b 01ba 8d1a 8d3c d7ab 883c
000001e0: 428b e93c 65f7 18ba 9495 203e 0aa4 b13d
000001f0: 7817 203e 772a 5fbd 12b2 943c f15d 0a3d
00000200: 3175 813d 6876 1f3e 7b74 243d 9f18 8c3d
00000210: fbaa 743d f409 013e bcf5 9c3d cfa9 543a
00000220: 8e06 183e a89d 2a3e 40c7 8a3d 6d71 1ebb
00000230: b29e 2e3d e8e8 be3d bcbb fc3d a8d3 043e
00000240: ab4e 153e f291 2e3c 361a 2a3e fe52 e63a
00000250: ae95 89be d9cf 053d 7815 843d 2fa6 a43d
00000260: ab77 833d 31a7 533e 48a5 233e 6d5f f53d
00000270: 9c42 993d 7784 a53a 63bc 203e f6c8 773d
00000280: 720d 283e 6436 793d 2107 0a3e 2108 2b3e
00000290: 6fcb 503d 0fa4 943d 5f12 8e3d cb5d b23a
000002a0: f6c4 1dbb 3846 c13d 6c81 7e3d bf40 3aba
000002b0: 3657 0aba ed6e a73d 5925 b23b e5be eb3b
000002c0: 7759 9dba 4aac ee3d 7ea8 edbb 74c0 8839
000002d0: 6ca7 483d 44dc 6a3e 4d60 e13b 3c32 0f3e
000002e0: 2906 adb7 2dec 0fbb d70b ef3c 25da f53a
000002f0: 856e a43d 18ff fe3d e2a3 d03d fac4 97b9
00000300: f418 6f3c 4fbf ad3c bc0d ad3c 077f 273d
00000310: 690b 2d3c ee3d 493d d68c 843d 723a 45bb
00000320: ed0c 3e3c a272 a73d a9f9 4c3d b1ac 373b
00000330: bbfe cc3c 1017 f63c 0349 b0b9 85cd 4f3e
00000340: d466 1d3e 067c 32be 0c64 863d e8b4 ad3d
00000350: 20ac a6bc 6877 063c 7984 d33d f6d2 da39
00000360: 7e1e c1bc b4e6 b0bd 4ff0 f73b 575c fc3d
00000370: ef04 e23c 6255 1a3e 719d a3bd afba 753e
00000380: 5c53 823d da53 013e dd0e 013e b388 f13c
00000390: ee56 ac3b d756 9d3d 73eb 863c ba6a 9f3e
000003a0: ccb2 143e 8b73 c53d 91f0 be3d 4257 773d
000003b0: 5162 223d 1246 4f3d 39e6 ae3d c292 4e3d
000003c0: 6e18 8a3c 668d 933b a993 fa3a 29f1 403e
000003d0: 1a8a be3d 015f 193d 0eac 5c3d 0c26 af3d
000003e0: a427 733c a429 973d 0189 903d 783a 2a3b
000003f0: b659 a13d 8455 db3d 2caf 9939 1b2c 983d

bn1.running_mean f4 [400]
0.85550433 1.0778524 4.2934623 3.8624814 10.59267 5.8452215 0.16785365 6.3676863
2.0662534 1.3984991 2.026393 0.06210188 1.4211905 0.35706928 6.7110467 2.3803458
2.4572163 0.5362107 8.406867 2.1233099 5.5332413 23.691603 0.2558224 0.77870834
2.156424 1.4636102 0.40984178 8.428452 2.5377479 0.7932078 1.129479 2.6103303
1.2860726 0.3978251 3.613715 1.5378475 1.7094368 0.45400748 1.2361367 3.1739352
4.855834 0.7105425 3.0591123 0.5398587 2.5481513 2.541138 5.4200253 8.547672
5.4708705 5.697757 1.1441133 3.7617075 2.3670666 2.5174534 0.8285704 3.8231475
0.35050416 1.4763063 5.7500463 0.61418533 0.007905233 6.355865 1.5321714 2.292851
2.8111093 0.4438671 1.1998595 1.2707915 1.0536623 1.2975422 2.4581432 0.43767914
0.46391246 20.457756 4.5623837 5.7229466 0.7429938 2.841717 2.1673791 19.304663
0.8703573 2.1366942 1.69199 4.1304193 0.61514103 1.4015962 5.001066 8.285432
5.6404862 0.47916034 1.509326 8.1697035 1.4394574 8.794451 0.5064939 0.18161154
0.4594124 0.6659958 12.863352 1.3916354 3.9443123 2.2276087 0.2148644 2.8910396
0.35966647 0.5481344 9.895043 1.1924566 4.3883066 0.5183708 4.9836 2.2947218
2.2686143 9.255731 22.084904 0.6370477 18.19847 0.1389929 0.3265767 1.8979901
0.66104615 3.0942645 2.0084724 2.5543916 0.83183664 0.8545515 2.0526774 0.6883647
3.8793476 0.9588869 1.2909518 2.3522449 1.1336223 2.8497617 2.269087 4.1162553
0.7196551 1.3650044 2.2137618 10.259685 0.48783034 1.1346488 4.7569485 4.537402
1.1555389 7.741501 3.7968705 0.016534233 0.43036547 0.8812412 0.59938204 1.2637006
1.414129 25.635075 2.191728 5.8822536 4.7827044 0.07552569 1.8122697 1.091831
14.16469 0.1741589 1.0144933 2.7699127 0.9316738 8.704415 4.189859 3.5646577
0.11846935 2.3822052 0.73278034 0.18164304 0.6493846 1.5641344 0.4653098 0.20084396
0.9357293 1.100795 3.164941 2.8241389 6.0556498 12.069937 3.2982721 0.7017339
2.1416354 0.35674194 7.34236 0.10638364 2.5090938 2.6159127 1.2280791 13.869792
1.042678 0.9384039 0.85917944 2.186151 4.1505995 0.79748577 0.70462084 0.96711016
3.8860965 1.1579485 1.8090785 2.9269226 1.2524108 8.770176 3.6077979 6.221956
23.587538 19.95345 2.0932271 4.1956925 1.5485765 0.68340045 2.4349437 0.007952666
0.4115634 3.081239 0.75763166 6.0060215 0.38168892 0.11000167 0.42288616 8.650654
2.3092873 1.8252708 1.630299 1.1130416 0.36348835 4.4132648 0.5028872 1.8196393
0.42003876 2.6032248 0.97332716 7.4729156 2.285008 0.48726225 2.1055803 0.44787514
3.664899 1.8832656 6.591071 0.51125216 0.45838174 4.098175 1.1584748 7.0712056
0.22675218 1.8456187 3.3558278 0.5027704 0.45890203 1.7902967 0.25012806 0.306692
00000000: 5502 5b3f 11f7 893f 0b64 8940 e532 7740
00000010: 947b 2941 0e0c bb40 d4e1 2b3e 16c4 cb40
00000020: 7f3d 0440 0502 b33f 6cb0 0140 8a5e 7e3d
00000030: 92e9 b53f c9d1 b63e e5c0 d640 9657 1840
00000040: 0843 1d40 1b45 093f 8782 0641 4fe4 0740
00000050: 5010 b140 6788 bd41 27fb 823e 6e59 473f
00000060: da02 0a40 9457 bb3f c8d6 d13e f0da 0641
00000070: 766a 2240 ab0f 4b3f c592 903f a70f 2740
00000080: 079e a43f bbaf cb3e 1b47 6740 30d8 c43f
00000090: d3ce da3f ab73 e83e ba39 9e3f c121 4b40
000000a0: fe62 9b40 1de6 353f 7fc8 4340 2e34 0a3f
000000b0: e914 2340 01a2 2240 d970 ad40 44c3 0841
000000c0: 5f11 af40 0654 b640 4e72 923f d1bf 7040
000000d0: 057e 1740 f51d 2140 311d 543f 73ae 7440
000000e0: 4875 b33e 9bf7 bc3f 6100 b840 403b 1d3f
000000f0: f384 013c 3f63 cb40 311e c43f 12be 1240
00000100: 37e9 3340 8c42 e33e ff94 993f 4ca9 a23f
00000110: 68de 863f dd15 a63f 3852 1d40 7b17 e03e
00000120: ef85 ed3e 7ca9 a341 0cff 9140 6122 b740
00000130: d734 3e3f b1de 3540 57b6 0a40 f36f 9a41
00000140: bccf 5e3f 99bf 0840 2193 d83f 652c 8440
00000150: e279 1d3f 8167 b33f bc08 a040 2191 0441
00000160: dd7e b440 8154 f53e 9831 c13f 1bb7 0241
00000170: 2440 b83f 12b6 0c41 96a9 013f 60f8 393e
00000180: 1a38 eb3e b37e 2a3f 4ad0 4d41 1c21 b23f
00000190: 9d6f 7c40 2491 0e40 6a05 5c3e cb06 3940
000001a0: 3426 b83e 8952 0c3f 1952 1e41 6ba2 983f
000001b0: 026d 8c40 f3b3 043f a779 9f40 b9dc 1240
000001c0: fa30 1140 7917 1441 e2ad b041 8f15 233f
000001d0: 7796 9141 2854 0e3e 1035 a73e 57f1 f23f
000001e0: 523a 293f 6e08 4640 d08a 0040 277b 2340
000001f0: 3ff3 543f e3c3 5a3f 115f 0340 ab38 303f
00000200: 3b47 7840 9d79 753f e93d a53f 2e8b 1640
00000210: 891a 913f 7f62 3640 b938 1140 5db8 8340
00000220: 513b 383f 77b8 ae3f 46ae 0d40 ab27 2441
00000230: e6c4 f93e 2c3c 913f ec38 9840 6632 9140
00000240: b3e8 933f 60ba f740 edff 7240 cd72 873c
00000250: dd58 dc3e 0699 613f 1a71 193f f1c0 a13f
00000260: 2e02 b53f a214 cd41 4645 0c40 6c3b bc40
00000270: ea0b 9940 37ad 9a3d 74f8 e73f 1ec1 8b3f
00000280: 92a2 6241 b656 323e ebda 813f 4046 3140
00000290: 2d82 6e3f 4945 0b41 5313 8640 5a23 6440
000002a0: 0fa0 f23d 0d76 1840 7e97 3b3f a200 3a3e
000002b0: 123e 263f 8e35 c83f 163d ee3e 0aaa 4d3e
000002c0: f58b 6f3f dae6 8c3f 658e 4a40 b1be 3440
000002d0: e2c7 c140 761e 4141 e416 5340 d5a4 333f
000002e0: 8e10 0940 e1a6 b63e 9df4 ea40 aadf d93d
000002f0: fe94 2040 1d6b 2740 b231 9d3f abea 5d41
00000300: 7976 853f 3d3b 703f 2ff3 5b3f e6e9 0b40
00000310: b6d1 8440 0728 4c3f 0862 343f 8894 773f
00000320: ceb5 7840 a837 943f e28f e73f b352 3b40
00000330: ff4e a03f a452 0c41 29e6 6640 431a c740
00000340: 47b3 bc41 aaa0 9f41 6ff7 0540 1d43 8640
00000350: c137 c63f 55f3 2e3f 1ed6 1b40 e64b 023c
00000360: 70b8 d23e 0533 4540 26f4 413f 5431 c040
00000370: bb6c c33e 8e48 e13d 8984 d83e 1469 0a41
00000380: 5dcb 1340 79a2 e93f a3ad d03f 2678 8e3f
00000390: 251b ba3e 7739 8d40 37bd 003f f1e9 e83f
000003a0: 520f d73e 3c9b 2640 f82b 793f 2022 ef40
000003b0: 923d 1240 707a f93e d4c1 0640 e44f e53e
000003c0: b58d 6a40 d90e f13f 0eea d240 6ce1 023f
000003d0: 03b1 ea3e 4024 8340 e748 943f 5147 e240
000003e0: b931 683e 3c3d ec3f e2c5 5640 90b5 003f
000003f0: 35f5 ea3e 7128 e53f c910 803e bc06 9d3e
