model_dir/checkpoint_actor_local_0.pth (torch_old, 531545 bytes, 10 tensors)

fc1.weight f4 [400, 24]
000000 b2 24 27 bd b2 5d 6c 3b 07 13 44 bc 7f 4e 5a bd
       -0.04080648 0.003606659 -0.011967427 -0.053297516
000010 5f 0f 76 bd 9c 15 d5 3c b0 51 40 3c c2 e9 17 3c
       -0.060073253 0.02601128 0.011738226 0.009272041
000020 b4 5c 77 3c 2b b7 80 bd 30 ab 2d bd 68 9a 3d bd
       0.015097786 -0.062849365 -0.042399585 -0.04628983
000030 e7 ea 96 ba 02 1a e1 3b 1b b0 7b 3c 02 8b 94 bc
       -0.0011514098 0.0068695555 0.015361811 -0.01813269
000040 0b 3c 8e bc 48 ff 3f bd b6 d5 00 bd 92 46 a2 bd
       -0.017362615 -0.046874315 -0.03145381 -0.079236165
000050 fe 55 b1 3d d3 d9 f5 bd 36 8f 42 3d c5 19 3d bd
       0.0865898 -0.12004437 0.047499858 -0.046167154
000060 3f af 11 bd 74 c4 20 bd 2c 16 6a bc a4 34 56 3c
       -0.03556752 -0.039249852 -0.014287513 0.013074074
000070 fc 25 29 3d 6a 7f 9d 3d 56 81 a9 bc 97 bb 08 3c
       0.04129599 0.07690318 -0.020691555 0.008345506
000080 fb 81 b6 bd 22 59 1a bd 5d fe 25 3d 88 af 3d bc
       -0.089115106 -0.03768266 0.040525783 -0.011577494
000090 f5 75 a3 bd 63 fd e5 3d 53 4e 7d 3b fd 7e 90 bc
       -0.07981483 0.1122997 0.0038651421 -0.017638678
0000a0 bd 9f b7 bc 41 fb 92 bd c9 90 9d 3c 17 7e a5 3d
       -0.022415036 -0.07176829 0.019234078 0.0808069
0000b0 6d da 80 bd 93 58 0b 3d 50 30 3d 3c 7e c7 c7 3d
       -0.062916614 0.034020018 0.011547163 0.09754847
0000c0 b2 87 d9 3c 94 f8 fc bb 78 f0 0c bc 28 1b 26 3d
       0.026553962 -0.0077200625 -0.008602254 0.040553242
0000d0 9c 35 4e bd 30 c9 cc 3b 36 e8 86 bb 29 59 52 3d
       -0.050344095 0.0062495694 -0.004117037 0.05135456
0000e0 e9 a0 5b 3d 34 3c 9f 3c 6a 6d 6c 3b 94 43 17 bd
       0.053620253 0.019437887 0.0036075958 -0.036929682
0000f0 b2 cf 9d bd 48 15 eb 3c 5e bf 90 bb e7 56 96 3a
       -0.0770563 0.028696671 -0.004417344 0.0011469991
000100 8a f9 88 3c 0a 5f 25 3d 70 7d 42 bd 70 f2 01 3e
       0.016720552 0.04037384 -0.047482908 0.12690139
000110 2f b0 9d bd bd 26 9a bb 16 d0 51 3c bc 3c af 3d
       -0.0769962 -0.004704325 0.012805959 0.08556506
000120 0f 31 8f 39 ee 3d 1a 3c 6f 6b ac 3c cf ed 42 3d
       0.00027311637 0.009414179 0.021047322 0.047590073
000130 00 03 90 3d 90 46 be 3c 34 42 b8 bc b1 92 7c 3d
       0.07031822 0.023227006 -0.022492506 0.061663333
000140 3a 62 5f 3d 8e 6f ac bc 2d b3 ac bc 53 24 10 3b
       0.054537036 -0.021049287 -0.021081531 0.0021994307
000150 ac 6d f6 3d 2b 94 65 bb 02 d2 3c 3c 41 a5 33 3b
       0.12032637 -0.0035030942 0.011524679 0.0027411731
000160 57 25 8e bb 20 d1 83 bc ac de b2 bc e1 76 a3 bc
       -0.0043379473 -0.01609093 -0.021834694 -0.019954147
000170 b9 24 b4 3d 5d f2 71 3d cc ad cf 3c 1d d5 3c bd
       0.08796067 0.059069026 0.025351427 -0.04610168
000180 50 0d 1d 3d 7c e7 95 bd c1 12 8e 3c e3 e7 82 3c
       0.038342774 -0.07319543 0.017342927 0.015979713
000190 de 86 71 3d 85 95 26 bd 62 49 00 3c 7d be 9a 3d
       0.05896651 -0.040669937 0.007829996 0.07555864
0001a0 1f de 3e bc f4 2d b4 bb aa 3f 1f 3d 2a be 7b 3d
       -0.0116496375 -0.005498642 0.038879074 0.06146065
0001b0 a4 a8 f4 3a 68 65 61 bc 47 ca 81 bc 13 08 cf 3c
       0.0018665981 -0.013757087 -0.015843524 0.025272405
0001c0 8a c4 4d bb 0b 9e 27 bd 36 4e 56 3c 65 a7 e8 3d
       -0.0031397664 -0.040922206 0.01308017 0.11360053
0001d0 9c 10 64 3d 24 66 2f 3b 00 de 01 3d 4c f8 de 3d
       0.055679902 0.0026763761 0.031705856 0.108872026
0001e0 c9 97 74 bc 56 31 80 bd d7 02 2d 3d 9b 2f 6f 3d
       -0.0149287665 -0.0625941 0.042239036 0.05839501
0001f0 e3 38 95 bb ee ed 00 be e7 7a dd bc 99 0a 80 3d
       -0.0045539006 -0.12590763 -0.027036143 0.06252021
000200 c9 d4 9e 3c 9c fd 02 bd 7e d0 4d 3d 74 f6 1e 3d
       0.019388573 -0.031980142 0.05024766 0.038809255
000210 fe 8e 8d bd bb 36 7d bd 09 03 db bc 34 56 31 bd
       -0.06912039 -0.061819773 -0.026734846 -0.0432951
000220 51 ae 70 bb bc f1 c1 3c b1 83 ec bb 05 c9 f8 bc
       -0.0036724994 0.023674838 -0.0072178473 -0.030369291
000230 76 2b 27 bd be 33 c8 3b 00 01 a9 3a 84 43 18 3d
       -0.040812932 0.006109684 0.0012893975 0.037173763
000240 f5 d9 25 bc 98 c1 50 bd 46 2f 3c 3b 68 28 0b bd
       -0.010122766 -0.050965875 0.00287147 -0.03397408
000250 e0 3e 4b 3d be 59 b8 bd d5 b4 6c 3b dc dc 0c bb
       0.04962051 -0.09001492 0.0036118526 -0.0021493947
000260 00 b5 5b bd ef df 3e bd 5b 75 5c 3c 75 69 5d 3d
       -0.053639412 -0.04660028 0.013455714 0.05405565
000270 b5 eb d3 bc c5 11 95 bd 05 6e 46 bc 5d e3 3b 3d
       -0.02586923 -0.0727878 -0.012111192 0.045871127
000280 f7 fc 9c bd 43 e0 95 bd 90 00 67 3b de 97 9f 3c
       -0.07665437 -0.07318165 0.0035248138 0.019481596
000290 4d 9e d3 bc fa 47 97 bd ca eb bc bc 68 ac 0d bd
       -0.02583232 -0.07386775 -0.023061652 -0.034588248
0002a0 23 14 e1 3c 72 a3 95 3d 57 d2 0c 3c dd 5b b2 bc
       0.027475422 0.07306565 0.008595071 -0.02177232
0002b0 91 cf 69 3c 7e 88 88 3d 15 68 01 3b 4c bd 48 bc
       0.014270679 0.06666659 0.0019745876 -0.012252163
0002c0 0e 24 7a 3d a3 77 60 3d 16 b4 ef bb 68 9f 0d bd
       0.06106954 0.054801594 -0.007315169 -0.03457585
0002d0 cd 87 ce bd 37 23 e5 3c 0a 7b 2b 3c 0c fc 19 3d
       -0.10084496 0.027970893 0.0104663465 0.037593886
0002e0 92 6d b6 bc 96 32 9b 3d fa 96 ec 3c 4e fa 41 3d
       -0.022269044 0.07578008 0.028880585 0.04735785
0002f0 1b 63 0e be d4 f7 80 bd ca 72 04 bd 31 42 a4 3d
       -0.13904993 -0.062972695 -0.032336034 0.080204375
000300 62 8a 52 bd 64 05 5c ba b3 fe 5a 3c 3e 3e 8c 3c
       -0.051401503 -0.0008393137 0.013366389 0.017119523
000310 27 c6 23 bc ad 78 92 bd 01 cb 46 b9 5a 7c 06 bd
       -0.009995974 -0.07151923 -0.00018958376 -0.032833435
000320 3d 2f 57 bd 08 76 79 bd 77 5e 50 3d 18 eb e8 3d
       -0.052535284 -0.06090358 0.05087134 0.113729656
000330 c7 62 56 bc 5b 0e 50 3d f3 17 18 bd 33 f7 c3 3d
       -0.013085074 0.05079494 -0.037132215 0.09568634
000340 c1 16 b0 bd 60 65 3a bd d8 af a9 bc 6c 9d 85 bd
       -0.0859809 -0.045506835 -0.020713732 -0.065241665
000350 09 04 4a 3b ff 1c 85 3d 04 11 cd 3c 51 ff 9b bd
       0.003082516 0.06499671 0.025032528 -0.07617057
000360 7b 25 bc bd 23 a5 a0 3c 72 c3 fd bb 19 6a 5e bd
       -0.09186836 0.019609993 -0.007744246 -0.0543004
000370 63 59 3a bb 2d 01 92 3c 0b 91 8c 3c ed b5 e5 3b
       -0.0028434626 0.017822826 0.017159006 0.0070102126
000380 d4 fe dd bc f6 13 05 bd 4a 3e 1b 3d e4 13 5c bc
       -0.02709905 -0.03248974 0.0379012 -0.013432477
000390 d7 7e fe bc f5 50 05 3d ea ee 18 3d b6 dc af 3b
       -0.031066341 0.03254791 0.03733722 0.005366887
0003a0 a1 ff 9d bd 51 d1 c4 bc a0 fa b4 3b 9f c4 5d bc
       -0.07714773 -0.024025591 0.005523041 -0.013535648
0003b0 17 c8 3c bd 81 7b 11 3d 2b 14 56 3c e9 71 3b bd
       -0.046089258 0.035518173 0.013066332 -0.04576293
0003c0 8c 32 95 3c d4 6b 7d bd 3c fc cc bc 88 dd e0 3c
       0.01821258 -0.06187041 -0.025022618 0.027449384
0003d0 7a 6f 2c bb 41 7c 94 bd e4 2c cd 3c 6d 57 01 bd
       -0.0026311562 -0.07250262 0.02504582 -0.031577516
0003e0 ab e8 2b 3d 0b 93 a1 bc bc 3b 99 bc 6a 25 f0 bc
       0.041969936 -0.019723436 -0.018705241 -0.029314715
0003f0 ff b8 88 bd cd 17 df bc 49 8c 43 3c 38 e7 83 3b
       -0.0667591 -0.027233029 0.011935302 0.004025366

fc1.bias f4 [400]
000000 33 8d 47 bd 4f 26 88 3c f7 2a 50 3d ea 21 78 bd
       -0.048718642 0.01661983 0.050822224 -0.060579218
000010 25 14 0b 3e fe 33 4d be 93 5e 1e be 14 ad 01 3e
       0.13581903 -0.20039365 -0.15465765 0.1266368
000020 7a e6 06 3e cc f4 ac 3d 35 61 8a 3d ea 33 a4 3d
       0.13173857 0.08445129 0.06756822 0.08017714
000030 1c 58 23 be cb 61 91 bb e6 dd ac bd 28 2b 58 be
       -0.1595158 -0.0044367067 -0.08440761 -0.21110213
000040 d5 d6 54 be 05 a8 c3 3b b9 2f 9b bc 1c 39 15 bc
       -0.20785077 0.005970957 -0.018943654 -0.009107854
000050 1b 17 ba bd e1 9d 2e be b3 89 06 be 67 1f 20 3e
       -0.09086438 -0.17052414 -0.13138466 0.15636979
000060 c2 4c 83 bd a2 d4 fd bd 94 e0 3e be 2d 7b e9 bd
       -0.06411125 -0.12394072 -0.18640357 -0.11400447
000070 95 a4 73 be 21 bf c9 bd e4 ae 10 3e ac 41 81 be
       -0.23793252 -0.09850908 0.14129215 -0.25245416
000080 4f 44 0f 3e 5a ab a2 bd 9e 0c 83 bd 3c 0d c0 3d
       0.13990901 -0.07942839 -0.06398891 0.09377524
000090 b3 d1 f8 3c a8 73 18 3e a7 35 85 bd 33 ec 50 bd
       0.03037343 0.1488787 -0.06504374 -0.051006507
0000a0 23 da 3c be b9 43 f5 3d 2c 38 c6 3b d0 48 08 be
       -0.18442588 0.11975808 0.0060491767 -0.13309026
0000b0 ac 04 0d be e7 c1 99 bd 98 d5 eb 3d 48 c4 a4 bd
       -0.13771313 -0.07507687 0.11515349 -0.0804525
0000c0 38 3d 22 3e 27 82 4a 3c 83 c3 79 be 17 5f b9 3b
       0.15843666 0.012360132 -0.24390988 0.0056570875
0000d0 00 bb c5 3d 85 f6 01 3e 85 45 f3 bc 9b 50 b6 bd
       0.09654808 0.12691696 -0.029696235 -0.08902093
0000e0 a8 dc 25 3e 5a 56 25 be d8 2a 09 3b 84 cf 09 be
       0.16197455 -0.16146222 0.0020930078 -0.13458067
0000f0 e5 2e c3 3d 82 48 bd 3d 1c 3a 2f 3e f3 4c e9 bd
       0.09530429 0.092423454 0.1711201 -0.1139163
000100 90 58 31 3e 60 1e f9 bd ea 2a a7 3d ef 29 38 3e
       0.1731894 -0.12163997 0.08162482 0.17984746
000110 9a b5 b4 3d a1 1f 70 be b4 dd 96 be 96 bd 57 bd
       0.088237 -0.23449565 -0.2946602 -0.052671038
000120 5b 21 da bd a5 be 0a 3d 19 c9 d4 3d 70 67 d6 bd
       -0.10650893 0.03387322 0.10389919 -0.10468948
000130 60 68 19 3e 2e f2 d5 3c 32 f2 06 3e 68 b2 e2 bd
       0.14981222 0.026116457 0.13178328 -0.110691845
000140 69 b0 80 3d 70 c0 02 be 67 55 01 3e 6a fc 0c be
       0.062836476 -0.12768722 0.12630235 -0.13768163
000150 f6 ec de 3d 47 79 8b 3c 9a 9c de 3d 47 f2 19 3e
       0.108850405 0.017025603 0.10869713 0.15033828
000160 53 01 2f 3d db ef cc bd 62 7d 5a 3d 60 ca 79 3b
       0.042725872 -0.10006686 0.05334223 0.003811501
000170 23 0c 2c 3e 4c 8e 03 3d b7 ae 44 bd 5a 12 0a 3d
       0.16801505 0.032118127 -0.048018184 0.033708908
000180 eb 43 53 3e a6 c7 35 be 4c db e2 bc 36 cd 4b 39
       0.20631377 -0.17751941 -0.02769246 0.00019436036
000190 cd 30 b4 bb 05 89 03 3e 7c d2 48 be 6f ca f3 bd
       -0.0054989816 0.12845238 -0.19611543 -0.119038455
0001a0 36 28 37 be 76 68 4b 3c a5 2a 34 bd c6 c7 2b be
       -0.17886433 0.012415042 -0.04398598 -0.16775426
0001b0 dc 9e 87 bd f5 8b cd bd 65 94 07 3e de a4 12 be
       -0.06622097 -0.1003646 0.13240202 -0.14320704
0001c0 07 5b 3a be 18 1a 1f be 1f 7f b9 3c 34 f8 68 3d
       -0.18198787 -0.15537298 0.022643624 0.05687733
0001d0 b6 90 a0 3d f4 e1 a2 bd 9f 8f bb bd cb 7e d9 bd
       0.078401014 -0.079532534 -0.09158253 -0.10619887
0001e0 b9 00 a2 bd 6d ca 0f be d2 17 e1 bd a9 71 16 3e
       -0.07910294 -0.14042063 -0.109908715 0.14691795
0001f0 73 94 6b be 93 b9 98 3d 46 b7 81 bd 5a 74 eb bd
       -0.23005848 0.074572705 -0.06333785 -0.11496802
000200 25 22 22 3e a5 f8 b1 bd 26 5c 61 be bd 5c c2 bd
       0.15833338 -0.08690003 -0.22007808 -0.09490345
000210 f5 dc 1f be d4 19 e9 3d b8 9e 1c be 0e 83 10 be
       -0.15611632 0.113818794 -0.15294921 -0.14112493
000220 a3 2f a3 3d 1d ee 32 bd 6f b0 60 bd 8c 81 01 3e
       0.0796807 -0.043684114 -0.05485576 0.12647074
000230 52 d1 80 bd d2 88 28 bd 95 21 14 be 22 53 2c 3e
       -0.06289925 -0.041146107 -0.14465936 0.16828588
000240 ff da b3 bd 0d af d2 3d 6c 26 2d bc dd a1 cc 3d
       -0.087820046 0.102872945 -0.0105682425 0.099918105
000250 61 4d 5d bd d5 46 06 3d 9a 0d 07 be 91 21 01 be
       -0.054028872 0.032782394 -0.13188782 -0.12610461
000260 23 6b de bc d0 b1 a3 3d 0d e8 01 be 62 19 21 3c
       -0.027150696 0.079928994 -0.12686177 0.009832712
000270 89 a0 21 3c 91 eb 4f 3d ec 68 69 3d a4 42 e2 bb
       0.009864935 0.050761763 0.056984827 -0.006904917
000280 38 a1 07 3c 0b 37 49 be 02 27 71 be 02 d9 ee bd
       0.008278184 -0.19649903 -0.23550037 -0.11662485
000290 d9 1d 28 3e 15 2d 11 bd 2d 8f 13 bd 77 33 da bc
       0.16417636 -0.035443384 -0.036025215 -0.026635868
0002a0 96 a3 74 bc 79 8e 27 be d0 f2 62 3d 55 49 db 3d
       -0.01493158 -0.16362943 0.055407345 0.10707346
0002b0 03 87 dd bd 2d 4a 38 bc f9 f0 e5 3d b4 3c fd 3c
       -0.10816767 -0.011248154 0.112276025 0.030912735
0002c0 3d 5c b4 3d b0 fc d2 bd 31 88 e3 3c 47 78 d0 bd
       0.088066556 -0.103021026 0.027774902 -0.10179191
0002d0 95 68 8d 3d c7 fe 12 be b7 86 18 3e 40 74 b3 bd
       0.06904713 -0.14355002 0.1489514 -0.08762407
0002e0 07 aa 60 bd 52 47 1a 3e 1d 66 1f bd 56 8b 2a 3e
       -0.05484965 0.15066269 -0.038915742 0.16654715
0002f0 76 3b a4 bd f4 2f 7f 3d 0f 43 23 be f6 83 2e 3e
       -0.08019154 0.06230159 -0.1594355 0.17042527
000300 f7 54 07 3e 9b c4 e0 bd d2 83 43 bc 8b 1f b9 3d
       0.13216005 -0.109749995 -0.011933284 0.090392195
000310 7b 26 c9 3d f6 58 80 bd 43 81 3e be 3e d3 20 3e
       0.09821793 -0.06266968 -0.18603997 0.15705582
000320 29 06 4a 3e 75 68 12 3e 8e c7 a6 bd 34 21 b6 3d
       0.19728912 0.1429766 -0.08143531 0.08893052
000330 6f 7f 6d 3c ec 25 10 3a 34 72 df bd 40 d2 1c 3e
       0.014495715 0.0005498815 -0.109104544 0.15314579
000340 40 53 03 3e 86 bd 1a 3e a2 a8 65 be b4 38 4c bd
       0.12824726 0.1511136 -0.2242761 -0.049858764
000350 30 de a5 bc aa e4 ae bd cf 42 6d 3d 72 ae 48 3e
       -0.020247549 -0.08539708 0.05792504 0.19597796
000360 5c 1b 82 3d fb df de 3d 00 4e d5 bd 29 c8 2d bd
       0.06352875 0.10882565 -0.10415268 -0.042427216
000370 cc bd 45 3d 7e 44 f8 3d 59 d4 9b bb 1e 78 1f be
       0.048276708 0.12122439 -0.0047555384 -0.15573165
000380 45 d7 cd bc f2 ce a0 3d 43 b1 3e be ff a8 64 be
       -0.025127063 0.07851972 -0.18622307 -0.22330092
000390 03 d1 f5 3d 4d b4 88 be 13 42 df 3d 87 be 47 bd
       0.120027564 -0.2670006 0.109012745 -0.048765685
0003a0 7d 15 0f 3e fa 97 ab 3d 20 63 24 be 1b 02 92 bd
       0.13973041 0.083785966 -0.16053438 -0.07129308
0003b0 91 4a cd bd f6 ae c1 3d 83 de c4 bc 71 a2 fc bc
       -0.10023988 0.09457199 -0.024031883 -0.030839177
0003c0 7e 0d a3 bd d0 66 11 3e 41 e2 c7 3d f5 90 5e bd
       -0.07961558 0.14199376 0.097599514 -0.05433746
0003d0 85 3e b3 3d 1c d8 9b 3d 69 17 1a be 38 6f 98 3d
       0.08752159 0.07609579 -0.15047993 0.07443088
0003e0 09 ce c8 bc d8 a5 5a 3b fc 00 99 bd 62 19 94 bd
       -0.024512308 0.003336301 -0.07470891 -0.07231404
0003f0 31 a8 d8 3d 5a 3a 13 be 3c 99 ed bd 0a f7 05 be
       0.10578955 -0.14377728 -0.11601493 -0.13082519

fc2.weight f4 [300, 400]
000000 2e 48 9a 3d a2 62 81 bc 47 9c 84 3b bf 5d 39 3d
       0.075332984 -0.015794102 0.00404695 0.04525542
000010 c8 05 0a bd 57 12 d2 3a 2b dc 96 bd b8 c8 73 3d
       -0.03369692 0.0016027194 -0.073662125 0.059517592
000020 0b 92 0b bb ec 39 3f bd 88 36 b9 bb 6a 02 ea bd
       -0.0021296765 -0.046686098 -0.0056522526 -0.11426242
000030 0b 56 43 be e2 60 0f 3d 78 5d db bb 0c fa 07 ba
       -0.19075792 0.035004504 -0.006694492 -0.0005187101
000040 74 a6 c4 bc a8 ee 89 bd aa fd 3b 3d 5e da 87 3c
       -0.024005152 -0.06734973 0.04589621 0.016583618
000050 d8 9d 8f bc 82 4e 07 be 6f 31 29 be ea 7e 82 3b
       -0.01753132 -0.13213542 -0.16522764 0.0039824145
000060 69 88 3d 3c ca ed 3f bc 81 3c 3a bd 4d 27 41 3d
       0.011568167 -0.011714408 -0.045467857 0.04715662
000070 80 ba e8 3b cb 44 c4 bc bf 7f 53 bb e9 23 7d 3c
       0.0071023107 -0.023958584 -0.0032272188 0.015450456
000080 22 3d d1 bc 1d 5a e1 bd 03 c0 5c bd df 22 6d bd
       -0.025541846 -0.11003516 -0.053894054 -0.057894584
000090 7c 36 9a bc 99 71 a4 bd 0c 63 16 3d b3 5d cf 3d
       -0.018824808 -0.080294795 0.036715552 0.101252936
0000a0 de 0d 6b bd a0 55 97 3c 12 4e c5 bc 23 db b5 bd
       -0.05738627 0.018473446 -0.024085078 -0.08879688
0000b0 11 11 9c 3d be c2 62 3c 8b 6d c8 bd 4c 73 65 3d
       0.07620443 0.0138403755 -0.09786519 0.05601816
0000c0 b6 93 51 3d b0 fd 74 bd ba 96 00 3e f9 a3 6a bd
       0.05116626 -0.059812248 0.12557498 -0.057285283
0000d0 51 4b bf bc c3 06 53 3d 32 de b8 bc 7f f3 5b 3d
       -0.023351343 0.05152012 -0.022566888 0.053699013
0000e0 ea 18 ec 3b a1 7f 57 bd 93 39 7b bd 93 48 8e bd
       0.0072051184 -0.05261195 -0.061334204 -0.06947436
0000f0 e2 4a 37 3d 91 ae 38 bd 8e bd 1f 3c a5 6b 7e bd
       0.04474915 -0.045088354 0.009749783 -0.062114377
000100 12 c0 4f bd 5c 33 6f bd 4e 81 66 bc 4b 98 b0 3c
       -0.050720282 -0.05839859 -0.014068915 0.021556994
000110 c0 a7 93 bd 29 fc bd bd 1b 4f a1 3d ee 14 cc 3d
       -0.0720973 -0.09276611 0.07876416 0.099649295
000120 05 89 18 be 79 44 a1 bc 85 bf 99 bd a7 45 7a 3d
       -0.14896019 -0.01968597 -0.075072326 0.061101582
000130 c9 68 67 bd 69 2f d6 3c 77 db 40 bc 99 18 ff bc
       -0.056496415 0.026145654 -0.0117710745 -0.031139659
000140 f6 9f 86 bc c5 69 a2 3c 9d 65 97 3d 2d 62 ab bd
       -0.016433697 0.019825825 0.07392428 -0.08368335
000150 8d f9 bd bc 7b 18 1c 3e cd 94 8f 3d 59 a6 03 bd
       -0.023190284 0.15243714 0.07010803 -0.032141063
000160 57 56 91 3d a1 2b 36 bd 28 ae 35 3c 39 6a 65 bd
       0.07096546 -0.0444752 0.011088885 -0.056009505
000170 d0 b1 69 bd 0a 23 04 3e 49 dc c9 bc de 35 90 bc
       -0.05705434 0.12903991 -0.024641173 -0.01760381
000180 b4 3f 55 3d 73 8b 84 3d 46 57 4c bd 12 76 e2 bd
       0.052062705 0.0647191 -0.049887918 -0.110576764
000190 87 87 16 3d 34 14 87 bd ca 50 64 3d 62 29 23 bd
       0.036750343 -0.0659565 0.05574111 -0.039834388
0001a0 96 5c 90 bb dc fe 1d bd 44 53 34 3d 5f e5 29 bd
       -0.0044055684 -0.03857313 0.04402472 -0.04147851
0001b0 7f 19 dc 3c 3d 41 83 bc ee 0e 69 3d 3e b9 92 3b
       0.026867626 -0.016022319 0.056899004 0.004477649
0001c0 c2 e9 d3 bd 78 d8 88 3d a9 a9 c0 3d 49 eb bc bd
       -0.1034732 0.06681913 0.0940736 -0.092245646
0001d0 8e 08 99 bd 51 09 c1 3c ed d8 67 3d cb 4f 79 bd
       -0.07472335 0.023564013 0.05660336 -0.060867112
0001e0 eb 47 91 bc 89 26 cf 3d ff 5a 3c 3e 06 93 bc 3c
       -0.017734488 0.10114772 0.18394087 0.023019325
0001f0 0d 25 d9 3d ee ef c7 ba 00 56 67 bc fd af 32 3c
       0.1060277 -0.0015254 -0.014119625 0.010906217
000200 e1 79 7f 3d 43 18 e6 bb fc 4c 08 bc 93 0d 55 3d
       0.062372092 -0.007021935 -0.008319136 0.0520149
000210 31 da 01 bc 93 05 6d 3d db 19 8f bd bb 38 a0 bc
       -0.007925556 0.057866644 -0.069873534 -0.019558301
000220 a1 11 12 bd 88 f3 bf 3b ee 85 e7 bc 40 5e 00 bc
       -0.035661343 0.0058578886 -0.028262105 -0.007834971
000230 5f 09 2f 3d e7 e8 87 bc 0f 5b 38 bd 7d b6 86 3d
       0.042733546 -0.016590549 -0.045008715 0.065777756
000240 b5 51 01 bd 44 c9 20 3c 53 3b 66 3d 33 1a ce bc
       -0.031572063 0.00981361 0.05620892 -0.025158977
000250 b9 ad 31 3e d4 d5 24 3e d1 05 37 3c 45 db a3 3a
       0.17351426 0.16097194 0.01117082 0.001250126
000260 01 5f bf bc 41 40 f9 bd 0a ba 90 bc f3 0c 91 bd
       -0.023360731 -0.121704586 -0.017666835 -0.07082548
000270 40 b7 1f bd 45 cf 9e bc ae 85 23 3d 4c 49 86 3d
       -0.03899312 -0.019385943 0.03992241 0.06556949
000280 b9 16 92 bd a7 48 b1 3b 52 24 1d bb d9 91 c7 3d
       -0.0713324 0.005410272 -0.0023977947 0.09744615
000290 15 22 30 3d 9d 78 1e 3e 88 95 a9 3d ed 00 7d 3d
       0.043001253 0.15475698 0.08280474 0.06176846
0002a0 87 60 21 bd 2c e0 93 bd 39 f6 29 bc 93 15 4a bd
       -0.039398696 -0.07220492 -0.010373645 -0.04933698
0002b0 82 d5 79 bd d0 6f bc 3c cf c8 5d 3d e4 12 ab bc
       -0.060994633 0.023002535 0.054146584 -0.020883031
0002c0 b4 20 8b bd bd 39 11 bd 98 f6 8e 3b 9f 87 91 bd
       -0.06793347 -0.035455454 0.0043628924 -0.07105946
0002d0 74 bf 87 bd 9d a2 b1 bc 2b 9d 05 bd fc fe 18 bd
       -0.06628314 -0.021683985 -0.03262059 -0.037352547
0002e0 45 4c 3c 3c e7 f8 82 3d 5f a1 0a bd 3e fd 5d 3d
       0.011492793 0.063951306 -0.0338453 0.05419659
0002f0 d8 a2 3a 3d d5 2f cc 3d fd 5d 4a bd 88 85 72 bc
       0.045565456 0.09970061 -0.04940604 -0.014802344
000300 d5 1a 4a bd ca 61 b3 bd ab bd 42 bd 00 c5 00 bd
       -0.049341995 -0.08758886 -0.047544163 -0.031437874
000310 d9 eb 26 bd cf 1c 33 be 13 f2 66 3e a3 11 a8 bd
       -0.040752266 -0.17491458 0.22553281 -0.08206489
000320 66 9e 9a bc 0b 35 76 bd 4a d6 47 bd 1a 6e 76 bb
       -0.018874358 -0.06010918 -0.048788346 -0.0037602247
000330 71 11 d5 bc 77 63 c3 3d f2 2b 55 3c aa 28 43 3d
       -0.026009293 0.09540456 0.013010966 0.047646202
000340 a4 c2 e0 3d c1 15 88 3b db 50 a5 bc 80 e7 f9 3d
       0.10974625 0.004152984 -0.020180156 0.12202358
000350 ba aa 97 bc ca db e5 bc af 05 9a 3c cb ef a5 3c
       -0.018514026 -0.028058905 0.018801538 0.020255944
000360 52 fd b7 bc 47 ff 60 3c 74 a0 db 3a 1f d2 8d bc
       -0.02245966 0.013732738 0.0016756193 -0.017312108
000370 ed 4d 63 3d 40 9c 64 bd 25 6b 76 bd 04 bc fc 3c
       0.055494238 -0.055813074 -0.060160775 0.030851372
000380 09 56 4d 3d a4 ff 33 3e c8 a5 2f bd 1d 66 0c 3d
       0.050130878 0.17577988 -0.04288271 0.03427707
000390 62 77 d0 bb 05 a6 ff 3d eb 99 a0 3c e2 04 fb 3a
       -0.006361888 0.124828376 0.019604644 0.0019151235
0003a0 b9 db 56 3d 6d cd ba 3d e7 5b 90 bd e9 53 28 bd
       0.052455638 0.09121213 -0.07048779 -0.041095648
0003b0 a9 cf 82 3c bc f6 ce 3d 4b f5 96 bd 97 73 91 bd
       0.01596816 0.101056546 -0.07371005 -0.07102125
0003c0 19 4c 85 bd e2 9b 20 bc 6c f5 63 bd f6 db 9b bd
       -0.06508655 -0.00980279 -0.055653974 -0.076103136
0003d0 41 fc fb bc 2f 3a b8 3c 7f e5 0a 3e c7 24 1f ba
       -0.030759932 0.022488682 0.13564108 -0.0006070849
0003e0 de 7a fa 3c a0 06 cb bc 56 e3 39 3d fb f2 9c 3b
       0.030576166 -0.024783432 0.04538282 0.0047897077
0003f0 64 59 88 bc d5 e5 95 3d 52 5b ef 3c 8c 2e f5 3d
       -0.016644187 0.073192276 0.02921835 0.11971769

fc2.bias f4 [300]
000000 69 c7 ad 3d 8e 17 6b 3d 51 81 b5 3b 21 d0 14 3d
       0.084853 0.05739551 0.0055390974 0.0363313
000010 56 4b 33 3d 7c a7 bd 3d 8c 8f 6f 3d 11 39 46 3c
       0.043773018 0.09260461 0.058486506 0.012098567
000020 c6 ef a2 ba 68 02 32 3d a8 26 cd 3c 72 5b 25 3c
       -0.0012431077 0.043459326 0.025042847 0.010092603
000030 70 2d 53 3d 7b d3 2e 3d cf 11 30 bc 91 b1 90 3c
       0.051557004 0.042682152 -0.010746433 0.017662795
000040 bb 99 63 3d 35 33 30 3d 66 14 56 3d 2f 53 ff 3d
       0.05556653 0.043017585 0.052265547 0.12467038
000050 30 41 94 3c d8 c8 ba bc 06 e1 b6 3d 1a bf 84 3d
       0.01809749 -0.022800848 0.089296386 0.06481762
000060 0a cb b6 3d 95 a8 eb 3d 78 33 59 3d dc 2d 69 3d
       0.089254454 0.11506764 0.0530276 0.0569285
000070 a3 25 b9 3d 0d 3d 34 3c a8 57 b3 3d 96 72 09 3d
       0.09040382 0.011000884 0.087569535 0.033556543
000080 75 e8 c7 3c 3d 97 2e 3d c0 68 98 3d 96 a0 1b 3d
       0.024402836 0.0426247 0.074418545 0.037994944
000090 98 85 a1 3d 09 76 cc 3d 42 76 61 3d af 0c 82 3d
       0.07886809 0.09983451 0.05504442 0.063500755
0000a0 7e 1e 1a 3c ba 9e 2e 3c f5 c5 7c 3c 31 2a 9d 3d
       0.009406684 0.010657961 0.015428056 0.07674063
0000b0 c1 73 22 3d 89 ce f0 3d a5 50 de 3c 67 a9 5c 3d
       0.039661173 0.117581435 0.027138064 0.053872492
0000c0 b5 54 72 3c d0 3e bb 3d 96 9c dd bb 71 c6 a0 3d
       0.014790704 0.0914284 -0.0067630513 0.0785035
0000d0 de 06 06 3e d9 d4 89 3d 65 3a 3e 3d be 2e fd 3d
       0.13088557 0.067300506 0.046442408 0.12362431
0000e0 f2 bf 01 3b fa a4 c3 3c 5c 2a 59 3b c9 4b 8c 3d
       0.0019798246 0.023882378 0.003313682 0.06850392
0000f0 83 88 7c 3d 27 77 0e 3d 8d b4 67 3d 40 2b 28 3d
       0.061653625 0.0347816 0.05656867 0.04105687
000100 ee 99 25 3d 99 2d 21 3d 76 a2 9e 3c 4f c3 1f 3d
       0.040430002 0.039350126 0.019364577 0.03900462
000110 32 29 18 3d dc 93 2a 3d ca 6b e7 3c 25 81 95 3d
       0.037148662 0.041644916 0.02824964 0.07300023
000120 45 8a 0d 3d c3 67 8e 3d 17 35 c3 3c aa d3 06 3b
       0.034555692 0.06953385 0.023829026 0.002057294
000130 ac 52 d0 3d c9 37 30 3d 3d 59 70 3c 20 99 6c 3d
       0.101720184 0.04302195 0.014669714 0.05776322
000140 4e dd 1b bc f1 d7 92 3d 27 95 9f 3c 59 47 43 3d
       -0.009513212 0.07170094 0.019480301 0.047675464
000150 ca 78 a8 3c f0 a7 c4 3d 5c 42 84 3d 54 2e b1 bb
       0.02056541 0.09602344 0.064579695 -0.005407134
000160 aa 61 20 3d 0b 87 15 3d ea fa ed 3c c3 18 51 3c
       0.03915564 0.03650574 0.02905031 0.012762251
000170 f4 43 ae 3d dd 59 46 3d a4 c7 84 3d 6c f5 71 3d
       0.08509055 0.048425544 0.06483391 0.059071943
000180 1b 93 e5 bc d5 c7 e8 3c 2f 7b f3 bc 1e 21 6a 3c
       -0.028024247 0.0284156 -0.029721824 0.014290122
000190 30 1b 55 3d d4 b1 8f 3d d2 95 ab 3d b3 d1 3e 3c
       0.05202788 0.0701634 0.08378185 0.011646676
0001a0 24 91 cb 3c 8e 9f 6a bb a9 ce e6 3b 15 c3 5c 3d
       0.024849482 -0.0035800668 0.007043679 0.053896982
0001b0 9b 39 cb bb 63 fa d3 3c 33 aa 33 bc ce ef 12 3c
       -0.0062019355 0.02587623 -0.010965872 0.008968307
0001c0 e8 3c e4 3b 7a fd 0b 3d 96 8f ee 3d b1 66 d1 3c
       0.0069652684 0.03417728 0.116484806 0.025561662
0001d0 d5 0f 94 3b e3 83 bc 3d da eb 46 3d ee 82 18 3d
       0.004518489 0.09204843 0.04856477 0.03723424
0001e0 dd a9 49 bd bb dc 5e 3d 62 a9 00 3d 81 9b 23 3d
       -0.04923426 0.054409724 0.031411536 0.039943222
0001f0 e4 b2 b0 3d 35 55 52 3d 8b ad 81 3d e1 5d 49 3d
       0.08627871 0.05135079 0.06331929 0.049161796
000200 21 99 f1 3d 9a 00 2f 3d d4 1c 85 bc 22 6e d1 3d
       0.11796785 0.042725183 -0.016249098 0.10226084
000210 6e 2e 9c 3d 03 92 7e 3d 60 e5 b5 3c 00 45 b7 3d
       0.07626043 0.062150966 0.022204101 0.089487076
000220 ba 03 cf bb 15 0a df 3d e3 5c 5a 3d a3 ce 21 3d
       -0.006317583 0.10890595 0.05331124 0.039503705
000230 9d b5 4a bc d3 ff c0 3d ab b0 e8 3c 2c cc 82 bc
       -0.012372402 0.094237946 0.028404554 -0.015966497
000240 69 85 1e 3d ce a7 83 3d 54 62 79 3c 23 68 2a 3d
       0.03870145 0.064284906 0.015221197 0.04160322
000250 d5 e2 01 3e 69 26 6c 3d b3 5b 12 3d e0 04 c0 3d
       0.12684186 0.05765382 0.035731982 0.0937593
000260 7e d5 b8 3d 78 11 3e 3d 0d 35 de 3d c3 d2 42 3d
       0.090250954 0.04640338 0.108499624 0.04756428
000270 7f 40 4c 3d df 5a e9 3c be b9 2a 3d 44 6a 3b 3d
       0.049866196 0.028485714 0.041681044 0.04575564
000280 bc cf 2f bd c9 36 e1 3d 86 c5 92 3d 1d 01 01 bb
       -0.04292272 0.109967776 0.07166581 -0.0019684501
000290 85 bf f0 3c 22 11 8e 3d df 5c 81 3d fa 0a 56 3d
       0.029388199 0.069368616 0.06316542 0.05225656
0002a0 ca fe dc 3d 3f bb 00 3d bd 82 9b 3d 9d d3 b2 3c
       0.10790785 0.03142857 0.07593296 0.02182942
0002b0 e0 c0 8e 3d d3 b0 ee 3b 57 a6 92 3d 38 2f b1 3b
       0.06970382 0.0072842627 0.07160633 0.0054072402
0002c0 b0 aa cb 3a f0 2b 77 3d 36 67 0c 3d 0b 24 21 3d
       0.001553854 0.060344636 0.034278117 0.039341014
0002d0 d5 04 b3 3d 29 23 10 3d dd 62 67 3d db af b2 3d
       0.08741156 0.03518978 0.056490768 0.08724948
0002e0 51 54 ba bc 7f 79 46 3d 5c b3 ea 3d 72 16 63 3d
       -0.022745283 0.04845571 0.11459991 0.055441327
0002f0 e1 bd b4 3d f7 5c 94 bb fb 1a 87 3d 3a 02 6a 3d
       0.08825279 -0.004527684 0.06596943 0.05713103
000300 0d 64 da 3c f9 e6 50 3d 08 e1 01 3e da 15 a1 3d
       0.026659036 0.051001523 0.12683499 0.07865496
000310 7e 37 84 3c f6 c3 28 3d df f6 9a 3d 1c f3 c4 3d
       0.016139742 0.041202508 0.07566618 0.09616682
000320 bd 23 ad 3c ba 74 28 3d 64 8c 48 3b 9a 80 c4 bb
       0.021135205 0.041126944 0.0030601257 -0.005996776
000330 56 e3 db 3c ae 9f 89 3d 1f 8d 31 3c e4 14 ee 3c
       0.0268418 0.067199096 0.010836869 0.029062696
000340 16 4e 82 bb 52 91 9b 3d 1f 58 57 3d d4 0d e8 3a
       -0.0039765937 0.07596077 0.052574273 0.0017704316
000350 55 e7 80 3d 2b 38 88 3d ed 55 80 bc 46 ba a0 3d
       0.06294123 0.06651338 -0.015665973 0.07848029
000360 5f dc ce 3d c7 94 17 3d fc 1e 9e 3d 83 72 eb bb
       0.10100626 0.03700712 0.077207536 -0.0071852817
000370 89 72 7e 3d 67 ff 29 3d 71 f8 ca 3d 8a 45 8d 3d
       0.062120948 0.041503336 0.09910668 0.06898029
000380 a3 7c ac 3c 76 cb 02 3c 14 a2 ec 3c 29 18 7f 3d
       0.021055525 0.007983079 0.028885879 0.0622789
000390 c3 ca 41 3a 2a 1d 0b bd f8 10 71 3d c4 1d 67 3d
       0.00073925796 -0.03396336 0.058854073 0.05642487
0003a0 73 e9 43 3d 0a 58 e7 3d b8 df 8b 3d c8 7a a3 3b
       0.047830056 0.11296089 0.0682978 0.004989002
0003b0 97 57 30 3d 72 0b 84 bc e7 aa 8b bc 64 ca f4 3c
       0.043052282 -0.016118739 -0.017049266 0.029881664
0003c0 0c 67 5c 3d 25 22 60 3d a8 dd 93 bc 42 8d 32 3d
       0.05380921 0.054720063 -0.01805003 0.043591745
0003d0 08 34 3f 3c f6 52 83 3c 85 a7 da 3d af f2 8b 3c
       0.01167012 0.01603077 0.10676483 0.017083494
0003e0 d6 65 90 3d 86 62 92 3d e9 2b f7 3d e0 99 4c bb
       0.07050674 0.07147698 0.12068922 -0.0031219646
0003f0 73 02 d3 3c 26 2a a4 3b c7 10 17 3d 46 71 c8 3d
       0.025758004 0.0050099073 0.036881234 0.0978723

fc3.weight f4 [2, 300]
000000 dd 3b ee 3d ef 60 ba 3d 28 03 c7 bd 7a 6e 0b be
       0.11632512 0.0910052 -0.09717399 -0.13616362
000010 87 ee da bd 7a ef 30 be 21 f9 3f 3e 5a ee c3 bd
       -0.10690027 -0.17278853 0.18747379 -0.09566946
000020 cc 9b 30 3e cb fb 62 be a2 82 f3 3d ed 9a cb bd
       0.17246932 -0.22166364 0.118901506 -0.09941659
000030 af a0 1a be 36 97 0c be 7b 44 d2 3d 41 0b 28 3e
       -0.15100358 -0.13729557 0.10266968 0.16410543
000040 a8 29 e0 bd 10 02 db 3d 3a 01 3d 3d 5c 29 15 be
       -0.10945445 0.10693753 0.046143748 -0.14566559
000050 85 2d e2 3d 3b 11 11 3e d7 df d0 3d 3e e8 de bd
       0.110438384 0.14166729 0.10198944 -0.108841404
000060 43 18 71 bd 8c de 86 3d d7 14 28 3e 48 41 3d be
       -0.05886103 0.06585416 0.164142 -0.18481934
000070 13 f3 f1 bd d5 ef 31 be 4b 82 b6 bd d6 d9 ba bd
       -0.11813941 -0.17376645 -0.0891157 -0.0912358
000080 a4 06 5d bd 2b d6 ea 3d b9 5d 2e be 18 5c 61 bd
       -0.05396141 0.114666305 -0.1702794 -0.055019468
000090 2b 0b 13 3d c4 21 41 be d8 6d 58 3d f3 e1 fa bd
       0.035899322 -0.18860537 0.05283913 -0.12250128
0000a0 48 b4 05 be c4 ed 0a be c1 bc 0f 3e 6a ce 32 be
       -0.13057053 -0.13567263 0.14036848 -0.17461553
0000b0 c7 0d ed 3d 5f e3 a7 bd 16 9d 17 3e f9 7d d0 3d
       0.115748934 -0.081976645 0.14806017 0.101802774
0000c0 5e 55 1d bd 99 9c fb 3d e6 75 c8 3d 64 1f fd bd
       -0.03841149 0.12285728 0.09788112 -0.12359503
0000d0 7f 63 2a be 5b 94 66 3d 50 da 10 3e 84 93 2f be
       -0.16639517 0.056293827 0.1414578 -0.17146116
0000e0 a3 a6 0e be ca 8a c0 bd 07 05 bd 3d 5e 26 24 3e
       -0.13930754 -0.09401472 0.092294745 0.16030261
0000f0 e9 22 08 be ee 5b d6 3d 16 9a 8a bd 97 92 1d be
       -0.13294567 0.10466753 -0.06767671 -0.15387951
000100 03 88 12 3e cc a7 df 3d 83 18 ce bc a0 0a 1e be
       0.14309697 0.109206766 -0.025158172 -0.1543374
000110 26 9e 05 be 56 83 30 3e 31 4e fe bd 13 21 51 3e
       -0.1304861 0.172376 -0.124172576 0.20422773
000120 11 10 68 3d 80 67 1c 3e 9f 8b c1 3d d5 0c 3d 3e
       0.056655947 0.15273857 0.09450459 0.18461926
000130 9d ed fe bd f3 3d 1a be 09 6a ae 3d 25 bd dc bd
       -0.12447665 -0.15062694 0.08516318 -0.10778264
000140 57 45 1e 3d 34 3b 11 be 5a d1 9e bd a6 42 43 be
       0.038640346 -0.1418274 -0.077547744 -0.19068393
000150 34 45 fd 3d ca 6c 13 be 71 57 c6 3c 4d a5 c7 3d
       0.12366715 -0.14396968 0.024211617 0.097483255
000160 9d 09 56 be 0f 40 07 3e 30 f4 11 3e 82 85 c4 bd
       -0.20902105 0.1320803 0.14253306 -0.09595777
000170 84 c3 5a 3e 47 cb 00 3e 60 e0 94 3d 62 60 92 3c
       0.21363646 0.12577544 0.07269359 0.017868225
000180 34 1a cf 3d da a2 d5 3d 90 53 bb 3d f5 b8 bb bd
       0.1011242 0.10431452 0.09146798 -0.09166137
000190 ef aa 0c be c1 e6 3e 3e 25 9f 1a 3e 3f bc 71 bd
       -0.13737081 0.18642713 0.15099771 -0.059017416
0001a0 68 07 6d 3d 6b e6 03 3e 2a 1a ce 3d 4a e9 d2 3d
       0.05786839 0.12880866 0.10063584 0.102984026
0001b0 d0 2d cd 3d 8a 4d 2d be 04 be 35 be 4a 8a fc 3d
       0.10018504 -0.1692411 -0.17748266 0.12331064
0001c0 3d fd df 3d 82 79 0e be 13 84 98 bd d9 d5 cc 3d
       0.10936973 -0.13913539 -0.07447066 0.10001726
0001d0 db 42 22 3e 6e 43 78 bd 30 da 2a 3e 5c d7 12 be
       0.15845816 -0.06061118 0.16684794 -0.14339966
0001e0 30 1f 96 3d fd 6b 56 3d 75 e7 fb bd 07 99 77 3d
       0.07330167 0.05234908 -0.12300006 0.060448673
0001f0 50 3c 84 bc 7b 20 f2 bd c9 04 c6 3d 5c 79 da bd
       -0.01614204 -0.118226014 0.096688814 -0.10667679
000200 38 bb 4a be ba 72 89 3d 93 ae 0f 3d 7d 33 bd 3d
       -0.19797981 0.067113355 0.035078596 0.09238336
000210 d4 9e 03 3e fa 97 5b be b3 19 12 3e 52 0f 25 be
       0.12853557 -0.21444693 0.14267616 -0.16119125
000220 ae a0 58 3d 62 68 44 be 2b 92 43 3e d7 61 6c be
       0.05288761 -0.19180444 0.19098727 -0.23084198
000230 cf 2e 88 3d 85 56 13 bd 14 62 5d 3d 1b 87 97 bd
       0.06649553 -0.035971183 0.054048613 -0.07398816
000240 0e 39 9c 3d e7 0a 1f 3e 16 45 f6 bd 7a 5c e9 3d
       0.0762807 0.15531503 -0.12024896 0.11394592
000250 ae 2e f6 3b bd f7 16 3e 22 0d e5 3d 69 e0 4b bd
       0.007512889 0.14742942 0.111841455 -0.04977456
000260 5b 2f da 3d 40 68 38 bd db 71 ac bd 04 6f d3 3d
       0.106535636 -0.045021296 -0.08420154 0.10323909
000270 d0 c4 db 3d 67 a2 1b 3e c4 90 93 bd c3 f0 ad bd
       0.107308984 0.1519867 -0.07205346 -0.08493187
000280 c1 50 a1 bc 7e 69 42 3e 71 40 38 3d 26 2a e0 3d
       -0.019691827 0.18985555 0.04498333 0.10945539
000290 2b c4 1f be 7d 24 3c 3e bd 22 db 3d 4d 54 40 be
       -0.15602176 0.18373294 0.10699985 -0.18782158
0002a0 b3 ba 17 3e 4b 35 cd 3d 90 b1 8f bd ae 86 19 3d
       0.14817314 0.100199305 -0.07016289 0.037481956
0002b0 4b 7c be 3c f3 3e a8 bd 69 90 f5 3d d6 16 a6 3d
       0.023252627 -0.082151316 0.11990435 0.08109824
0002c0 fb 94 d7 3d ec 38 fd 3d 2c c8 29 3e 8b 8c a7 bd
       0.10526463 0.123643726 0.16580266 -0.08181103
0002d0 40 87 2c be 4b 6b 08 be 14 8b 26 be ec 7c f6 bd
       -0.16848469 -0.13322179 -0.16263992 -0.12035546
0002e0 a0 e1 e1 3d 6a 83 e5 3d ee 13 10 3e ea 9e 16 be
       0.11029363 0.11206706 0.14070103 -0.14709058
0002f0 e9 c3 bf 3d 3c 94 fc bd 68 18 e1 3d 4b 68 20 3e
       0.09363539 -0.12332961 0.10990983 0.15664785
000300 97 a0 f5 3d 93 e7 13 be 6f e9 e0 ba 63 ee 25 bd
       0.11993521 -0.14443807 -0.0017159412 -0.040510546
000310 7d 16 a4 3b 58 5f 35 bd 9d 3d e5 bd e5 14 f4 bd
       0.0050075636 -0.04428038 -0.111933924 -0.11918048
000320 ab 58 d4 3d 25 16 de 3d 63 3d ed 3d 35 56 21 be
       0.103684746 0.108440675 0.11583974 -0.15755542
000330 fa e0 51 3e f8 93 0a 3d f9 2a 22 be 3c 69 15 be
       0.20495978 0.03383252 -0.15836705 -0.14590925
000340 72 81 f6 3d 5e 8f 45 3e 44 d4 94 3d a6 fd dd 3d
       0.120364085 0.19292971 0.07267049 0.10839395
000350 f1 e7 02 be 99 19 26 be 42 9f 01 3e 1c e3 56 be
       -0.12783791 -0.16220702 0.12658408 -0.20985073
000360 d3 b8 2e be ae bd fe 3d 2f ec 9d bd 73 2e 21 3e
       -0.17062692 0.12438522 -0.07711064 0.15740375
000370 6d ad f6 3d 00 c4 2c be 4d 23 94 bd 17 22 d6 3d
       0.12044797 -0.16871643 -0.072332956 0.10455721
000380 66 b4 75 3e 2a df 9d 3d 74 38 af 3d 83 50 a7 bd
       0.23994598 0.07708581 0.085556895 -0.08169653
000390 cc a8 76 3c 01 e4 b4 3d 42 2d 9f 3d 72 2a 06 be
       0.015054893 0.08832551 0.07772304 -0.13102129
0003a0 58 8c 17 3e 80 df 5e be c5 48 f4 3d 34 80 e5 3d
       0.1479963 -0.21764946 0.11927942 0.112060934
0003b0 fe 3f d8 bd 8c d1 10 3d 33 5e b3 3b 3d f8 ac 3d
       -0.105590805 0.03535609 0.005473876 0.08445785
0003c0 a0 8c c4 3d a6 4a 79 bd 65 30 d5 3d 25 ff 3c bd
       0.095971346 -0.060862206 0.10409621 -0.046141762
0003d0 06 e1 d3 3d 44 86 0d 3d 01 cb 69 be 72 eb fa bd
       0.10345654 0.034551874 -0.22831346 -0.12251939
0003e0 7d 35 5b be cd fa c8 ba b8 32 3a 3e 67 82 62 3d
       -0.21407123 -0.0015333534 0.1818341 0.055300143
0003f0 21 66 d5 bd 4c 78 fe 3d bb 9d f3 3d 33 1a ca bd
       -0.1041987 0.124252886 0.11895319 -0.09868278

fc3.bias f4 [2]
000000 f4 7d 23 3d 1e ab 38 bd
       0.03991504 -0.045085065

bn.weight f4 [400]
000000 d2 0c e3 3e 29 bd 52 3e c1 74 41 3f 11 5f 5c 3f
       0.4434572 0.20579971 0.7556878 0.8608256
000010 4e ad 52 3f 41 71 14 3f db 88 51 3f 2b 7a 7a 3f
       0.8229569 0.5798531 0.8184945 0.97842664
000020 93 89 c8 3e 44 a4 9c 3d 35 87 2d 3f 08 72 b5 3e
       0.3916746 0.07648519 0.67784435 0.3543856
000030 55 3e 03 3f 27 03 01 3e 9d da 40 3f 42 14 d6 3e
       0.51266986 0.12598859 0.7533358 0.4181233
000040 51 0a 86 3f 1d ee 12 3f ae 9f 81 3f 70 70 92 3e
       1.0471898 0.5739458 1.0126855 0.28601408
000050 5b f6 5a 3f e6 68 3b 3e 23 b8 84 3f d7 d6 50 3f
       0.8553216 0.18301734 1.0368694 0.8157782
000060 58 81 20 3e df ae 6b 3f cd 5b 19 3e 46 6c 95 3e
       0.1567434 0.9206371 0.14976425 0.2918417
000070 82 69 54 3e 6a a5 77 3e f9 e4 e1 3e 31 e4 7a 3f
       0.20743373 0.24184194 0.44120005 0.9800444
000080 9e 74 11 3f 97 04 74 3f 5a 77 31 3f 76 48 57 3f
       0.5681857 0.95319504 0.6932274 0.8409494
000090 82 02 d9 3e 20 ec 6b 3e e6 65 3d 3e 48 83 44 3e
       0.42384726 0.23039293 0.18495902 0.19190705
0000a0 55 e4 67 3f aa 18 2b 3f 68 4c 80 3e af 48 55 3f
       0.9058278 0.6683451 0.25058293 0.8331403
0000b0 e2 f8 6a 3f 2b 92 a6 3e 87 59 7c 3f 65 f6 31 3f
       0.91786015 0.32533392 0.9857411 0.69516593
0000c0 a8 15 7c 3e 9e 97 04 3f bf b5 de 3e d0 27 d1 3e
       0.24617636 0.5179385 0.43498036 0.40850687
0000d0 64 42 a0 3e 48 05 80 3f 53 85 7e 3f 48 60 38 3f
       0.31300652 1.0001612 0.99422187 0.72021914
0000e0 f8 6a 22 3f 47 76 37 3e 63 ab 77 3e d5 6d 27 3f
       0.6344447 0.17916213 0.24186473 0.65401965
0000f0 80 f5 78 3f b1 91 72 3f cf bd 71 3e f5 33 3b 3f
       0.97249603 0.9475356 0.23607562 0.73126155
000100 7c 3c 33 3e 0d 1e 28 3e 60 b3 94 3e 28 69 60 3e
       0.17503542 0.16417713 0.29043102 0.21915114
000110 cf 3a 46 3f 86 ea 82 3f bd 6e 78 3e 1a 87 14 3f
       0.77433485 1.0227821 0.24260993 0.5801865
000120 7f f5 2e 3f f5 47 cb 3e 51 c5 41 3f 27 4f 77 3f
       0.6834335 0.39703336 0.75691706 0.9660515
000130 9b 24 ea 3e f7 79 7d 3f 11 06 d2 3e a5 9a 0b 3f
       0.45731053 0.9901423 0.41020253 0.54532844
000140 5f 91 cb 3e f8 35 2a 3f 93 ba 1d 3f 35 87 18 3f
       0.39759347 0.664886 0.61612815 0.5958131
000150 4f 00 9f 3e ac c7 07 3f 95 37 64 3f b3 02 34 3f
       0.31054923 0.5303905 0.8914731 0.7031662
000160 cf 8d 1f 3f ea f2 e0 3e db 09 7a 3f b4 6f df 3e
       0.6232576 0.4393533 0.9767129 0.4363991
000170 12 b7 57 3f 1a cd 85 3f ac 03 79 3e 42 95 e1 3e
       0.8426372 1.0453217 0.24317807 0.44059187
000180 a9 c6 03 3e 72 8f a9 3e 2c 04 81 3f 27 44 d1 3d
       0.12868752 0.33117253 1.0079398 0.10218077
000190 72 a9 9c 3e 35 71 10 3f cd f4 56 3f 4b c6 92 3e
       0.30598027 0.5642274 0.83967286 0.2866691
0001a0 1a 11 f3 3e b7 6f e9 3e ee 3d ad 3e dc 90 7d 3f
       0.47473985 0.45593044 0.3383631 0.9904916
0001b0 25 7f 66 3f 59 2b 5b 3f dc dc 56 3f 98 e5 80 3e
       0.9003776 0.8561302 0.83930755 0.25175166
0001c0 ce 0e a2 3e de 91 16 3f 7d 3c b7 3e 4b 41 64 3f
       0.3165192 0.58816326 0.35788336 0.8916213
0001d0 94 d7 83 3e a1 7d 4b 3f 7d 55 3c 3e e2 7a 52 3f
       0.2575041 0.7948857 0.18391986 0.82218754
0001e0 96 00 85 3f 60 36 40 3f f7 84 a5 3e 57 d5 80 3f
       1.0390804 0.7508297 0.32328007 1.0065106
0001f0 09 2a d2 3e bb ea 70 3f a9 93 02 3f be 1c 78 3f
       0.41047695 0.9410817 0.5100656 0.9691886
000200 fc 13 55 3f 67 58 90 3e 05 4d 09 3e e8 f3 d9 3d
       0.8323362 0.28192446 0.13408287 0.106422246
000210 2b 72 23 3f 89 6a eb 3e cc 83 ce 3e 18 33 44 3f
       0.6384608 0.45979717 0.40334928 0.7664046
000220 96 3a e9 3e 7d 76 cc 3e 98 ce 21 3f f4 51 18 3f
       0.4555251 0.3993415 0.6320586 0.5950005
000230 3e 9f 85 3f 24 95 d2 3e d9 2c 0e 3f 56 da 07 be
       1.0439222 0.4112941 0.5553718 -0.13266882
000240 eb 8a 81 3e 1e e7 3a 3f 6b 9d fb 3e 88 34 aa 3e
       0.25301298 0.73008907 0.49143538 0.33243203
000250 93 45 a1 3e da a3 87 3f cf 6f cd 3e 89 02 ac 3e
       0.31498393 1.0596879 0.40124366 0.33595684
000260 64 19 31 3f e4 5b c4 3e 88 c5 34 3f 46 c1 e9 3e
       0.6917937 0.38351357 0.7061391 0.45655268
000270 a4 bb 1b 3f b0 59 08 3e b4 23 d0 3e 53 67 92 3f
       0.6083319 0.13315463 0.4065224 1.1437782
000280 af 3f 8d 3f cc cb 96 3f 09 4c 9b 3e 24 e2 83 3f
       1.103506 1.1780944 0.30331448 1.0303388
000290 69 cc 1b 3f b2 18 67 3f 09 02 7c 3e 45 48 1c 3f
       0.6085878 0.9027206 0.24610151 0.61047775
0002a0 c5 16 9d 3e c7 62 53 3f f7 f2 7a 3f dc b0 d7 3e
       0.30681434 0.825726 0.98026985 0.4212712
0002b0 dc 98 79 3f e4 c2 4d 3e f8 a2 55 3e b4 9d 31 3f
       0.9749887 0.20093876 0.20862949 0.6938126
0002c0 9d ff 7c 3e 70 07 89 3f 25 0e 14 3e 96 eb 1b 3f
       0.24706884 1.0705395 0.1445852 0.6090635
0002d0 ba 02 11 3f 5f fc 28 3e bc cb f9 3e 7c c4 43 3f
       0.56644785 0.16502522 0.4878825 0.76471686
0002e0 0b 8a a6 3e d2 ec d0 3d 1b 5a 38 3f 8d ee 5c 3f
       0.32527193 0.1020142 0.7201249 0.863015
0002f0 ce ee 70 3f ca 65 11 3e 03 dd 85 3f af db 75 3f
       0.9411439 0.14198986 1.0458072 0.96038336
000300 bc cd b6 3e be 1b 68 3f db d3 81 3e 16 b1 1a 3e
       0.35703838 0.9066733 0.25356945 0.15106615
000310 61 a8 32 3f 9c e0 dd 3e be c5 ca 3e 03 84 9b 3d
       0.69788176 0.43335426 0.3960399 0.075935386
000320 d1 1f 89 3e ab d5 3f 3f 08 9f 54 3f e7 4c 34 3f
       0.26782086 0.74935406 0.8305516 0.70429844
000330 e9 41 f5 3e ce c0 e0 3e bd 77 af 3e 40 c4 66 3f
       0.47901848 0.43897098 0.3427104 0.90143204
000340 3f b5 3a 3e 2b 4f 1b be cf e2 48 3f 09 8b 01 3f
       0.18233202 -0.15166919 0.7847108 0.50602776
000350 77 10 7c 3f b3 1e 75 3f d0 03 96 3e fd 26 5f 3f
       0.98462623 0.9574997 0.29299784 0.87168866
000360 ab e8 4e 3e 00 1a cf 3e dc 14 22 3f da 2d 6d 3f
       0.20205943 0.40449524 0.6331308 0.9264809
000370 41 48 0f 3e 7c 6a 3a 3f 35 8c 45 3f d5 38 9f 3e
       0.13992406 0.7281873 0.77167064 0.31098047
000380 a3 61 a1 3e dd 42 a7 3e fd cb 12 3f 9e 2e a0 3e
       0.31519803 0.326682 0.5734251 0.31285566
000390 db 6e f7 3e ad ef b5 3e 2c bd 2d 3e e3 8f 4c 3f
       0.48326764 0.3553442 0.16966695 0.79907054
0003a0 c6 76 45 3f e4 53 68 3f 7b 57 38 3f 28 1b 33 3f
       0.7713436 0.90753007 0.72008485 0.6996331
0003b0 2e 84 4f 3e f6 da 3f 3f ae 85 6b 3f a2 c8 29 3f
       0.20265266 0.7494348 0.92000854 0.66321766
0003c0 bd 19 a4 3e 63 89 ce 3e c8 43 35 3f 6b dc 4e 3f
       0.32050887 0.40339193 0.7080655 0.8080508
0003d0 d7 9b 87 3f 04 79 f5 3e 55 8a 66 3e ea a4 75 3f
       1.0594434 0.4794389 0.22513707 0.95954764
0003e0 5d 04 56 3f cb b1 bd 3e 94 f4 2e 3f 93 9e cf 3d
       0.8360041 0.37049708 0.68341947 0.101376675
0003f0 d4 31 05 3e f0 40 11 3f a9 b6 50 3f f4 8b 53 3f
       0.13007289 0.5673971 0.8152872 0.82635427

bn.bias f4 [400]
000000 b9 01 a4 bc 22 af 54 bc 6f 95 b8 bc 58 88 94 39
       -0.020020353 -0.012981208 -0.022532193 0.00028330344
000010 16 9e 03 bc 67 9c 84 3d ff 38 f7 3c a7 24 fa bb
       -0.008033296 0.06475144 0.030178545 -0.007633764
000020 d7 ab 8b bc e8 89 2b bd c8 ed cd 3c b8 6d 27 3b
       -0.017049713 -0.041879565 0.025137797 0.0025547575
000030 81 6f 02 bb c7 3a 94 bc 4a 5d 75 3d 99 7f 6d 3a
       -0.0019902887 -0.018094433 0.05990342 0.0009059846
000040 bd 36 11 3b 1b 35 0d 3d 76 cc 10 3c cd b4 97 bc
       0.002215787 0.034474473 0.00883781 -0.01851883
000050 83 43 44 3d ab d7 c5 3b 6f 02 dc 3c ff b6 3d 3d
       0.047915947 0.0060376725 0.02685663 0.046317097
000060 66 03 80 bd 02 54 07 bd 0d 14 48 3d 73 bf 94 3d
       -0.06250648 -0.0330391 0.048847247 0.072630785
000070 74 1f de bc 95 e8 15 bd 5e 33 9c 3b 10 e4 ad bc
       -0.027114607 -0.03659876 0.0047668656 -0.021226913
000080 ea 43 cf 3d 2a 28 b7 bc cf 92 9c 3c 70 f6 a6 3c
       0.101203755 -0.022358019 0.019112973 0.020381182
000090 7f bf 8e bc e9 25 55 bd b2 51 ee bc 12 c9 d7 3c
       -0.017425297 -0.052038107 -0.02909169 0.026340995
0000a0 92 e3 11 bd ea 12 45 bd 95 23 0b 3d cb fd 98 3c
       -0.03561742 -0.04811374 0.03396948 0.018675705
0000b0 76 93 0b 3d 03 64 1f bc de 1a ab bc 23 b5 74 3d
       0.034076177 -0.0097284345 -0.020886835 0.059743058
0000c0 c9 57 a6 3b 0f 67 c4 3c 42 c9 54 3d 80 5a 7a 3d
       0.005076383 0.023974923 0.051949747 0.061121464
0000d0 3a 08 64 bb 08 e8 25 3d c9 7a 24 3d db 1a 56 bd
       -0.0034794942 0.040504485 0.04015616 -0.052271705
0000e0 fd d9 8f 3d b9 6b 04 bc 33 8d 26 3d ed 0f cb bc
       0.07024 -0.008082324 0.040662 -0.024787867
0000f0 1e 47 94 3c 7f 03 92 3c 2b 8b b7 3d c2 99 d6 bb
       0.018100318 0.017823933 0.08962091 -0.006549091
000100 e0 d6 af 3d 8f 05 fc 3c 97 77 3d 3d 2e 01 99 3d
       0.08585906 0.03076437 0.046256628 0.07470928
000110 37 7e 24 3d c9 a2 e1 3c d3 e0 fa bc dd b3 ec bb
       0.04015943 0.027543442 -0.030624783 -0.00722359
000120 38 de 9a 3c ba f0 06 3d 91 22 77 3c cf b9 a1 3c
       0.01890479 0.03294442 0.015083925 0.01974192
000130 67 23 13 bd 9c 2a b1 bd 87 12 a1 bc 37 59 75 3a
       -0.035922434 -0.08650705 -0.019662155 0.00093593023
000140 d9 9e 41 3d cd cb 75 3c ab 1b 52 3d e8 c2 1c bc
       0.04727063 0.015002203 0.051295917 -0.009567954
000150 04 ec 9a bc fc 83 d4 bc 85 dd 8a 3d 40 47 83 bc
       -0.01891137 -0.025941841 0.06780533 -0.016025186
000160 fc 5d 17 3d 71 aa 49 3d 3f 57 8b bc 39 0d 6b bc
       0.036954865 0.04923481 -0.017009376 -0.014346414
000170 2e 4c ed 3c 3a de d8 3b 07 c3 4e 3b 24 c1 e1 3b
       0.02896699 0.0066182883 0.003154935 0.0068894792
000180 ad 52 61 bb c4 7b 97 bc b7 80 99 bc 6b 95 c8 3b
       -0.0034381554 -0.018491633 -0.018738134 0.0061213276
000190 f0 50 98 bc 99 b6 e5 bc 91 0a f6 3b e6 e3 11 3d
       -0.018593282 -0.02804117 0.007508584 0.03561773
0001a0 11 1a 07 bd 9a f4 9b ba 37 c2 89 3b 14 8b 0a 3d
       -0.032983843 -0.0011898458 0.0042040604 0.03382404
0001b0 b7 83 b4 bc 77 8a b3 3c ec 54 9f 3c 5c 93 33 3d
       -0.022035463 0.021916611 0.019449674 0.043841705
0001c0 8d ed 38 3c b2 41 b0 bc cb 2f 3a 3a fc f6 32 3d
       0.011287105 -0.021515701 0.00071024586 0.043692574
0001d0 1c 7d 8f bc 92 05 bc 3b 19 46 f9 bb b7 7f 5b bc
       -0.017515711 0.0057379687 -0.0076072332 -0.013397149
0001e0 3f e1 32 3d 56 64 20 3b 6d 58 9d bc 7a 4c 81 bc
       0.043671843 0.0024473867 -0.019207204 -0.015783537
0001f0 cc 1f 28 bb d8 07 c2 3c 9c db bc bc 2b 5f 4e 3b
       -0.0025653718 0.02368538 -0.023053937 0.003148983
000200 f6 39 18 3c 58 41 ba ba 5c f9 03 3d 9a 65 64 bd
       0.009291163 -0.0014210148 0.03222023 -0.055760957
000210 21 85 17 3c cb 5f 8d 3c 59 34 ae bc da 36 37 bc
       0.009248049 0.017257592 -0.021265196 -0.011182511
000220 89 c6 4d bd cb f4 f8 3c a4 a2 f3 3c 1c 7a 27 3d
       -0.050238166 0.030390164 0.029740639 0.040887937
000230 1a 9c c5 3a de 63 8b 3d e0 67 c0 bc e1 3f ae 3d
       0.0015076429 0.068061575 -0.023487031 0.08508278
000240 8c 14 09 bd 7d 7f 91 3c 58 19 54 bd 1a 90 10 3d
       -0.03346686 0.017760986 -0.051781982 0.035293676
000250 67 70 34 3d b3 3f dd 3c fd 36 7b 3c 04 f7 fa 3b
       0.044052508 0.027007913 0.015332934 0.007658841
000260 87 8d eb bb 0a 25 a1 bc 9a db 90 bb 18 21 b0 bb
       -0.0071885022 -0.019670982 -0.00442071 -0.005375039
000270 f1 79 88 3a e2 a5 5c 3a 42 80 95 3c d1 c2 79 ba
       0.0010412318 0.00084170524 0.018249635 -0.0009527626
000280 01 59 8a 3d 91 a1 3e 3d 37 b9 20 bc f7 64 dd bc
       0.067552574 0.0465408 -0.009809784 -0.027025683
000290 73 a8 ae 3c 79 c9 d0 3b 3f 72 fd bc 3d df 96 3c
       0.021320557 0.0063716737 -0.030938266 0.018416995
0002a0 22 5b c2 3c 5e e5 72 ba 19 7a 95 3d 4b 80 d0 3c
       0.023725096 -0.0009265746 0.07298679 0.0254518
0002b0 83 10 ac bc 85 c0 88 3b 97 4e 6b 3d 71 86 03 3c
       -0.021003967 0.0041733407 0.057447996 0.008027659
0002c0 14 76 a0 bc fd c8 b5 3d d5 a2 64 3c f6 33 0e bb
       -0.019587554 0.08876226 0.013954838 -0.0021698452
0002d0 98 8c 4c 3c 18 b9 db bb 78 d7 84 3c b2 36 4e bc
       0.012484692 -0.0067054145 0.016216025 -0.012586283
0002e0 5e da 90 bc dd 22 c1 3d 07 b9 97 bb a7 44 bb 3d
       -0.01768225 0.09430478 -0.0046302113 0.09143954
0002f0 5d 15 b9 3b 0c 74 55 3d 82 0c ad 3a 46 fb 31 3d
       0.0056482987 0.052112624 0.001320258 0.043452524
000300 94 56 a9 bc 6b 54 40 3c b6 ca 49 bd 37 0b c0 3c
       -0.020671166 0.011738877 -0.049265586 0.023442848
000310 ff 90 01 bc e9 7b af bb db 28 4d 3d 92 eb 0f be
       -0.007908105 -0.0053553474 0.05008779 -0.14054707
000320 c1 0a c8 3c 86 ec 03 bc 94 76 c0 bc 93 ef 45 3d
       0.02441919 -0.008051997 -0.023494042 0.04832418
000330 a9 5a 68 3d a3 e9 69 3d d7 35 94 3d 77 15 1e 3c
       0.056727085 0.05710758 0.07236832 0.009648672
000340 4a be af 3d 98 63 9f 3d dc 27 48 3c 01 fb 91 bd
       0.08581217 0.07782668 0.012216534 -0.07127953
000350 86 c5 09 bd b3 93 1d bc de ea 9e 3d e1 c5 84 bc
       -0.03363564 -0.009617734 0.07759641 -0.016207637
000360 6c 9b 5a bc fb b5 92 3d b6 e4 69 bc c4 95 ed bc
       -0.0133427195 0.07163616 -0.01427572 -0.029002078
000370 60 cb 53 3d c8 25 0c bd 42 1e a2 3d 07 9f 4e 3d
       0.051707625 -0.03421572 0.079159275 0.05044463
000380 4e e3 73 3d 5b ca 69 bc 2d b4 e0 bb b2 43 6f 3b
       0.059542947 -0.014269437 -0.006857416 0.0036508855
000390 36 63 72 bc 11 9c c8 ba 29 c9 4c 3d 87 7e 4c bc
       -0.014794162 -0.00153053 0.04999653 -0.012481338
0003a0 0c c8 6f bc eb 33 b8 3d b0 6f 97 3c 0c ca 80 3c
       -0.014635097 0.089942776 0.018485874 0.015721343
0003b0 4d 80 a2 bd 86 d7 90 3d 3b c9 7a bc 17 b0 30 b9
       -0.07934628 0.07072358 -0.015306766 -0.00016850267
0003c0 da 74 01 bd df 7c c9 bc 06 c0 4f 3d 33 ed 90 3b
       -0.03160558 -0.024595676 0.050720237 0.0044228076
0003d0 98 84 71 bb 9f 07 a6 3c 43 7e f6 bc 77 58 83 3d
       -0.0036852714 0.020267306 -0.030089503 0.06413358
0003e0 25 94 04 3d c3 48 a7 bb 0f 75 91 bb bd 89 92 3a
       0.032367844 -0.0051051094 -0.0044390033 0.0011179965
0003f0 d5 16 84 3d 6c c4 6b bb ac 98 ea bc 9a 01 86 bc
       0.06449667 -0.003597523 -0.028637253 -0.016358186
